saved_data/gnn_distilled.pt (torch, 40869 bytes, 9 tensors)

lin_self_1.weight f4 [64, 5]
00000000: 2f66 ebbc 0954 6f3e 84f4 60bd 8355 8a3e
00000010: 0ad7 76bd 5268 11be d91c 24bd 7bf3 293e
00000020: 4941 13be e626 e63d e420 6ebe 953f 0a3e
00000030: 5032 903e 923b 81be bda4 133e dc39 3dbe
00000040: 2059 39be f3bd a3bd d6b0 31be 95fc 233e
00000050: 87be 953e e788 733e db3e 833d 4317 1fbe
00000060: af43 753d ce7d 883d b8d9 913e 9009 723e
00000070: 9e24 053e e9e0 4bbe 041a 963e 9ec6 33be
00000080: 8816 23bd 7304 76be 6da6 0cbe f4b3 803e
00000090: ac5d 10bd 293f 633b dabe 93bc 4a59 a23d
000000a0: 08b8 12be f3c1 63bc 5284 1a3e f4f2 81be
000000b0: a01a 33bd be65 adbd f057 0fbe 136e 8abd
000000c0: a244 3ebe a2b5 103e c002 7bbe 0169 063e
000000d0: 30cd d9bc dbe3 093e fd95 acbc ba7b 8a3e
000000e0: 55e8 7d3e bc88 a8bd 1f2f 0ebe eba4 97bc
000000f0: 8684 2b3e 60a9 70be ddc5 f9bd 83c8 e73d
00000100: 28e8 62bd db88 8dbd 77df 9cbd b559 8bbc
00000110: 5a1a 733e 9559 95be 5133 75be c179 88be
00000120: 99f3 443e 4186 1bbe eeaa 66be 2a9c 353e
00000130: 4ede 493e 48fb 663c fe05 23bd 96f0 0abd
00000140: 9e12 973d e49f acbd afb2 48be 436b f43d
00000150: ed65 c4bd 9e7c b93d 01ac ee3d 97f8 d73d
00000160: dd8e 54be 3f97 9cbc d757 c3bd ab2c 35be
00000170: a3f5 cbbd 2103 463d 4a60 7bbd 7cb0 e63d
00000180: bd8b 8ebe b7f9 633e 6b1b 633c 22f2 dcbd
00000190: 8b4c b13d a660 41be ec44 c0bd afbc 8e3e
000001a0: e600 2cbd cd11 c9bd 96c4 8bbe 1387 bdbd
000001b0: 153b 0d3d 211c 30be 4678 4b3e f8e6 6bbb
000001c0: d808 72bd 42b8 883d 47d5 6dbe 1eba 93be
000001d0: a9e5 963e 8b5a df3d 1ba3 74be 606b 1bbe
000001e0: 69b4 82bc f9d2 eebd c0ec 413e 67d4 9bbd
000001f0: 34be e4bd b684 693c 5b32 e1bd aa89 3b3d
00000200: 587f 693e 0a16 57be 734b 28be ba87 863e
00000210: 6360 773e 90c9 353e c8c5 54be d11a 57be
00000220: 27e0 103e fe95 8dbd 3339 41bd 4f82 af3b
00000230: 4668 873e 9c2a 443d 020d 4d3e 6a66 423e
00000240: 2904 5c3e eed1 85be 68ad 08be dc3d 9a3d
00000250: dde8 48be 448b 84be 7d20 2f3e 1fc3 893d
00000260: 2816 88be 95e7 5d3e f844 423c 3e0c cabd
00000270: 3191 19be 9337 0c3e adf0 8c3e 1ea1 8a3d
00000280: 40be 3ebe 3a72 4fbe 32e3 fdbd f72d 90be
00000290: bd07 48bd a218 423d fd3c a33d 7ea0 7ebe
000002a0: d8f1 5d3e b662 49be 0f3a 57bd 127f 99bd
000002b0: 27ca 1ebe bbdc 413e 04f6 1f3e 8c76 ccbd
000002c0: 2c3b 963d c5e4 b2bd 82da 813e d033 36bc
000002d0: 8139 fc3d 7535 8d3e 855f 95be 3898 923e
000002e0: 4c33 463e 6cce 433e f6b7 22be c8be 613e
000002f0: 3010 91be 383d 90be 36aa 8abe c5e5 5c3e
00000300: f2fa c33a 9b5a c0bd 615c 6abe ff58 4ebe
00000310: d56b fb3d 0bb3 913e e5bc 803d a1f8 8abe
00000320: 7e28 27be 16f6 333e f877 fabd 4f55 88bd
00000330: 2790 593e e760 993d 3c64 5bbe a197 ed3c
00000340: d8f9 8cbe a4da 2cbd 8ec1 313e a826 1d3e
00000350: 1399 0b3e 846f 66be 819c 683e 1759 613c
00000360: cbf9 1d3e 5561 403d d6b8 33be 9a2a 563e
00000370: 2e4b 683e 6d6e f93d 7b80 903e 803c 603c
00000380: 56f2 dbbd e769 8abe 5022 14be 7234 513e
00000390: ff70 5dba 3394 1d3e 13d1 43be 0451 12be
000003a0: b216 943d 5d60 073e 1718 e4bd 0b0f 253d
000003b0: 2fd4 b5bd 710b 9c3d 02e6 87bd 2aa3 2cbe
000003c0: e929 4fbe 0f46 dabd 90b7 11be 94d8 ca3d
000003d0: eca5 bf3d 3511 6dbe b0af 563e df68 af3d
000003e0: 42e7 45be a55a 2f3e 8ce2 913e b144 e73d
000003f0: 867f 4f3e 72e0 933e 922c 843e 3e89 673e
-0.028735248 0.233719 -0.05492069 0.27018365 -0.06026367 -0.14199951 -0.040066574 0.16596787
-0.14380373 0.11237888 -0.23254734 0.13500817 0.28163385 -0.2524076 0.14418311 -0.18479103
-0.18100405 -0.07995214 -0.17352614 0.16014321 0.29246923 0.23782693 0.06408473 -0.15536217
0.059879 0.0666462 0.2848642 0.2363646 0.1300225 -0.19910015 0.29316723 -0.17556235
-0.03981641 -0.24025135 -0.13735361 0.25137293 -0.035245582 0.0034675098 -0.018035341 0.07927187
-0.14328015 -0.013901222 0.15089539 -0.2538067 -0.043726563 -0.084666714 -0.13998389 -0.06759276
-0.18580869 0.14131787 -0.24512768 0.13125993 -0.026587099 0.13465826 -0.021067614 0.2704752
0.24795659 -0.08229205 -0.13885163 -0.018511256 0.16749772 -0.23502111 -0.121959426 0.113175415
-0.055397183 -0.06910869 -0.0765981 -0.01701055 0.23740521 -0.29169908 -0.23945357 -0.2665539
0.1923355 -0.15187933 -0.22526142 0.17735353 0.19713709 0.014097996 -0.039800636 -0.033920847
0.07376598 -0.08428934 -0.19599412 0.11934521 -0.09589753 0.09056972 0.11653901 0.105454616
-0.20757623 -0.019115089 -0.095382385 -0.1769282 -0.09958961 0.048342828 -0.061371125 0.112641305
-0.27840987 0.22263227 0.013861517 -0.10788371 0.086571775 -0.18884525 -0.09388146 0.2787833
-0.041993044 -0.09817848 -0.2729842 -0.09254279 0.034480173 -0.1719823 0.198701 -0.0035995822
-0.059090465 0.066757694 -0.2322589 -0.28852934 0.29472092 0.109059416 -0.23890345 -0.15177679
-0.015955167 -0.116613336 0.18937969 -0.07608872 -0.11169091 0.014252832 -0.10995933 0.045785584
0.22802484 -0.21004501 -0.16435032 0.26275426 0.24157862 0.17752671 -0.20778573 -0.21006323
0.14148007 -0.06913374 -0.04717369 0.00535611 0.26446742 0.047892198 0.20024493 0.1898438
0.21485962 -0.26136726 -0.13347399 0.0753133 -0.1962008 -0.258875 0.17102237 0.067266695
-0.26579404 0.21670373 0.011857264 -0.09865616 -0.14996792 0.13693075 0.2752737 0.06769012
-0.18627262 -0.20258418 -0.1239685 -0.28160068 -0.048835505 0.047386773 0.07970617 -0.2486591
0.21674287 -0.19666561 -0.052545603 -0.0749494 -0.15506802 0.18931858 0.15621191 -0.099835485
0.07335505 -0.087350406 0.2536202 -0.0111207515 0.123156555 0.27579847 -0.29174438 0.2863176
0.19355506 0.19121712 -0.15890488 0.22045434 -0.28332663 -0.28171706 -0.27082986 0.21572025
0.0014952107 -0.093922816 -0.22886802 -0.20151137 0.12276427 0.2845691 0.06286029 -0.27142814
-0.1632404 0.17574343 -0.122299135 -0.06656896 0.21246396 0.07489186 -0.21424955 0.029002966
-0.27534366 -0.0422007 0.17358992 0.15346777 0.13632612 -0.22503477 0.22715952 0.013754151
0.1542732 0.046967823 -0.17550978 0.20914689 0.22684929 0.12179265 0.28223023 0.013686299
-0.10739581 -0.27033922 -0.14466214 0.20430163 -0.00084473187 0.15388565 -0.19122724 -0.14288718
0.07230891 0.13220353 -0.11137407 0.04029755 -0.088783614 0.0761937 -0.066356674 -0.16859117
-0.20230831 -0.10657894 -0.1423018 0.0990459 0.09357819 -0.23151095 0.20965457 0.085649244
-0.19326499 0.17124422 0.28493154 0.11292399 0.2026349 0.28882176 0.25815254 0.22610947

lin_self_1.bias f4 [64]
00000000: d940 aab8 afdd 19b9 cb03 bb39 4269 f9b9
00000010: e944 24ba 520a 68b8 4fcf 9739 c229 403a
00000020: 1533 d2b9 5007 7c39 f10c c5b9 04fa 1839
00000030: 9026 ad34 887c d138 7eb4 49b9 e2e2 35b9
00000040: 11de 80ba a824 12ba faa7 c8b6 31e2 8a37
00000050: 17c0 4f3a b3c0 8339 231c 2d39 e049 61b7
00000060: b0d9 66b9 6693 b137 b73d 8e39 a839 be37
00000070: d8ea 12b9 7723 5e39 f42e 4f3a 5a35 1c38
00000080: 890c cdb9 a8bc a5b9 8c0a 45b8 9c40 fcb9
00000090: 8099 c2b8 66a9 6ab8 9844 d9b8 3736 fdb9
000000a0: 13ab 4eba 08a5 54b7 1b08 c839 daeb c4b7
000000b0: 0e7f 85b9 90ef 5839 26b6 a5b9 d868 33b9
000000c0: e10a adb9 de27 f8b9 377f fa39 69b7 b939
000000d0: 683d 0e3a 92d5 ac39 1a4c 0c38 cbd9 dfb9
000000e0: de69 b2b8 2724 b1b9 a369 eb38 9625 02b9
000000f0: 47d2 1739 da87 6b37 6422 e6b9 7e2d 61ba
-8.1183105e-05 -0.000146738 0.00035670245 -0.00047571404 -0.0006266372 -5.5322722e-05 0.0002895542 0.0007330441
-0.0004009238 0.00024035317 -0.0003758441 0.00014588988 3.225182e-07 9.989092e-05 -0.00019236092 -0.00017346026
-0.0009831806 -0.000557492 -5.9800195e-06 1.655621e-05 0.0007925047 0.0002512984 0.00016509047 -1.3428245e-05
-0.00022015604 2.1168682e-05 0.00027130332 2.2676613e-05 -0.00014011131 0.00021184782 0.000790342 3.7242986e-05
-0.00039109986 -0.00031611812 -4.6978283e-05 -0.00048113323 -9.2792325e-05 -5.5947712e-05 -0.00010360143 -0.00048296314
-0.00078837684 -1.2674609e-05 0.00038153012 -2.3474848e-05 -0.000254624 0.00020688609 -0.00031606964 -0.00017109828
-0.00033005237 -0.0004733195 0.00047778498 0.000354226 0.00054260204 0.0003296552 3.3449476e-05 -0.00042696143
-8.507421e-05 -0.00033787006 0.000112253496 -0.00012411768 0.00014478817 1.4038722e-05 -0.00043894642 -0.0008589848

lin_neigh_1.weight f4 [64, 5]
00000000: f8a9 87bd 0e5c 09be e810 483e c057 323d
00000010: 50a9 d73d 21f5 c53d a241 373d 0c3e a7bd
00000020: 95d4 b13b e8c4 5d3c 9bee ba3d 49ed 3d3e
00000030: 93fd b8bd 65c4 c3bd c7e5 413e ef64 2b3e
00000040: 61dc 89be 3218 b93b 32aa 83bc e260 a2bc
00000050: d8c3 58bc 4cca 333e 1ad8 93be 18ba 913d
00000060: d95d c6bd d074 c63d 09b2 1bbc f18b 353e
00000070: ebd8 923e 181c 17be 84a5 dc3d cd67 553e
00000080: 5ce4 57be 2868 8cbe ec6e d7bd d98a 943e
00000090: e9a6 e03d 9117 8cbd 53c8 94be 1b2a 11be
000000a0: 0fc2 26bd 7cc1 923d c5ae 9a3d 1392 f3bd
000000b0: 57ca 803d 3378 053e c081 d4bd 2b23 1e3e
000000c0: 646e 89be b009 f2bd db6b 95bc 376b a83d
000000d0: 0007 943d fb83 85be c2b7 9fbc eb6d 8cbd
000000e0: 59bd 97bd 26a3 353e 62da 573e 750e d0bd
000000f0: 5ded 823e a8b9 d8bc ff94 cf3c ab38 94be
00000100: 75dd 943e 91bb c3bd bcd4 0cbe 10d2 643d
00000110: d44c 89be 1d08 e03d 0432 40be 285e 84be
00000120: f87f 01be 72b2 07be edec 2cbe 0a09 193d
00000130: 723f 2cbd 87b6 793e 555a 0a3e f6e7 4dbe
00000140: b7ec e03c 99bf f3bc 546a 4abe 7215 1a3e
00000150: 53c9 9bbc 6d43 2e3e c276 06be ef49 92be
00000160: 5b8e d3bb 5aa0 ab3d d349 84be a9fc 243e
00000170: e8b0 eebd 665e 0ebe b00e 143d 1d4d 823e
00000180: ff9e b6bc 608b 8e3e ee6e 1dbe 2def 53bb
00000190: e429 553e ac14 933e 48b2 7cbe e654 35bd
000001a0: e507 f43d 595a 44be 998c bdbd eb44 f43d
000001b0: 8856 163e d912 d53d 90a9 d5bc 0686 e23c
000001c0: ffd3 d53d fff3 093e 39fa 30be fcdb 93be
000001d0: 1f83 11be c1aa f7bd ea02 f939 17b9 9c3c
000001e0: d70e 70be cd45 f73c dacf ccbd 3f87 2a3e
000001f0: 5304 533d c0ad c2bd 37c3 22be 0173 e73d
00000200: f431 a5bd 2beb a23d d526 90bd f2ca 3dbe
00000210: 4239 283e 4c02 71be 4c16 b53d 6848 353d
00000220: 8a56 6d3c 28a2 833e 2409 00be 6af8 103e
00000230: 2e2b 283e 8e06 ecbd 07f9 3e3e c8e0 6a3e
00000240: 14af c93d 69aa 04bb 65d6 13be 2327 f93d
00000250: 5938 8fbe 7a19 53be ed85 abbc 51f8 81be
00000260: 7c7a 89be d50f 19be 98c1 0ebe 47df e23d
00000270: fba6 4ebe 5c6e f93d 16cf 05be 1a56 88bd
00000280: 7d49 573e 67e6 21be 41fc 91be b598 83be
00000290: 6e7e 10bd f8af 89bd d074 e1bd 75e9 4c3e
000002a0: fbd8 86be 75c8 923e cee1 293c 834f a23d
000002b0: 2ea7 09be 6a12 96bd f6f1 0c3e 1031 893c
000002c0: 2cfd ac3d 9e64 e93d e721 56be ee7c 103e
000002d0: dc48 b43d 0162 dbbd bdb7 8e3e 81b6 573e
000002e0: 92f5 0a3e eaf6 453e ada5 38be dcac 663e
000002f0: 74f8 85be c7eb 40bd 55c5 9f3d f25b 803e
00000300: fac7 5f3e 4684 b9bb 6040 64bd 7763 6d3d
00000310: fb11 afbd 381f c8bb c90d d73d 8497 7f3e
00000320: 01f7 503e ce39 94be 3253 53be 53ba a13d
00000330: 1f84 343e dad9 d93c 502a 483d 9b1d 133e
00000340: adb5 103d 26c8 d13d bc4a 71be c0d6 42be
00000350: 66fd 61be ac33 c2bd de56 dcbc 6a4c febd
00000360: f38b fb3d 0a52 5c3e 810b 43be 7b12 8d3e
00000370: 1c56 333e 9069 09be e876 133e d4a3 dd3d
00000380: f4ab 03be 9398 f53d a043 cdbb a95f 893e
00000390: 45bf 1f3e f0ae eabd 825f 833e 8252 35be
000003a0: 8522 8dbe cc81 7fbd c07e 403e 0376 e0bd
000003b0: d3b9 c23d 0473 d23d cc38 06be 6310 27bc
000003c0: 1a1d ffbd 150b 89bd 4f51 22be d5b5 3f3e
000003d0: 1767 2fbe fd91 053e c8f2 573c bc73 88be
000003e0: 2e9a 57be e359 253e 9b61 153e fd6a 85bc
000003f0: e1b0 7ebe 3304 93bd 8555 3dbc 5802 efbd
-0.06624216 -0.13414022 0.19537699 0.043540716 0.10530341 0.09665895 0.044740327 -0.081661314
0.005426953 0.013535716 0.09127542 0.18547548 -0.090327404 -0.09558944 0.1893531 0.16737722
-0.26925948 0.0056486363 -0.016072366 -0.019821588 -0.013230287 0.17557639 -0.2887581 0.07115573
-0.09685869 0.09690249 -0.009502896 0.17729165 0.2868112 -0.1475681 0.10773757 0.20840378
-0.21083206 -0.27423215 -0.105192035 0.29012182 0.109693356 -0.068404324 -0.29059085 -0.14176218
-0.040712412 0.071658105 0.07552866 -0.11893096 0.06288593 0.13034134 -0.1037631 0.15443103
-0.26842034 -0.11818254 -0.018239906 0.082235746 0.07227898 -0.26077256 -0.019496802 -0.06856903
-0.07409162 0.17738017 0.210794 -0.101590075 0.2557172 -0.026455715 0.025339602 -0.28949484
0.29075208 -0.0955726 -0.13753027 0.055864394 -0.26816428 0.109390475 -0.1876908 -0.25853086
-0.12646472 -0.13251665 -0.16887255 0.037362136 -0.042052694 0.24386035 0.13511021 -0.20108017
0.027456624 -0.029754447 -0.19767123 0.15047243 -0.019016897 0.17017908 -0.1313124 -0.28572032
-0.006456179 0.08380194 -0.25837573 0.16112007 -0.11654836 -0.13903198 0.03614682 0.25449458
-0.022292612 0.2784071 -0.15374348 -0.0032338605 0.20816761 0.2872671 -0.24677384 -0.04427042
0.11915568 -0.1917509 -0.092553325 0.119272076 0.14681447 0.104039855 -0.02608183 0.027651798
0.10440826 0.13471983 -0.17282952 -0.28878772 -0.14210175 -0.120931156 0.00047495152 0.019131226
-0.23443161 0.03018465 -0.10000582 0.16653155 0.051517796 -0.095057964 -0.15894781 0.11301232
-0.080661684 0.07955011 -0.070386566 -0.18534449 0.16428092 -0.23536032 0.088421434 0.044258505
0.014485965 0.25709653 -0.12503487 0.14157262 0.16422722 -0.11524688 0.18649684 0.2293731
0.098478466 -0.0020243174 -0.14437254 0.12165668 -0.27972677 -0.20615187 -0.020937884 -0.25384763
-0.2685126 -0.14947446 -0.13941038 0.11077743 -0.20180885 0.121792525 -0.13067278 -0.066570476
0.21024127 -0.15810548 -0.28512767 -0.25702444 -0.035276823 -0.067230165 -0.11008608 0.20010932
-0.26337418 0.28668562 0.010368777 0.07925322 -0.1344268 -0.07327731 0.13764176 0.016747028
0.08446726 0.11396144 -0.2091137 0.14110157 0.08802959 -0.10712052 0.27874556 0.21065713
0.1357024 0.19332471 -0.1803195 0.22526878 -0.26166117 -0.047099855 0.0780131 0.2507015
0.21853629 -0.00566152 -0.055725455 0.057956185 -0.085483514 -0.006107237 0.10500676 0.24960142
0.20406725 -0.2895035 -0.20637205 0.07896867 0.17628525 0.026593138 0.048868477 0.14366762
0.03532951 0.102432534 -0.23563665 -0.19027233 -0.2206932 -0.09482512 -0.02689689 -0.124169186
0.122825526 0.2151567 -0.19047357 0.27553162 0.17513317 -0.13419175 0.14400828 0.10822263
-0.12858564 0.11991992 -0.006264165 0.26830795 0.15600307 -0.11459148 0.25658804 -0.17707255
-0.275654 -0.062379643 0.18798351 -0.10960009 0.095080994 0.10275844 -0.13107604 -0.010196778
-0.124567226 -0.06691567 -0.1585133 0.18721707 -0.1712917 0.13043971 0.013180442 -0.26650798
-0.21054909 0.1614757 0.14588015 -0.016286368 -0.24872161 -0.07178535 -0.011556034 -0.11670369

lin_neigh_1.bias f4 [64]
00000000: d940 aab8 afdd 19b9 cb03 bb39 4269 f9b9
00000010: e944 24ba 520a 68b8 4fcf 9739 c229 403a
00000020: 1533 d2b9 5007 7c39 f10c c5b9 04fa 1839
00000030: 9026 ad34 887c d138 7eb4 49b9 e2e2 35b9
00000040: 11de 80ba a824 12ba faa7 c8b6 31e2 8a37
00000050: 17c0 4f3a b3c0 8339 231c 2d39 e049 61b7
00000060: b0d9 66b9 6693 b137 b73d 8e39 a839 be37
00000070: d8ea 12b9 7723 5e39 f42e 4f3a 5a35 1c38
00000080: 890c cdb9 a8bc a5b9 8c0a 45b8 9c40 fcb9
00000090: 8099 c2b8 66a9 6ab8 9844 d9b8 3736 fdb9
000000a0: 13ab 4eba 08a5 54b7 1b08 c839 daeb c4b7
000000b0: 0e7f 85b9 90ef 5839 26b6 a5b9 d868 33b9
000000c0: e10a adb9 de27 f8b9 377f fa39 69b7 b939
000000d0: 683d 0e3a 92d5 ac39 1a4c 0c38 cbd9 dfb9
000000e0: de69 b2b8 2724 b1b9 a369 eb38 9625 02b9
000000f0: 47d2 1739 da87 6b37 6422 e6b9 7e2d 61ba
-8.1183105e-05 -0.000146738 0.00035670245 -0.00047571404 -0.0006266372 -5.5322722e-05 0.0002895542 0.0007330441
-0.0004009238 0.00024035317 -0.0003758441 0.00014588988 3.225182e-07 9.989092e-05 -0.00019236092 -0.00017346026
-0.0009831806 -0.000557492 -5.9800195e-06 1.655621e-05 0.0007925047 0.0002512984 0.00016509047 -1.3428245e-05
-0.00022015604 2.1168682e-05 0.00027130332 2.2676613e-05 -0.00014011131 0.00021184782 0.000790342 3.7242986e-05
-0.00039109986 -0.00031611812 -4.6978283e-05 -0.00048113323 -9.2792325e-05 -5.5947712e-05 -0.00010360143 -0.00048296314
-0.00078837684 -1.2674609e-05 0.00038153012 -2.3474848e-05 -0.000254624 0.00020688609 -0.00031606964 -0.00017109828
-0.00033005237 -0.0004733195 0.00047778498 0.000354226 0.00054260204 0.0003296552 3.3449476e-05 -0.00042696143
-8.507421e-05 -0.00033787006 0.000112253496 -0.00012411768 0.00014478817 1.4038722e-05 -0.00043894642 -0.0008589848

lin_self_2.weight f4 [64, 64]
00000000: f7d9 053b 8961 26bd 9d07 eb3d 29c1 bcba
00000010: 01a4 2e3e 0f76 46bd 9b50 0eba ffb0 48be
00000020: 2cb2 31bc 7200 5abe a8b7 143e 4484 ee3d
00000030: 5ea6 9b3d bb3f 853d 9fd9 f6bd d185 9d3d
00000040: 112e a93d 2ee2 c53c 2932 153e 9ca1 3fbd
00000050: f938 113e 33ab a13b 4574 183d 7480 523e
00000060: 1e47 cd3d 9075 3d3b aa2f 523d eee6 46be
00000070: 9d47 24be b982 913b c8a6 0fbe 8ba1 4bbd
00000080: 11ce 333c 5daf e0bd 2c30 e1bd 1e45 d63b
00000090: 0b92 2d3e dbf2 3d3c a273 1f3e 5ea0 0d3e
000000a0: 01b8 9c3c cd6f 4b3e 553a 1a3e 4711 2d3d
000000b0: e39f 363e 887b fabd 9cc3 243d 0866 4abd
000000c0: 8aab 9a3d d2d3 213d 7f05 f2bd 95c5 e2bc
000000d0: 303c e3bd aac9 49be d75e 323e 2839 293e
000000e0: 08ce 1abe 0aca f43d f4db 0bbe ed28 3ebe
000000f0: 5e91 31be f2c5 a63c ba6e 5abe 07eb 12ba
00000100: b53b bfbd 51e5 153e a510 1fbe e5b7 fb3d
00000110: c223 9ebc 9da8 76bd 226e 713c ce84 09be
00000120: 9a8b 983d 1062 36be f79f 003e 38c8 21bc
00000130: 69b1 543d 5085 39be 7265 013d 5efe fabd
00000140: a328 11be d5ca 883d 40c5 c3bd bad7 1d3e
00000150: 815f 833d add7 35be dcca e53c 8a92 0b3e
00000160: 1f80 0d3e bdc7 003e b2d4 d3bd 47c0 df3d
00000170: 4e93 b83d ff50 18be 2c8a 20be 9c3f 86bd
00000180: c6d7 e3bd 635a 59be 9b7c e3bd 241e bc3d
00000190: d713 bebd 17a9 5cbe 41f2 393e b1e4 ec3d
000001a0: b273 02bb cd9b d63d 5106 c33d 2190 53be
000001b0: e2bc b2bd b2d2 533d 502a b43b 7e78 5c3e
000001c0: c021 123e 7675 07be b748 8ebc 5ea0 02be
000001d0: 70fc 563e 5e64 d23d 19fd 1bbe 9a5c 8cbd
000001e0: 2f42 823d 46e0 00be 24ea 523e 9be2 37be
000001f0: 065c 5d3d 2c78 41be 0826 033d 5be2 ea3d
00000200: 9c7a 853d 70ae b73c 4469 43be 17d3 473e
00000210: d3ac dabd 6910 4d3e 0017 9e3c dad4 2d3d
00000220: d0e3 233e 5482 1e3e ff64 04be b546 1bbe
00000230: 369e 593e f5ea 0dbe 8ddf afbc 1530 25be
00000240: bb73 e4bd f57d 9abd f504 e9bd bb8b 16be
00000250: cd0b a03d cda2 f13d 8004 a53d 6022 cbba
00000260: 1832 bbbd 0f55 90bd 0c10 02be 3b47 0b3e
00000270: ff3d 283a b787 9dbd 14f1 223e 03b5 06be
00000280: 9f20 3abe 7c35 f1bc aa30 dfbd 27b5 cdbd
00000290: ad18 e53c 4d27 29bc bf4c 153d ff8a 8bbd
000002a0: d529 e13d 649d 2bbe 2024 353d 86a5 983d
000002b0: 473f 08be f725 0cbe 25be 84ba 37d0 82bd
000002c0: d9f2 f83d bda1 1bbe d1fa 153e 3b32 1c3e
000002d0: b07d 1dbe a93d e4bd 38fd 1b3e 2ed6 8f3d
000002e0: 9fdb 23be f513 1abe 4256 4f3e 36f3 10be
000002f0: 02bf 363e 9bd3 153d e713 48bd 5a7e 99bd
00000300: b235 e3bd 2dd9 a7bc ba86 103e 96a9 373e
00000310: f023 15be 8059 c73d 5cac 403e a117 d33d
00000320: 855c 303e 5481 0dbe d81b 2ebe 3480 ad3d
00000330: ac65 82bd 9ab5 ddbd fa5a 3dbe 8059 183e
00000340: a215 e43d a37c 403e 4f86 313e 4b2c db3d
00000350: 7769 cb3d 7186 c13c f5e4 443e cd84 4b3e
00000360: 5e64 2cbe 6e72 203e 1dc8 353e 9bbd 39be
00000370: 6276 0e3e b766 1e3e ce7c 193e 06db e63d
00000380: e244 b53c 64a5 553e ae4b 033c 42f9 44be
00000390: 8033 c23d 84d8 3dbe 94b8 fdbd 045e 10be
000003a0: 79e6 4d3e c3a1 1d3e fb5f 013e 37e6 603c
000003b0: f915 8e3d 2d64 4dbe 5c18 06be 2068 58bd
000003c0: 7029 c5bd bdcd 4e3d fbb4 03be 1e8d cdbd
000003d0: 5bca 1fbd 23e2 b93d cfc5 af3b 9171 cdbd
000003e0: f108 363d 9c56 703b 3be8 393e 5728 3dbd
000003f0: 1f90 593e eaa2 513e 6dad 86bb 6bc1 b8bd
0.0020424107 -0.04062036 0.114760615 -0.0014400828 0.1705475 -0.048452433 -0.0005428881 -0.19598769
-0.010845702 -0.21289232 0.14523184 0.116463214 0.076000914 0.06506296 -0.12053227 0.07691539
0.082607396 0.024155702 0.14569916 -0.046784982 0.1418189 0.0049337386 0.03722026 0.20556813
0.1002333 0.0028909184 0.051314987 -0.1942403 -0.16042943 0.004440632 -0.14028466 -0.049714606
0.010974423 -0.10970948 -0.10995516 0.006539001 0.16950242 0.011593546 0.15571454 0.13830706
0.019130709 0.19866867 0.15061314 0.042252805 0.1783443 -0.12230593 0.04022561 -0.04941371
0.0755225 0.03950865 -0.118174545 -0.027682105 -0.11095464 -0.19705835 0.17418991 0.1652571
-0.15117657 0.119525984 -0.13658124 -0.185703 -0.1734061 0.02035806 -0.21331301 -0.000560448
-0.0933756 0.14638259 -0.15533693 0.122909345 -0.01930416 -0.060219396 0.01473573 -0.13429567
0.07448502 -0.17810845 0.12561022 -0.009874396 0.051927004 -0.18117261 0.031590886 -0.12255548
-0.14175658 0.06679312 -0.09559107 0.15414324 0.064147 -0.17758055 0.028050832 0.13630119
0.13818406 0.12576194 -0.10343303 0.10925346 0.09012471 -0.14874648 -0.15677708 -0.06555101
-0.1112514 -0.21225886 -0.11107751 0.09185436 -0.09281128 -0.21548878 0.18158819 0.11567057
-0.0019905386 0.104789354 0.09522689 -0.2066045 -0.08727433 0.051714607 0.005498208 0.21530339
0.14270687 -0.13228402 -0.017368658 -0.12756488 0.20994735 0.1027305 -0.15233268 -0.068536
0.0636028 -0.12585554 0.2059713 -0.17957537 0.05404284 -0.18893498 0.03201869 0.11468955
0.065175265 0.022422045 -0.19083124 0.19514118 -0.10677495 0.20025791 0.019298077 0.04243932
0.16004872 0.15479404 -0.12929152 -0.15163691 0.21251759 -0.1385916 -0.021468902 -0.16131623
-0.11154886 -0.07543556 -0.113778986 -0.1470174 0.07814751 0.1179863 0.08057499 -0.0015497915
-0.09140414 -0.07047474 -0.12701434 0.13601391 0.00064179295 -0.07691901 0.15912277 -0.13154988
-0.18176506 -0.029444449 -0.10897954 -0.10044318 0.027965868 -0.010324311 0.036450144 -0.06813621
0.10994307 -0.16759259 0.044223905 0.07453446 -0.13305388 -0.13686357 -0.0010127468 -0.0638737
0.121556945 -0.15198417 0.1464646 0.15253536 -0.15379977 -0.11144573 0.15233314 0.070232734
-0.16001748 -0.15046676 0.20247748 -0.14155278 0.17846301 0.036578756 -0.048847105 -0.07494803
-0.11094226 -0.0204893 0.14113894 0.17935786 -0.1456449 0.09733868 0.1881575 0.10307241
0.17222793 -0.13818866 -0.17002809 0.084717184 -0.063670486 -0.108256534 -0.18491736 0.14877892
0.11136939 0.18797545 0.17336391 0.107018076 0.09932225 0.023623677 0.19227965 0.19874878
-0.16835162 0.15668651 0.17752118 -0.18138735 0.13912347 0.1546887 0.14989015 0.11272244
0.022127572 0.20863873 0.008013649 -0.1923571 0.09482479 -0.18539625 -0.12388721 -0.14098364
0.2010745 0.15393738 0.1263427 0.0137267625 0.06937785 -0.20057745 -0.1309523 -0.052833676
-0.09627044 0.050489176 -0.12862007 -0.100366816 -0.03901134 0.09076335 0.005364157 -0.10031427
0.04444212 0.0036672717 0.18154995 -0.04618105 0.21246384 0.20472303 -0.0041100294 -0.090212665

lin_self_2.bias f4 [64]
00000000: cf58 b8b8 d11a 62ba c31c 05b8 9cca 6a3a
00000010: 70b9 6239 0b65 0a39 cd79 123a e0d0 22ba
00000020: 1abf 3839 96ca 8db9 3c14 66b8 0163 b239
00000030: ec12 a039 2e6b 26b7 fc75 78b5 b69c bcb9
00000040: 32e0 053a 7d37 233a 842e 04ba 5137 0cb9
00000050: 2fe4 09b9 c77b 2ab9 fd28 d239 2821 96b9
00000060: a76d b539 8b1f 6ab7 f78b ccb8 c6d9 cc35
00000070: ccce 4336 557b 4038 a967 8239 13a6 64ba
00000080: 5f80 c8b9 d129 b938 9c77 96ba 99ad 42b9
00000090: 6201 0438 24a4 98ba 0000 0000 5853 e039
000000a0: 2f46 81ba 5e3a a6b9 5a03 76ba f9dc 5038
000000b0: 6df7 a73a 3f59 f938 d4a6 ecb9 6264 0fb9
000000c0: e5fb a637 243e 1e38 f940 593a e919 0eba
000000d0: 29b3 8bb8 0000 0000 0a0a 3ab7 13c7 1c39
000000e0: d459 3e38 d22f 83b7 fa03 d939 9b14 33b9
000000f0: a84f 3fb9 344f 3439 b1ff 10b6 de51 6f3a
-8.7903456e-05 -0.0008625212 -3.1736457e-05 0.0008956583 0.0002162212 0.00013198347 0.0005587608 -0.00062109344
0.00017618798 -0.00027044554 -5.4855118e-05 0.0003402457 0.00030531676 -9.919326e-06 -9.255889e-07 -0.00035974913
0.0005106955 0.0006226225 -0.0005042332 -0.00013372047 -0.00013150343 -0.00016258574 0.0004008486 -0.00028634933
0.00034604708 -1.3954831e-05 -9.7535485e-05 1.5262565e-06 2.9177636e-06 4.589123e-05 0.00024872765 -0.0008722257
-0.00038242617 8.829276e-05 -0.0011479738 -0.00018565952 3.147254e-05 -0.0011645597 0.0 0.00042786705
-0.0009862835 -0.00031705474 -0.00093846547 4.979686e-05 0.0012814827 0.000118898686 -0.00045137724 -0.00013674938
1.990604e-05 3.772801e-05 0.0008287575 -0.0005420731 -6.661408e-05 0.0 -1.1088801e-05 0.0001495148
4.538319e-05 -1.5638685e-05 0.00041392428 -0.00017078446 -0.00018244854 0.00017195643 -2.1606504e-06 0.00091293256

lin_neigh_2.weight f4 [64, 64]
00000000: 4770 2bbe f0ae 27be 5a00 293e 6173 a23d
00000010: 1ab2 b63d b41d 19be 1c2c 8a3d 09ef 54be
00000020: a46f 00be a07b 9d3d cde2 36bc db18 9fbd
00000030: e277 883c b1d4 95bd 0c80 81bd 7630 3b3e
00000040: 4a9c 8fbc fc97 39be f7d4 23be f395 40be
00000050: c962 fd3c 5b73 95bd 90ff ccbd da41 78bd
00000060: 15c1 4ebe 3d19 8e3d c2f3 4d3e 0a65 dabd
00000070: 205e 3cbe 82ae 7f3d c9b0 39be d55c e73d
00000080: dc5e 153e 1f62 513c 4b91 1ebe 85ca 6fbd
00000090: 4339 2abe a5a5 3cbe 6d70 9c3d 7dfd c1bc
000000a0: 6230 dabb 5001 e83d 065b 6a3d 235c f83d
000000b0: 8632 85bd 3016 ffbd e063 4fbd fd56 54bd
000000c0: 90da 5cbe 1c25 403e 31b9 0bbe b150 ac3c
000000d0: ecb7 50be d8d8 a5bd 3e6e 29be 1d58 2e3d
000000e0: 71d9 2cbd 3efb 0d3d d4ef efbc 0f83 04be
000000f0: 2153 03bd 32f1 f4bd 428d 01bc 9c1e 253e
00000100: 116b d93d 4b73 2a3e a4b5 f5bd 6e05 26be
00000110: a833 5c3e 62d1 41be 4f90 6dbd e0c8 efbd
00000120: 46de 2bbe 4307 b13d d64a 0cbd bbc9 8e3b
00000130: fe98 593c 7917 a73d fee0 713c feb7 c83d
00000140: ae32 833d 50a3 fe3d fa6e 57be 1a2a 33bd
00000150: f227 febc ad2e c3bd cde7 e33c c96a 3d3e
00000160: d318 5a3e dd5a 713d 27b0 243e 361d 1f3b
00000170: f995 fa3d 684b d8bd ed40 be3d a3d3 66bd
00000180: d44f 353e 82b2 013e 627b 593e fcee 92bd
00000190: 607d b73c f134 44bb 198b e23c 0297 0ebe
000001a0: 4b74 373e d793 b03d dee0 1dbe 5ddb 3e3e
000001b0: 86ab a53d 9689 d73d 6e84 4e3e 8a6b 013e
000001c0: de84 07be 0789 fb3d 3c49 d3bd 2fa3 443e
000001d0: 8ab1 2fbe bb50 23be 1b21 ad3d f4f7 c73c
000001e0: fcb6 373e edb3 0e3e 1404 dfbc b316 88bd
000001f0: ed66 413c e8e1 133d 39da 083e 45a1 46bd
00000200: 3abc a3bd 8778 1d3e d570 033e e32b e73d
00000210: afb1 4abe aa07 a3bd 95d8 013d f8ff ddbd
00000220: f11d f43d a330 d2bd 2e93 08be 934a d83d
00000230: b5e9 16be 9652 71bd 0090 08be 29e9 da3c
00000240: d39f 29bd 066d 3abe e192 0bbd cb5e 07bd
00000250: 6622 b63d 7677 92ba aac2 8bbd 598c c6bd
00000260: 9c3f 1d3e 4fb8 313e 73b1 5c3e cd72 39bd
00000270: 8fbb 7dbd af77 b83d e2ea f53a a47a c23b
00000280: bc49 07bd b650 f73d c3fa ba3d 7b82 0cbc
00000290: 3f60 c0bd 8de6 b7bd 62c9 063e c4ba c43c
000002a0: 0f65 dbbd 8987 b0bd 7762 a9bd cfe9 c43c
000002b0: 33e6 283c 14ae 42be 6221 c63b 92e3 14be
000002c0: 93b2 4c3e f657 933a 951c dc3d 16f0 2f3e
000002d0: 29cc 053e 5d06 8fbd ef8e 303e 0d42 bd3d
000002e0: 8104 3abd 896b 183d d68e 4dbe 72a4 413e
000002f0: 3cc4 3dbd 37a1 fdbd c477 5bbe 69dd 98bd
00000300: 8dce c03c b40c 09be 3982 9a3d d908 bf3c
00000310: a6a4 02be b0cd f0bd cfff 253d 3933 373e
00000320: 12ed a3bd e136 e53d 3842 32be 3aaa 17be
00000330: 7292 38be e952 8ebc 9885 7f3c ea9a 0ebe
00000340: d64b e7bd 5dec 7ebc ad5f ec3d 425c 213e
00000350: 7e16 9d3d ff59 27be 5a17 aa3d a5dd 35bd
00000360: 86ea 38be a3d4 133c 7cca f63d d241 353e
00000370: 6635 583e 10b6 1c3e cca0 9ebd f176 15be
00000380: e44f a33d 9d0c bfbc b8e6 0fbe 6f9a 423e
00000390: dc0d 08be 5240 ddbd 03cf 313e 2297 4a3e
000003a0: 9fb8 fd3d 91bb c53d 148f 50be a9fa c93d
000003b0: e1b9 4bbe d48b a23d 6ec3 f9bc da0b 593e
000003c0: a09a 363e 0b9e 6e3c e0c6 d2bc 5d31 f4bd
000003d0: 91c8 243d b79e 01be e708 91bd 429f 0b3e
000003e0: 2f05 143d 0ce7 d4bd 7062 12be e7fb dabc
000003f0: 2f46 e6bd 4f71 c5bd 94a5 b73d 8ec6 de3c
-0.16742049 -0.16375327 0.1650404 0.07932163 0.08920689 -0.14952737 0.067466944 -0.2079431
-0.12542588 0.07689595 -0.011162472 -0.07768413 0.016658727 -0.07315958 -0.06323251 0.18280205
-0.01753058 -0.18124384 -0.15999208 -0.18807201 0.030930893 -0.07297393 -0.10009682 -0.060609676
-0.20190842 0.069384076 0.20112517 -0.10663803 -0.18395281 0.062422283 -0.18133844 0.11297003
0.14586967 0.012779742 -0.15485112 -0.058542747 -0.16623406 -0.18422563 0.07638631 -0.023680443
-0.0066585997 0.11328375 0.057215713 0.12126949 -0.06503777 -0.12455404 -0.050632358 -0.05184077
-0.2156775 0.18764156 -0.13644864 0.02103457 -0.2038266 -0.08098 -0.1654596 0.0425645
-0.042199556 0.03466343 -0.029289164 -0.1294062 -0.0320617 -0.11960067 -0.007907214 0.16124958
0.106161244 0.16645543 -0.11997536 -0.16213009 0.2150408 -0.1892753 -0.05799895 -0.11708236
-0.1678401 0.08643963 -0.034251057 0.0043575442 0.013281105 0.08158774 0.014763115 0.09800719
0.06406151 0.12433493 -0.21038428 -0.043741323 -0.031024907 -0.09530387 0.027820492 0.18497767
0.21298532 0.058924545 0.16082822 0.0024278886 0.12235636 -0.105612576 0.09289727 -0.056354176
0.17706233 0.12665752 0.21238473 -0.07174489 0.02239865 -0.0029938782 0.027654218 -0.13924792
0.17915456 0.08621948 -0.15417811 0.18638368 0.08089356 0.10524289 0.20167705 0.12638679
-0.13234279 0.12281995 -0.10316703 0.19202875 -0.1715757 -0.15948765 0.0845358 0.024410225
0.17940897 0.13935824 -0.027223624 -0.066449545 0.011804325 0.036104113 0.13364495 -0.048493642
-0.07994886 0.15378009 0.12836011 0.112876676 -0.19794343 -0.07960446 0.03170069 -0.10839838
0.11919773 -0.10263183 -0.13337395 0.10561099 -0.1473759 -0.05891665 -0.13336182 0.026722508
-0.041412186 -0.18205652 -0.03407562 -0.033049386 0.0889328 -0.0011174518 -0.068242386 -0.09694738
0.15356296 0.17355464 0.21552067 -0.0452755 -0.061946448 0.09007203 0.0018762017 0.00593503
-0.033029303 0.12075941 0.0912986 -0.008576031 -0.093933575 -0.08979521 0.13162759 0.024014838
-0.10712635 -0.08619601 -0.08270734 0.02403727 0.01030879 -0.19011718 0.00604646 -0.14539936
0.19989996 0.0011241424 0.10747639 0.1718143 0.13066162 -0.069836356 0.17242025 0.09241114
-0.04541445 0.03721193 -0.20074019 0.18910387 -0.04632972 -0.12384265 -0.21432406 -0.07464106
0.023535991 -0.13383752 0.07544369 0.023319649 -0.12758121 -0.11757982 0.04052716 0.17890634
-0.08004202 0.11192108 -0.17408073 -0.1481103 -0.18024614 -0.017373519 0.015595816 -0.13926283
-0.112937614 -0.015559283 0.11541686 0.1575785 0.07670306 -0.16342925 0.08305235 -0.04440083
-0.18058214 0.0090228645 0.120503396 0.1770089 0.2111412 0.15303826 -0.07745513 -0.14596154
0.07974222 -0.023321444 -0.14052856 0.19004224 -0.13286537 -0.10803284 0.17364125 0.19784215
0.12388729 0.09654916 -0.2036708 0.09862263 -0.19895126 0.07936826 -0.030488696 0.21195927
0.17832422 0.014564048 -0.025729597 -0.11923478 0.040230338 -0.12658201 -0.07081776 0.13634971
0.036137756 -0.10395631 -0.14295363 -0.026731445 -0.11243855 -0.096407525 0.089671284 0.027194288

lin_neigh_2.bias f4 [64]
00000000: cf58 b8b8 d11a 62ba c31c 05b8 9cca 6a3a
00000010: 70b9 6239 0b65 0a39 cd79 123a e0d0 22ba
00000020: 1abf 3839 96ca 8db9 3c14 66b8 0163 b239
00000030: ec12 a039 2e6b 26b7 fc75 78b5 b69c bcb9
00000040: 32e0 053a 7d37 233a 842e 04ba 5137 0cb9
00000050: 2fe4 09b9 c77b 2ab9 fd28 d239 2821 96b9
00000060: a76d b539 8b1f 6ab7 f78b ccb8 c6d9 cc35
00000070: ccce 4336 557b 4038 a967 8239 13a6 64ba
00000080: 5f80 c8b9 d129 b938 9c77 96ba 99ad 42b9
00000090: 6201 0438 24a4 98ba 0000 0000 5853 e039
000000a0: 2f46 81ba 5e3a a6b9 5a03 76ba f9dc 5038
000000b0: 6df7 a73a 3f59 f938 d4a6 ecb9 6264 0fb9
000000c0: e5fb a637 243e 1e38 f940 593a e919 0eba
000000d0: 29b3 8bb8 0000 0000 0a0a 3ab7 13c7 1c39
000000e0: d459 3e38 d22f 83b7 fa03 d939 9b14 33b9
000000f0: a84f 3fb9 344f 3439 b1ff 10b6 de51 6f3a
-8.7903456e-05 -0.0008625212 -3.1736457e-05 0.0008956583 0.0002162212 0.00013198347 0.0005587608 -0.00062109344
0.00017618798 -0.00027044554 -5.4855118e-05 0.0003402457 0.00030531676 -9.919326e-06 -9.255889e-07 -0.00035974913
0.0005106955 0.0006226225 -0.0005042332 -0.00013372047 -0.00013150343 -0.00016258574 0.0004008486 -0.00028634933
0.00034604708 -1.3954831e-05 -9.7535485e-05 1.5262565e-06 2.9177636e-06 4.589123e-05 0.00024872765 -0.0008722257
-0.00038242617 8.829276e-05 -0.0011479738 -0.00018565952 3.147254e-05 -0.0011645597 0.0 0.00042786705
-0.0009862835 -0.00031705474 -0.00093846547 4.979686e-05 0.0012814827 0.000118898686 -0.00045137724 -0.00013674938
1.990604e-05 3.772801e-05 0.0008287575 -0.0005420731 -6.661408e-05 0.0 -1.1088801e-05 0.0001495148
4.538319e-05 -1.5638685e-05 0.00041392428 -0.00017078446 -0.00018244854 0.00017195643 -2.1606504e-06 0.00091293256

readout.weight f4 [1, 64]
00000000: 86c9 2ebe 1f8d 79be f828 35bd d8bd 553e
00000010: cca8 8e3d 7b3a 123e 5f65 8e3e 2f7e 56be
00000020: 8c4d 3c3d 0c82 9dbd 1a43 87be e8ec e13d
00000030: c145 253e 165d 1fbe bd74 b3ba b1b6 21be
00000040: fad3 413e 41be 313e 8908 99be 0f65 40be
00000050: f4ef debc 0d8e c9bd f46f 173e 89b4 99bd
00000060: 04f7 453e 72e8 873e a9c6 c1bc a248 713e
00000070: 0736 c53a 72a8 cc3c 9687 743d 3fc2 78be
00000080: 1e7a f0bd a11d b83d 8871 89be c981 8fbe
00000090: a1a2 2c3e cb91 8fbe 7074 013d a19a 643e
000000a0: 256e 59be 87dc 4abe 047f 8bbe eaff ef3c
000000b0: 4d18 863e 8373 923e 6510 e8bd 75bb c3bd
000000c0: 73bd 1c3d 1271 eb3c 7c32 743e a863 0ebe
000000d0: 12da eebd 48fe d73d a9b2 63bc ab56 683e
000000e0: 05ac 5a3c 63cd 64be ba3c de3d 5820 2cbe
000000f0: 559b 23bd 0d71 3a3d 5f46 55be e5a6 773e
-0.17069063 -0.2437024 -0.044228524 0.20873201 0.06965789 0.14280121 0.27811715 -0.20946573
0.045972392 -0.0769082 -0.26418382 0.110315144 0.1613989 -0.15562853 -0.0013691407 -0.15792347
0.18928519 0.17357732 -0.29889324 -0.18788551 -0.027214028 -0.09841547 0.147888 -0.075051375
0.1933251 0.2654453 -0.023654299 0.23562863 0.0015046009 0.024982665 0.059699617 -0.24292849
-0.11742042 0.08990026 -0.2684443 -0.28028706 0.16858913 -0.2804092 0.031605184 0.22324611
-0.21233423 -0.19810687 -0.27245343 0.029296834 0.26190415 0.28603753 -0.11331252 -0.09557239
0.03826661 0.02874044 0.23847383 -0.13905203 -0.11662687 0.10546547 -0.013897576 0.22689311
0.013346677 -0.22343974 0.108514264 -0.16809213 -0.039943058 0.04551797 -0.20827626 0.24184759
