saved_data/gnn_distilled.pt (torch, 40869 bytes, 9 tensors)

lin_self_1.weight f4 [64, 5]
-0.19550468 -0.16408825 -0.15733388 -0.2369332 0.042624753 0.076949954 0.22608607 -0.22605655
0.22248696 0.19124745 0.13366921 0.1055077 0.07977245 -0.054679792 0.17053622 0.09154342
-0.26775694 -0.0033599697 -0.017399244 0.066317484 -0.035156436 0.18380065 0.24042548 -0.18438035
0.20629212 -0.21221566 0.09004829 0.092303276 0.25406662 -0.011820343 0.11437056 -0.12790857
0.2561776 0.19273573 0.2068267 -0.0017794952 0.2672968 -0.21063048 0.20260902 -0.18527776
0.13506943 0.1675739 0.040662277 0.23591614 -0.2767174 0.20230171 0.109684184 -0.25732535
-0.1313223 -0.19057015 -0.015364314 -0.11663759 0.11238414 0.08968221 0.13768636 0.18656881
-0.16042562 0.0019049203 0.12574992 0.0057297163 0.069168866 0.16359206 -0.090221435 0.073391125
0.2823875 0.009771421 -0.13273491 0.2551922 0.009953488 0.18978786 -0.25513068 -0.16865031
0.19983935 -0.008821251 0.27122533 0.26102448 -0.1827434 0.092372455 0.26049334 -0.047685064
0.22109175 -0.07101112 0.011335108 -0.22053231 -0.056105386 -0.17437601 -0.2829278 -0.109678335
0.20056435 -0.13942847 0.07955428 -0.007357397 -0.1866064 -0.17839767 0.071290314 0.06493069
-0.18412457 0.19564237 -0.22125708 0.25211287 -0.01267393 0.15962428 -0.18727642 0.13862748
0.047964502 -0.23502116 0.2614377 -0.016104182 0.24863967 -0.29159346 -0.24640343 -0.1506041
-0.24410705 0.20548879 0.18807514 -0.24953942 -0.18778637 -0.1722927 0.17575507 0.29165313
0.2876291 -0.08689595 0.18319963 -0.06066385 -0.12236577 0.108932406 0.14850113 -0.136631
0.23531796 0.030362938 0.013609715 -0.16727298 0.23984405 0.07916822 0.0015209471 0.14899126
0.19210489 0.2656773 0.1892946 0.098521374 -0.13163985 -0.23817107 -0.10720236 -0.052690633
0.26912627 -0.19271599 -0.25137198 -0.16359518 -0.06024549 -0.1291995 0.2685371 -0.07986418
0.21859056 -0.04136852 0.12991223 0.26869762 0.080097705 0.29440784 -0.2471903 0.012920353
0.09504705 0.1074513 -0.27460125 -0.23417364 0.08326886 -0.12055311 0.10245885 0.19468965
0.19334728 -0.012581167 0.03469626 0.2940235 0.26824817 -0.17900747 0.028340098 0.23883928
-0.14451261 -0.22288623 0.25133252 0.26276526 0.2686061 0.025592662 -0.08186384 0.22049181
0.14108147 -0.24257596 -0.042507067 0.112552635 -0.06707056 0.19807278 0.051524494 0.2404315
-0.17271644 -0.20797442 -0.1083878 -0.16379312 0.039383583 0.13287883 0.089967236 0.049197763
0.1849657 -0.008541508 0.28323644 0.120903045 -0.26726463 0.28581536 0.0072798324 0.1563569
0.16452353 -0.1790763 0.17288125 0.22024375 -0.23547623 0.2421564 0.1329546 -0.048812624
0.13185237 0.002103998 -0.13478047 -0.03412364 0.12628256 -0.082250744 0.10029683 0.18484907
0.1260532 0.27008918 0.027061464 -0.26096538 0.14999741 0.14636984 0.013595205 0.052758034
0.015267756 0.083010875 -0.19359204 0.19918598 0.07647916 -0.23168996 -0.25985378 -0.25638694
0.022990767 0.293633 -0.19966392 -0.017011713 -0.057913035 0.04959748 0.023631606 -0.18946666
-0.29076564 0.22092101 -0.28093886 0.09221872 0.2506629 0.21410608 -0.115604214 0.26145712
00000000: 6132 48be c006 28be 221c 21be 9e9e 72be
00000010: 4b97 2e3d f097 9d3d 1b83 673e 5e7b 67be
00000020: 9fd3 633e 5fd6 433e 95e0 083e 6c14 d83d
00000030: bd5f a33d ebf7 5fbd 0ca1 2e3e 1e7b bb3d
00000040: 7017 89be f032 5cbb dc88 8ebc 76d1 873d
00000050: 3200 10bd 3d36 3c3e 1932 763e 34ce 3cbe
00000060: 3e3e 533e 104f 59be 3d6b b83d 8009 bd3d
00000070: 0515 823e 1daa 41bc 1d3b ea3d 77fa 02be
00000080: b629 833e 845c 453e 61ca 533e f33d e9ba
00000090: 20db 883e 84af 57be bd78 4f3e 74b9 3dbe
000000a0: a44f 0a3e 7e98 2b3e 7d8d 263d 0094 713e
000000b0: e7ad 8dbe 2e28 4f3e 1aa2 e03d 26c0 83be
000000c0: 5a79 06be d224 43be 9bba 7bbc b0df eebd
000000d0: a829 e63d 4eab b73d a7fd 0c3e e50b 3f3e
000000e0: 9d46 24be 85ae f93a 96c4 003e 58c0 bb3b
000000f0: 68a8 8d3d ad84 273e 04c6 b8bd 164e 963d
00000100: 1895 903e 4f18 203c a9eb 07be 8da8 823e
00000110: f413 233c c057 423e 7da0 82be abb2 2cbe
00000120: b0a2 4c3e 0287 10bc 0cde 8a3e 00a5 853e
00000130: 1621 3bbe c52d bd3d 625f 853e 6a51 43bd
00000140: e065 623e 476e 91bd e4b6 393c 39d3 61be
00000150: c3ce 65bd a08f 32be eadb 90be 099f e0bd
00000160: be60 4d3e 56c6 0ebe 5bed a23d 5216 f1bb
00000170: c015 3fbe e1ad 36be a800 923d 62fa 843d
00000180: 278b 3cbe 7956 483e 3791 62be f014 813e
00000190: 51a6 4fbc 8c74 233e 64c5 3fbe 5df4 0d3e
000001a0: 6d76 443d 63a9 70be 2adb 853e ebec 83bc
000001b0: 669b 7e3e bd4b 95be 2e51 7cbe f637 1abe
000001c0: 33f7 79be a76b 523e c596 403e 4387 7fbe
000001d0: 124b 40be 7f6d 30be 23f9 333e 8f53 953e
000001e0: 1f44 933e 81f6 b1bd af98 3b3e a87a 78bd
000001f0: e89a fabd f417 df3d ae10 183e ffe8 0bbe
00000200: 31f7 703e b2bb f83c 48fb 5e3c 9c49 2bbe
00000210: ae99 753e f322 a23d 845a c73a 2a91 183e
00000220: 25b7 443e db06 883e 72d6 413e 93c5 c93d
00000230: 99cc 06be 1ee3 73be e98c dbbd 22d2 57bd
00000240: ebca 893e 5757 45be d4b3 80be 7f85 27be
00000250: fac3 76bd e04c 04be b27d 893e d58f a3bd
00000260: 34d6 5f3e 0a72 29bd b607 053e bc92 893e
00000270: 440a a43d a0bc 963e 741f 7dbe e3af 533c
00000280: 07a8 c23d 6d0f dc3d 8998 8cbe 37cb 6fbe
00000290: dd88 aa3d 8de4 f6bd f2d5 d13d b95c 473e
000002a0: d4fc 453e 3d21 4ebc aa1d 0e3d 408a 963e
000002b0: d357 893e bc4d 37be 7e29 e83c 4992 743e
000002c0: 1dfb 13be 4a3c 64be a8ae 803e 2b89 863e
000002d0: bd86 893e b4a7 d13c 3ba8 a7bd 9bc8 613e
000002e0: a977 103e d565 78be e41b 2ebd ff81 e63d
000002f0: 4a5c 89bd 97d3 4a3e 590b 533d ad33 763e
00000300: 94dc 30be 3ff7 54be 6cfa ddbd 62b9 27be
00000310: ae50 213d 6311 083e be40 b83d 9883 493d
00000320: a667 3d3e aef1 0bbc 5e04 913e 049c f73d
00000330: e9d6 88be 6456 923e a98b ee3b 061c 203e
00000340: db78 283e c75f 37be c807 313e 9487 613e
00000350: ae20 71be d9f7 773e 4025 083e bfef 47bd
00000360: 4f04 073e 3be3 093b e403 0abe 3bc5 0bbd
00000370: 3750 013e 1473 a8bd 6d68 cd3d 1349 3d3e
00000380: 1714 013e 2149 8a3e 01b0 dd3c 419d 85be
00000390: ec98 193e fae1 153e 6cbe 5e3c cf18 583d
000003a0: 9c25 7a3c 9b01 aa3d fe3c 46be 69f7 4b3e
000003b0: 1ba1 9c3d 2240 6dbe 8e0b 85be 2645 83be
000003c0: 2257 bc3c 1157 963e b374 4cbe 265c 8bbc
000003d0: 3836 6dbd ba26 4b3d 1297 c13c 8c03 42be
000003e0: 3cdf 94be 1e39 623e 38d7 8fbe 2bdd bc3d
000003f0: e356 803e a03e 5b3e e7c1 ecbd b5dd 853e

lin_self_1.bias f4 [64]
0.00018446296 -7.189843e-06 -0.0002447498 0.00016248133 0.00032020753 -2.8584811e-05 -3.6910813e-05 2.561284e-06
0.00010593748 -6.895317e-05 -8.3633495e-05 -4.7011254e-05 -0.000106566964 9.95471e-05 0.00012502357 1.3295918e-05
5.0675117e-05 -0.0002418153 1.9635565e-06 -7.9486774e-05 7.31956e-05 7.5831296e-05 -4.6535046e-05 1.3481152e-05
-4.110315e-05 -3.5085424e-05 -0.000173898 -0.00016867477 3.382371e-05 0.0002171179 -0.00014406707 -0.00038910675
-0.00014846324 5.602001e-07 0.00014752246 -0.0002631329 -0.000105931176 8.1580096e-05 -0.00021727216 1.8926834e-05
5.783914e-05 0.00016905155 -1.528799e-05 2.579989e-06 -0.00015210145 0.00016900104 -3.016031e-05 5.924295e-05
-0.00014003944 1.9330906e-05 -8.627022e-05 -8.987027e-05 0.0004108665 -6.2708605e-05 -0.00017816982 6.7108385e-06
5.1121853e-05 0.000109430635 -0.00024562745 -0.00013101331 -2.2873803e-05 -0.00014089557 1.0326645e-05 8.34354e-05
00000000: 666c 4139 4840 f1b6 c351 80b9 c05f 2a39
00000010: 87e1 a739 6ac9 efb7 afd0 1ab8 86e2 2b36
00000020: c02a de38 f49a 90b8 6464 afb8 f32d 45b8
00000030: b47c dfb8 f1c3 d038 c218 0339 8811 5f37
00000040: fe8b 5438 cd8f 7db9 a5c5 0336 23b2 a6b8
00000050: 9780 9938 9e07 9f38 a02e 43b8 1b2d 6237
00000060: 2c66 2cb8 b028 13b8 6458 36b9 4ade 30b9
00000070: efdd 0d38 24aa 6339 b610 17b9 0601 ccb9
00000080: ccac 1bb9 a860 1635 42b0 1a39 1af5 89b9
00000090: 5e27 deb8 fb15 ab38 8dd3 63b9 11c5 9e37
000000a0: 4e98 7238 6e43 3139 b53e 80b7 e023 2d36
000000b0: 6c7d 1fb9 df35 3139 c600 fdb7 a27b 7838
000000c0: 8dd7 12b9 ce28 a237 f9eb b4b8 bc78 bcb8
000000d0: 9169 d739 6d82 83b8 19d3 3ab9 aa2d e136
000000e0: ac6b 5638 207e e538 8fc7 80b9 9e60 09b9
000000f0: 1ee1 bfb7 5ebd 13b9 9a40 2d37 0afa ae38

lin_neigh_1.weight f4 [64, 5]
-0.23084827 0.24325947 0.2812116 0.0786091 -0.08048137 -0.1312453 -0.27520707 -0.21631452
-0.11492566 0.12816462 -0.005438669 -0.20708844 0.0927736 -0.20169313 0.19682121 -0.08419986
0.095882125 0.29026935 0.0033101754 -0.25984997 0.052094 0.02735708 0.28370705 -0.25102705
-0.22489332 0.18631363 -0.24963455 0.059313476 0.18270117 0.23999992 -0.07777325 -0.028739817
0.22057265 0.23310736 0.051138308 0.13519488 0.12126285 0.04673563 0.21361026 -0.23858047
0.03320147 0.23472126 -0.17460038 -0.22173949 -0.096743114 -0.15058818 0.16622956 -0.05982874
-0.29426205 -0.0077875694 0.15888545 -0.052269477 -0.07063076 -0.22308664 -0.10182953 -0.045249786
-0.041375935 -0.0669672 0.27645582 -0.14432396 0.03481532 -0.24604145 -0.13362175 -0.008415159
-0.07499474 0.09301995 -0.21605821 -0.050489 -0.054397635 0.23136401 0.21219878 -0.27608168
-0.13163862 -0.18205841 0.14860135 -0.019063504 -0.21399704 -0.115822606 0.12109375 0.21975267
-0.21393058 -0.055488788 0.21266876 -0.096240245 0.043282706 -0.18979242 -0.24690674 -0.041272983
-0.2566887 0.027823577 0.20550315 -0.047496058 -0.057488576 0.24876723 0.17103738 0.19729419
0.26218647 0.22933614 0.15414001 -0.14593557 0.13606969 -0.25194433 -0.17856923 0.17434081
0.2442337 -0.030916965 -0.23628628 -0.07878722 -0.040418595 -0.2604989 -0.19074352 -0.06339147
0.16580422 0.10682733 -0.18090908 -0.13168532 -0.23120971 0.259082 0.21747531 -0.084383085
-0.213853 0.13660492 -0.119362935 0.27757093 -0.036411963 0.052250247 -0.020534072 0.027345179
0.0069748587 -0.102362625 0.1319101 -0.10222599 -0.116444714 -0.1646893 -0.20838347 0.23698156
-0.1686274 -0.25433707 -0.12725985 0.18292221 0.14997368 -0.25206092 -0.26019487 -0.2843245
0.27666032 -0.2825323 -0.14558116 -0.2912021 -0.24838725 -0.006563815 0.17772174 -0.16001438
-0.18744868 0.16087206 -0.18544735 0.24540533 0.19247593 -0.017700046 -0.27002192 0.26469606
0.09130384 -0.08561354 -0.027884435 -0.07295293 0.18165618 -0.15691587 0.20879294 -0.050989624
0.058329925 0.2673157 -0.22850543 -0.1514372 0.05757681 0.003589716 -0.014287439 0.29391795
-0.2735564 -0.21623938 -0.29407725 -0.19943458 0.26285616 0.0054707197 0.2505162 -0.26859128
-0.23377417 -0.22490783 0.26481605 -0.29279053 0.014768596 0.19443083 0.01084899 -0.12902367
-0.032588728 -0.20398028 -0.23036452 -0.054885462 0.14687285 0.29382086 -0.12061502 0.23423533
-0.26698637 -0.25645378 -0.17858703 0.02365467 0.018303514 0.08187067 -0.10027219 -0.099920936
0.015515285 -0.16376145 0.12157226 -0.19315574 0.2534979 0.18402454 -0.21584447 -0.10923775
0.2109694 -0.041720558 0.079808496 0.27062318 0.028224517 0.27480698 0.0031572382 -0.16310275
-0.024948532 0.03131544 -0.101519935 0.10142621 -0.10055932 0.18367186 0.19051115 -0.18909799
0.2618369 -0.00046493145 -0.023195349 0.014110104 -0.24352692 -0.23496789 0.15458015 0.24546474
0.1806663 0.2203204 -0.16720827 0.043541133 0.086159974 -0.27360922 -0.25670514 0.034456536
0.16480547 0.099939704 0.04885305 0.060693953 -0.03775259 0.13796362 0.09819941 0.13818543
00000000: 7d63 6cbe 0319 793e f8fa 8f3e cffd a03d
00000010: 6bd3 a4bd 2b65 06be f1e7 8cbe 8e81 5dbe
00000020: 255e ebbd 963d 033e dd36 b2bb fe0e 54be
00000030: 1600 be3d a588 4ebe 808b 493e fa70 acbd
00000040: d95d c43d 2f9e 943e 87ef 583b 0e0b 85be
00000050: 8560 553d f41b e03c 0d42 913e 9e86 80be
00000060: 6f4a 66be 00c9 3e3e 33a0 7fbe b0f2 723d
00000070: 0416 3b3e 8ac2 753e 9547 9fbd c46f ebbc
00000080: ccdd 613e b2b3 6e3e 6776 513d 8770 0a3e
00000090: a858 f83d dc6d 3f3d a6bc 5a3e 704e 74be
000000a0: 44fe 073d c55a 703e 71ca 32be ad0f 63be
000000b0: 4121 c6bd ca33 1abe 1538 2a3e fb0e 75bd
000000c0: 84a9 96be de2e ffbb deb2 223e 8518 56bd
000000d0: dca6 90bd d370 64be 008c d0bd d757 39bd
000000e0: d079 29bd 1926 89bd 9e8b 8d3e a9c9 13be
000000f0: 829a 0e3d 4af2 7bbe 24d4 08be bcdf 09bc
00000100: d896 99bd 3e81 be3d 5d3e 5dbe 8ecd 4ebd
00000110: 0ed0 5ebd b0ea 6c3e a34a 593e 945a 8dbe
00000120: 46cc 06be 856d 3abe f42a 183e 112b 9cbc
00000130: 0a22 5bbe 6734 edbd 0000 f83d d806 613e
00000140: 9e10 5bbe 3648 63bd d7c5 593e 9b19 c5bd
00000150: 3549 313d f258 42be 1fd5 7cbe dc0d 29bd
00000160: b46c 83be 45ee e33c 6b6f 523e 3a8b 42bd
00000170: 2479 6bbd d6bc 7e3e 6c24 2f3e 7d07 4a3e
00000180: 4e3d 863e 18d7 6a3e e1d6 1d3e 2270 15be
00000190: da55 0b3e d9fe 80be dada 36be 6686 323e
000001a0: 6618 7a3e 9345 fdbc 08f5 71be 325b a1bd
000001b0: f88d 25bd 1d60 85be 4552 43be 63d3 81bd
000001c0: 95c8 293e 4ac8 da3d 3b40 39be 84d8 06be
000001d0: 3dc2 6cbe 65a6 843e d9b1 5e3e 0ad1 acbd
000001e0: 48fc 5abe 29e2 0b3e 8e74 f4bd c71d 8e3e
000001f0: b624 15bd 5b04 563d 1237 a8bc ff02 e03c
00000200: 5b8d e43b 7fa3 d1bd 7113 073e dc5b d1bd
00000210: 917a eebd 50a4 28be 7a62 55be 4bab 723e
00000220: a9ac 2cbe 7838 82be 6850 02be f64f 3b3e
00000230: b392 193e 210e 81be 4338 85be fb92 91be
00000240: 6ca6 8d3e 13a8 90be 3a13 15be 7118 95be
00000250: 3a59 7ebe 4515 d7bb b0fc 353e cfda 23be
00000260: 8cf2 3fbe a5bb 243e e9e5 3dbe 894b 7b3e
00000270: 6918 453e b0ff 90bc 5040 8abe 3e86 873e
00000280: 82fd ba3d 2756 afbd e66d e4bc 5968 95bd
00000290: 1404 3a3e 8eae 20be d1cd 553e 7fda 50bd
000002a0: 5ceb 6e3d 9add 883e 54fd 69be 5a12 1bbe
000002b0: a9d5 6b3d 7141 6b3b dd15 6abc 6a7c 963e
000002c0: 960f 8cbe db6d 5dbe 4b91 96be 9438 4cbe
000002d0: 1595 863e b943 b33b a943 803e cc84 89be
000002e0: 7f62 6fbe 3d4e 66be f895 873e a4e8 95be
000002f0: fbf7 713c e018 473e f6bf 313c c81e 04be
00000300: c27b 05bd 35e0 50be ade4 6bbe 94cf 60bd
00000310: d665 163e b06f 963e 0205 f7bd 63db 6f3e
00000320: 70b2 88be e94d 83be 85df 36be 70c7 c13c
00000330: 40f1 953c cfab a73d 825b cdbd 59a3 ccbd
00000340: d233 7e3c 15b1 27be e1fa f83d 9eca 45be
00000350: 7aca 813e ee70 3c3e 5506 5dbe 0bb8 dfbd
00000360: 5d08 583e 2de3 2abd a372 a33d 1f8f 8a3e
00000370: 1a37 e73c 80b3 8c3e abe9 4e3b 6804 27be
00000380: dd60 ccbc 9e44 003d afe9 cfbd 8bb8 cf3d
00000390: 0bf2 cdbd 7a14 3c3e 5b15 433e e7a2 41be
000003a0: 7c0f 863e 0bc2 f3b9 2c04 bebc 112e 673c
000003b0: 1f5f 79be 6c9b 70be 424a 1e3e 1c5b 7b3e
000003c0: 9600 393e ac9b 613e a538 2bbe 3058 323d
000003d0: a474 b03d 8216 8cbe db6e 83be 4c22 0d3d
000003e0: c4c2 283e 30ad cc3d 231a 483d 399a 783d
000003f0: 76a2 1abd 5646 0d3e c61c c93d 7b80 0d3e

lin_neigh_1.bias f4 [64]
0.00018446296 -7.189843e-06 -0.0002447498 0.00016248133 0.00032020753 -2.8584811e-05 -3.6910813e-05 2.561284e-06
0.00010593748 -6.895317e-05 -8.3633495e-05 -4.7011254e-05 -0.000106566964 9.95471e-05 0.00012502357 1.3295918e-05
5.0675117e-05 -0.0002418153 1.9635565e-06 -7.9486774e-05 7.31956e-05 7.5831296e-05 -4.6535046e-05 1.3481152e-05
-4.110315e-05 -3.5085424e-05 -0.000173898 -0.00016867477 3.382371e-05 0.0002171179 -0.00014406707 -0.00038910675
-0.00014846324 5.602001e-07 0.00014752246 -0.0002631329 -0.000105931176 8.1580096e-05 -0.00021727216 1.8926834e-05
5.783914e-05 0.00016905155 -1.528799e-05 2.579989e-06 -0.00015210145 0.00016900104 -3.016031e-05 5.924295e-05
-0.00014003944 1.9330906e-05 -8.627022e-05 -8.987027e-05 0.0004108665 -6.2708605e-05 -0.00017816982 6.7108385e-06
5.1121853e-05 0.000109430635 -0.00024562745 -0.00013101331 -2.2873803e-05 -0.00014089557 1.0326645e-05 8.34354e-05
00000000: 666c 4139 4840 f1b6 c351 80b9 c05f 2a39
00000010: 87e1 a739 6ac9 efb7 afd0 1ab8 86e2 2b36
00000020: c02a de38 f49a 90b8 6464 afb8 f32d 45b8
00000030: b47c dfb8 f1c3 d038 c218 0339 8811 5f37
00000040: fe8b 5438 cd8f 7db9 a5c5 0336 23b2 a6b8
00000050: 9780 9938 9e07 9f38 a02e 43b8 1b2d 6237
00000060: 2c66 2cb8 b028 13b8 6458 36b9 4ade 30b9
00000070: efdd 0d38 24aa 6339 b610 17b9 0601 ccb9
00000080: ccac 1bb9 a860 1635 42b0 1a39 1af5 89b9
00000090: 5e27 deb8 fb15 ab38 8dd3 63b9 11c5 9e37
000000a0: 4e98 7238 6e43 3139 b53e 80b7 e023 2d36
000000b0: 6c7d 1fb9 df35 3139 c600 fdb7 a27b 7838
000000c0: 8dd7 12b9 ce28 a237 f9eb b4b8 bc78 bcb8
000000d0: 9169 d739 6d82 83b8 19d3 3ab9 aa2d e136
000000e0: ac6b 5638 207e e538 8fc7 80b9 9e60 09b9
000000f0: 1ee1 bfb7 5ebd 13b9 9a40 2d37 0afa ae38

lin_self_2.weight f4 [64, 64]
-0.06788049 0.2127825 0.043973755 -0.059783038 -0.0051288153 0.11383108 0.047486875 -0.040210966
0.13842286 0.18137954 -0.009155233 -0.011111308 0.07257735 -0.16128862 -0.05817074 0.14683437
0.20194486 0.2006794 -0.07166501 -0.13048193 0.023768082 0.018940203 -0.1285962 -0.0012329223
0.015364714 -0.1736152 -0.0398959 0.11465833 -0.025967423 -0.1710628 -0.19009452 -0.10638594
-0.128625 -0.090191685 0.14566167 0.1374458 -0.17267853 -0.109650254 0.0032728764 -0.14657477
-0.18321416 0.10776235 -0.12416305 -0.21439412 -0.20627326 0.11625274 0.0023023018 0.032215904
0.14629444 -0.12735619 -0.028097838 0.21031602 0.07197184 -0.07633682 -0.1788335 -0.2127539
-0.09399464 -0.023738546 0.17490526 0.19167496 0.18062733 -0.08442274 0.14121771 -0.0064153196
0.020353336 0.21097969 -0.17583886 0.127979 -0.01637009 0.11128765 0.12188679 -0.12635602
-0.12563272 0.10276653 -0.16681683 -0.14179929 0.051336702 -0.21011971 0.21630092 0.10913213
-0.2028034 0.12433272 -0.21171132 0.017160246 -0.018224657 0.18887505 -0.031377006 0.074158005
-0.12870833 -0.18723263 -0.15592048 0.05206541 -0.05500752 0.18549158 0.20104341 0.011428958
0.19623813 -0.09751703 0.14280137 0.0011229777 -0.1601093 0.15705194 0.12712808 -0.008564957
-0.015471607 0.09684298 -0.19963613 0.06118293 0.1569077 -0.161808 -0.015775742 -0.17821781
-0.1188743 0.03774848 -0.08790714 0.07616451 0.09109033 0.20189011 -0.019966139 -0.0009963271
0.14304923 -0.007952107 0.16086385 -0.08810706 0.2052778 0.16024438 -0.046649646 -0.0219106
-0.19358964 -0.104820564 0.20368223 -0.20048864 -0.19943781 -0.09643225 -0.052093524 -0.13771075
-0.15195861 0.1733596 0.09609959 0.051473737 -0.21172637 0.18384258 -0.005926083 0.02300002
0.052645452 -0.2121249 -0.11442208 -0.095995836 0.17682867 0.07056525 -0.13525502 0.10810784
-0.0028942535 0.12873407 -0.120836794 0.21093863 -0.03270568 0.047947247 0.15681206 0.04123905
-0.11637307 -0.045557596 0.21024486 0.043134123 0.1789142 -0.1337728 -0.13124406 0.1991913
0.032404993 0.023698071 -0.07405448 -0.109889306 0.21185617 -0.05501991 0.11135756 -0.081803836
0.1630445 0.15336506 0.09924531 -0.17798688 0.06035601 0.12493548 0.15601341 -0.20158942
-0.20900758 -0.16064371 0.1768387 0.13497004 0.110503376 -0.18264078 -0.04463437 -0.062159892
-0.15956265 0.2121223 0.015065909 -0.06991882 -0.09600836 0.07914982 0.10133268 -0.200618
0.111524604 -0.13523044 0.022313636 0.08877288 -0.14051984 -0.053761035 0.12131642 0.17402016
-0.0796892 -0.15230298 0.020307198 0.14290461 0.08769045 0.10840789 -0.032299917 0.024971364
-0.051214367 -0.20539726 0.14765672 0.15645324 -0.089073494 0.16339256 0.15498143 0.14658898
-0.086599335 0.03983366 0.04916968 -0.06806869 -0.19826809 -0.060793277 -0.19873203 -0.027178695
-0.19338003 -0.20238335 -0.1849099 0.19240431 0.106714144 -0.12614542 -0.13079536 0.021197293
0.13719596 0.15420084 0.009212884 -0.13202003 0.020569187 -0.050271913 -0.19775978 0.10193701
0.07327891 -0.10369884 -0.10323226 0.07916318 -0.13348007 0.10218299 0.10617862 -0.12207241
00000000: ed04 8bbd a8e3 593e d31d 343d 0fdf 74bd
00000010: 9f0f a8bb 4520 e93d 9981 423d 41b4 24bd
00000020: b9be 0d3e 8fbb 393e d5ff 15bc 340c 36bc
00000030: 6fa3 943d d828 25be 7144 6ebd c05b 163e
00000040: a2ca 4e3e e77e 4d3e 1bc5 92bd 0e9d 05be
00000050: 48b5 c23c 7c28 9b3c b9ae 03be 029a a1ba
00000060: 48bc 7b3c 2fc8 31be e269 23bd fdd1 ea3d
00000070: a2b9 d4bc 162b 2fbe 23a8 42be dfe0 d9bd
00000080: 46b6 03be 6bb6 b8bd 5528 153e 97be 0c3e
00000090: a4d2 30be 5090 e0bd c17d 563b b217 16be
000000a0: 7e9c 3bbe 82b2 dc3d 3249 febd 228a 5bbe
000000b0: 4c39 53be eb15 ee3d 37e2 163b d3f4 033d
000000c0: 36ce 153e a969 02be 702d e6bc 155d 573e
000000d0: f965 933d 7b56 9cbd 2120 37be 29dc 59be
000000e0: 4380 c0bd 5777 c2bc 5d1a 333e 7146 443e
000000f0: 5ff6 383e d4e5 acbd 609b 103e 9a37 d2bb
00000100: 0abc a63c 0f0b 583e 1a0f 34be ed0c 033e
00000110: 911a 86bc c8ea e33d c89f f93d 7963 01be
00000120: dda5 00be 4277 d23d 08d2 2abe d533 11be
00000130: 6f46 523d 9f29 57be fd7d 5d3e ab80 df3d
00000140: b2ab 4fbe 27a2 fe3d daca 58be a593 8c3c
00000150: e04b 95bc 7668 413e 2d85 00bd 27e0 973d
00000160: 1ecc 03be e9b9 3fbe 9ea9 1fbe 8a42 553d
00000170: 914f 61bd 81f1 3d3e 53de 4d3e 8640 3b3c
00000180: a6f2 483e 02b7 c7bd 863a 123e e130 933a
00000190: b1f3 23be 39d2 203e dd2d 023e 0954 0cbc
000001a0: a07c 7dbc 9d55 c63d 6a6d 4cbe f49a 7a3d
000001b0: 69ac 203e ffb0 25be 213c 81bc bb7e 36be
000001c0: 5e74 f3bd 269e 1a3d a908 b4bd 23fc 9b3d
000001d0: 918d ba3d 48bc 4e3e 0790 a3bc 3197 82ba
000001e0: 7f7b 123e 8e49 02bc 7eb9 243e 7971 b4bd
000001f0: 5834 523e 1a17 243e b313 3fbd dc7d b3bc
00000200: 5d3c 46be 2aac d6bd 1392 503e e54c 4dbe
00000210: 6d39 4cbe 467e c5bd 0560 55bd 0c04 0dbe
00000220: 0a9b 1bbe 2e85 313e ddcf c43d 20d6 523d
00000230: ccce 58be 3b41 3c3e 962f c2bb 8a6a bc3c
00000240: c2a2 573d 4537 59be 2056 eabd 7799 c4bd
00000250: 9312 353e 8484 903d 4b80 0abe a567 dd3d
00000260: 84ad 3dbb ddd2 033e 4879 f7bd 4c00 583e
00000270: 64f6 05bd 5564 443d 5793 203e 47ea 283d
00000280: 0155 eebd 9a9a 3abd 6e4a 573e 68ad 303d
00000290: 4935 373e bdfb 08be d864 06be cef8 4b3e
000002a0: 19bb 043d 7522 c23c e0a9 97bd a50d e1bd
000002b0: d3f0 583e 8f5c 61bd 6f0f e43d c588 a7bd
000002c0: 23f5 263e bb0b 1d3e 2041 cb3d 3142 36be
000002d0: dd37 773d 2cde ff3d fbc1 1f3e 756d 4ebe
000002e0: 1506 56be c97f 24be 3415 353e 9635 0a3e
000002f0: 984f e23d 2f06 3bbe 87d2 36bd 5f9b 7ebd
00000300: 6464 23be 9736 593e 01d7 763c 9931 8fbd
00000310: 08a0 c4bd 4d19 a23d 8287 cf3d ce6e 4dbe
00000320: 0367 e43d d979 0abe 16cb b63c 8ece b53d
00000330: 6fe4 0fbe 8834 5cbd be74 f83d 5732 323e
00000340: 1734 a3bd 50f5 1bbe 485b a63c 9655 123e
00000350: 0d97 b33d f504 de3d eb4c 04bd bf90 cc3c
00000360: 28c6 51bd a953 52be 5333 173e 4735 203e
00000370: 2a6c b6bd 6150 273e 74b3 1e3e 6c1b 163e
00000380: fe5a b1bd 9f28 233d 2566 493d 9967 8bbd
00000390: ca06 4bbe 5f02 79bd 6980 4bbe dba5 debc
000003a0: 6a05 46be 953d 4fbe 0559 3dbe a305 453e
000003b0: f28c da3d 442c 01be 38ef 05be f2a5 ad3c
000003c0: 197d 0c3e d3e6 1d3e a3f1 163c 4230 07be
000003d0: b680 a83c ece9 4dbd 8a81 4abe 5ac4 d03d
000003e0: 4113 963d 0f60 d4bd 6f6b d3bd 4e20 a23d
000003f0: 00af 08be 5145 d13d 2d74 d93d 1a01 fabd

lin_self_2.bias f4 [64]
0.00027316657 0.00017972538 5.0278803e-05 -4.1508538e-05 -1.0892088e-05 0.0002958013 4.3359425e-05 0.000119227436
0.000113883885 -5.813254e-05 -0.00015721802 1.3478271e-05 -0.0003507372 -0.00020087707 2.2045995e-05 -2.4142122e-05
-0.00023873258 -4.1103485e-06 -2.1774751e-05 0.000114273775 -8.8250614e-05 -0.0001247221 -0.00019099162 -0.00033795444
-3.496009e-05 -0.00031499052 3.948794e-07 -0.00029398466 4.658253e-06 -3.267383e-05 -5.0040333e-05 0.000115890914
0.0001140823 -0.0003122744 -0.00016450335 -3.3015356e-05 0.0003141778 3.314672e-05 9.257135e-05 0.00014365237
-2.0431602e-05 -9.777037e-06 -6.671089e-05 0.00012284848 9.697458e-07 0.00033986275 5.058806e-06 -8.533234e-06
-8.378824e-05 0.00028295437 -0.0003995303 -0.00020443654 -6.103275e-05 9.6965276e-05 0.00012661419 1.4394003e-05
-0.000100195764 0.00010701438 0.00015787908 -0.00011132866 -0.00033595486 -0.00026102003 -7.678316e-05 0.00014050087
00000000: cc37 8f39 aa74 3c39 74e2 5238 7419 2eb8
00000010: 29bd 36b7 c715 9b39 d4dc 3538 be09 fa38
00000020: f2d4 ee38 57d3 73b8 e4da 24b9 bc20 6237
00000030: 26e3 b7b9 87a2 52b9 6aef b837 d084 cab7
00000040: 4a54 7ab9 a0eb 89b6 eca8 b6b7 44a6 ef38
00000050: 3013 b9b8 d5c7 02b9 ec44 48b9 7a2f b1b9
00000060: 1ca2 12b8 5025 a5b9 d0ff d334 f421 9ab9
00000070: 174e 9c36 420b 09b8 66e2 51b8 760a f338
00000080: 783f ef38 c3b8 a3b9 887e 2cb9 f879 0ab8
00000090: 3bb8 a439 0507 0b38 dd22 c238 64a1 1639
000000a0: 8864 abb7 0e08 24b7 23e7 8bb8 e3d0 0039
000000b0: 3628 8235 9b2f b239 d0be a936 f629 0fb7
000000c0: 78b7 afb8 7e59 9439 0d78 d1b9 045e 56b9
000000d0: 6bfd 7fb8 d659 cb38 bdc3 0439 c67d 7137
000000e0: 3120 d2b8 e86c e038 588c 2539 1f79 e9b8
000000f0: 1923 b0b9 84d9 88b9 a506 a1b8 6a53 1339

lin_neigh_2.weight f4 [64, 64]
0.07621553 0.06388992 0.08992393 -0.059689518 0.058485843 0.12790622 -0.20878674 -0.2032512
-0.016173348 0.022451792 -0.14101626 0.19972977 -0.18629263 0.015709182 0.20808473 -0.19480953
-0.19462806 -0.01545739 0.1043916 -0.019235294 0.069804415 0.13617595 0.1916866 -0.09925932
-0.03705089 0.15377676 -0.024592659 0.09988936 0.0936846 -0.1376473 0.10329638 -0.033756442
-0.21243457 0.10741307 0.14198099 0.053290665 -0.10206909 0.008674968 -0.13517001 -0.19218652
-0.083690904 0.11965421 -0.19796897 -0.10711267 -0.11272563 0.0980651 0.1946358 0.18319163
-0.09002408 0.21581355 0.06582312 -0.19527169 0.124745995 0.1343238 0.013463737 0.09254633
0.10080572 0.07046477 0.016076416 0.06374438 0.13651559 -0.11825135 -0.18529573 -0.05236194
0.12105864 0.13828155 0.1977223 0.1513562 -0.1272965 -0.035517685 0.083813325 0.13160561
-0.06920883 -0.1595657 -0.17841539 -0.087891296 0.08043337 0.10162131 0.10260773 0.20653792
-0.20153809 -0.13706201 0.053970136 0.09901149 0.09987456 -0.013440584 -0.012241417 -0.012813682
0.10607326 0.070246875 0.0048196004 -0.17260128 -0.08549997 -0.124921255 -0.036658112 0.2115706
0.06549511 -0.058719233 -0.043825045 -0.016118482 0.022613088 0.11028547 -0.13566154 -0.042800333
-0.091764696 0.010163517 0.02522036 0.052369308 -0.15079862 0.17373693 -0.0031919123 -0.15489529
0.030917484 -0.18303314 0.11388618 0.19661233 0.029989675 -0.0017921599 -0.20986922 0.12990066
-0.21150225 0.07175681 -0.088884 -0.16219446 0.21287514 -0.011098972 -0.20300023 -0.07294829
0.023243343 0.2040764 0.008440432 0.08825325 0.06636731 -0.15255126 0.07196024 -0.11100321
0.07858175 0.18917225 -0.126462 -0.1116794 -0.14614727 -0.10091426 0.09367932 -0.08793845
-0.18069077 -0.19117025 -0.039888695 0.186635 0.055683177 0.025392883 0.16365361 -0.0974438
-0.15637743 0.050037246 -0.11445044 -0.11784409 0.05276634 -0.09340471 -0.12169552 -0.08758822
-0.10044795 -0.053406674 -0.12477965 -0.12982611 0.21130298 0.048399203 0.06812864 0.049212653
0.11917902 -0.2098449 -0.103958175 0.06681751 -0.20527656 0.1655028 0.10063096 0.16886966
0.035887923 0.17105004 -0.078362435 -0.17814162 -0.16324253 -0.059804033 -0.0239956 -0.17818406
0.18489847 0.11906437 0.21016039 0.07016789 -0.14403965 0.03010354 -0.03223764 -0.0774653
-0.15501991 0.12406937 0.072150275 0.043280542 -0.10964268 -0.14641346 -0.03430492 0.051219475
0.08704951 -0.18205273 0.07301573 0.15801753 -0.07078023 -0.1591703 -0.11499948 -0.08219342
-0.18922412 -0.2058775 -0.20682009 -0.053755693 -0.09005746 -0.1504451 -0.06643705 0.1682191
0.1429311 -0.059636578 0.19762297 -0.04525139 0.10134364 -0.057304524 0.047921922 -0.066074684
-0.14595376 0.10933905 0.064436264 0.16706523 0.11749517 -0.10564981 0.20974976 -0.11554187
0.089296006 -0.06378189 -0.09304576 0.18342257 -0.10576405 0.15222143 -0.21241401 0.03132722
-0.111045204 -0.07622271 -0.025885748 0.14897488 -0.13211487 -0.085030496 0.06702929 0.0072667804
0.054110732 0.18752918 -0.1668904 0.21527486 0.12694524 0.13146804 -0.15244654 -0.19817266
00000000: e316 9c3d b8d8 823d 0a2a b83d ff7c 74bd
00000010: da8e 6f3d d9f9 023e 31cc 55be 1521 50be
00000020: f87d 84bc d2ec b73c 9166 10be f685 4c3e
00000030: 7fc3 3ebe 8bb0 803c 2a14 553e 267c 47be
00000040: 944c 47be fe40 7dbc 43cb d53d 5693 9dbc
00000050: 9ef5 8e3d b571 0b3e 7e49 443e 7848 cbbd
00000060: adc2 17bd a877 1d3e 8b76 c9bc cb92 cc3d
00000070: b6dd bf3d 6af3 0cbe 0d8d d33d 3244 0abd
00000080: 7388 59be 62fb db3d 7763 113e 5047 5a3d
00000090: 9909 d1bd 7421 0e3c 026a 0abe 8bcc 44be
000000a0: 2366 abbd 440d f53d 61b8 4abe e35d dbbd
000000b0: b2dc e6bd 5bd6 c83d 9b4e 473e 9696 3b3e
000000c0: 8b5e b8bd 3afe 5c3e 46ce 863d 4df5 47be
000000d0: d47a ff3d 2e8c 093e 0297 5c3c ee88 bd3d
000000e0: 3b73 ce3d d54f 903d b0b2 833c 6a8c 823d
000000f0: beca 0b3e c42d f2bd 2abe 3dbe 7979 56bd
00000100: 98ed f73d ae99 0d3e b777 4a3e 1ffd 1a3e
00000110: 045a 02be fe7a 11bd 52a6 ab3d 9fc3 063e
00000120: 5cbd 8dbd 3165 23be 86b2 36be 5a00 b4bd
00000130: 40ba a43d d51e d03d 0024 d23d ad7e 533e
00000140: 0060 4ebe fc59 0cbe ca0f 5d3d 89c6 ca3d
00000150: 098b cc3d e535 5cbc 3990 48bc 7af0 51bc
00000160: f03c d93d 98dd 8f3d bded 9d3b 64be 30be
00000170: 9c1a afbd b7d6 ffbd d126 16bd f7a5 583e
00000180: 4d22 863d 9483 70bd e481 33bd e80a 84bc
00000190: 153f b93c 59dd e13d dcea 0abe 674f 2fbd
000001a0: 21ef bbbd e184 263c ee9a ce3c 3381 563d
000001b0: f46a 1abe 18e8 313e 672f 51bb df9c 1ebe
000001c0: aa46 fd3c 0a6d 3bbe 283d e93d be54 493e
000001d0: e8ac f53c e8e6 eaba f5e7 56be ae04 053e
000001e0: 0c94 58be 3cf5 923d d108 b6bd 4e16 26be
000001f0: f1fb 593e 76d8 35bc 4bdf 4fbe ea65 95bd
00000200: d368 be3c 67f9 503e bd49 0a3c 1fbe b43d
00000210: 96eb 873d 6636 1cbe e45f 933d a755 e3bd
00000220: 78ef a03d 5fb6 413e 417f 01be 2bb8 e4bd
00000230: a1a7 15be 23ac cebd f1da bf3d 1319 b4bd
00000240: 0007 39be 22c2 43be 5462 23bd 3f1d 3f3e
00000250: 0b14 643d bc04 d03c d094 273e 9d90 c7bd
00000260: 6821 20be dbf3 4c3d fe64 eabd 3e58 f1bd
00000270: 8521 583d f84a bfbd 803b f9bd 7461 b3bd
00000280: a8b7 cdbd f5c0 5abd 798c ffbd 23f1 04be
00000290: cf5f 583e 3e3e 463d 0787 8b3d 3593 493d
000002a0: 2114 f43d 95e1 56be 06e8 d4bd 9ed7 883d
000002b0: 0534 52be 9179 293e 9b17 ce3d 2bec 2c3e
000002c0: 37ff 123d be27 2f3e 7c7c a0bd c26a 36be
000002d0: 0d29 27be 13f5 74bd 6c92 c4bc e275 36be
000002e0: 0656 3d3e 05d8 f33d 4934 573e 2fb4 8f3d
000002f0: 217f 13be b39b f63c 9e0b 04bd 21a6 9ebd
00000300: 8abd 1ebe 1518 fe3d 86c3 933d f046 313d
00000310: 578c e0bd 69ed 15be 5183 0cbd 83cb 513d
00000320: 0347 b23d 086c 3abe 4589 953d 59cf 213e
00000330: 3af5 90bd 8afd 22be d984 ebbd 0655 a8bd
00000340: f8c3 41be 8dd1 52be a5c8 53be ee2e 5cbd
00000350: 0c70 b8bd 480e 1abe 2610 88bd a141 2c3e
00000360: 885c 123e 7c45 74bd ad5d 4a3e 8659 39bd
00000370: 418d cf3d 26b8 6abd c749 443d 2a52 87bd
00000380: e774 15be 27ed df3d 29f7 833d 2613 2b3e
00000390: 4fa1 f03d ed5e d8bd a4c8 563e 37a1 ecbd
000003a0: d3e0 b63d 14a0 82bd c78e bebd 20d3 3b3e
000003b0: d29a d8bd efdf 1b3e 0f83 59be f950 003d
000003c0: ab6b e3bd a71a 9cbd 590e d4bc df8c 183e
000003d0: 1f49 07be 7824 aebd a746 893d 2c1e ee3b
000003e0: 37a3 5d3d a607 403e 51e5 2abe 0371 5c3e
000003f0: effd 013e 8f9f 063e f21a 1cbe c6ed 4abe

lin_neigh_2.bias f4 [64]
0.00027316657 0.00017972538 5.0278803e-05 -4.1508538e-05 -1.0892088e-05 0.0002958013 4.3359425e-05 0.000119227436
0.000113883885 -5.813254e-05 -0.00015721802 1.3478271e-05 -0.0003507372 -0.00020087707 2.2045995e-05 -2.4142122e-05
-0.00023873258 -4.1103485e-06 -2.1774751e-05 0.000114273775 -8.8250614e-05 -0.0001247221 -0.00019099162 -0.00033795444
-3.496009e-05 -0.00031499052 3.948794e-07 -0.00029398466 4.658253e-06 -3.267383e-05 -5.0040333e-05 0.000115890914
0.0001140823 -0.0003122744 -0.00016450335 -3.3015356e-05 0.0003141778 3.314672e-05 9.257135e-05 0.00014365237
-2.0431602e-05 -9.777037e-06 -6.671089e-05 0.00012284848 9.697458e-07 0.00033986275 5.058806e-06 -8.533234e-06
-8.378824e-05 0.00028295437 -0.0003995303 -0.00020443654 -6.103275e-05 9.6965276e-05 0.00012661419 1.4394003e-05
-0.000100195764 0.00010701438 0.00015787908 -0.00011132866 -0.00033595486 -0.00026102003 -7.678316e-05 0.00014050087
00000000: cc37 8f39 aa74 3c39 74e2 5238 7419 2eb8
00000010: 29bd 36b7 c715 9b39 d4dc 3538 be09 fa38
00000020: f2d4 ee38 57d3 73b8 e4da 24b9 bc20 6237
00000030: 26e3 b7b9 87a2 52b9 6aef b837 d084 cab7
00000040: 4a54 7ab9 a0eb 89b6 eca8 b6b7 44a6 ef38
00000050: 3013 b9b8 d5c7 02b9 ec44 48b9 7a2f b1b9
00000060: 1ca2 12b8 5025 a5b9 d0ff d334 f421 9ab9
00000070: 174e 9c36 420b 09b8 66e2 51b8 760a f338
00000080: 783f ef38 c3b8 a3b9 887e 2cb9 f879 0ab8
00000090: 3bb8 a439 0507 0b38 dd22 c238 64a1 1639
000000a0: 8864 abb7 0e08 24b7 23e7 8bb8 e3d0 0039
000000b0: 3628 8235 9b2f b239 d0be a936 f629 0fb7
000000c0: 78b7 afb8 7e59 9439 0d78 d1b9 045e 56b9
000000d0: 6bfd 7fb8 d659 cb38 bdc3 0439 c67d 7137
000000e0: 3120 d2b8 e86c e038 588c 2539 1f79 e9b8
000000f0: 1923 b0b9 84d9 88b9 a506 a1b8 6a53 1339

readout.weight f4 [1, 64]
-0.22644521 -0.19768812 -0.09521233 0.16204943 0.08278522 -0.2682073 -0.07036326 -0.15948759
-0.17538244 0.0790244 0.23817153 -0.1942707 0.28329393 0.1551177 -0.17756978 0.09209088
0.15384655 0.027154509 0.18420604 -0.1119789 0.063994184 0.2776301 0.23261273 0.2721137
0.06015234 0.25823775 -0.00031939254 0.18535854 -0.016892625 0.119592726 0.15583034 -0.0939817
-0.08199335 0.2529671 0.09260712 0.04658866 -0.29122695 -0.040252335 -0.13931747 -0.190271
0.03544975 0.25010714 0.05086285 -0.16157085 -0.041360464 -0.2976211 0.30000603 0.009942105
0.044013456 -0.22167774 0.29773492 0.16615203 0.048755664 -0.27280715 -0.1653961 -0.026392968
0.18194003 -0.1581948 -0.11577673 0.06781534 0.29634133 0.15493326 0.15953155 -0.08922028
00000000: 41e1 67be c16e 4abe affe c2bd 49f0 253e
00000010: 4c8b a93d 7852 89be 9d1a 90bd b750 23be
00000020: 7497 33be 8bd7 a13d 3de3 733e e6ee 46be
00000030: e70b 913e 2dd7 1e3e dad4 35be 259a bc3d
00000040: f389 1d3e 2273 de3c 82a0 3c3e 3255 e5bd
00000050: 620f 833d 8825 8e3e 0832 6e3e 7d52 8b3e
00000060: 4d62 763d bd37 843e 2474 a7b9 a1ce 3d3e
00000070: 6762 8abc 08ed f43d fd91 1f3e 7a79 c0bd
00000080: 21ec a7bd e784 813e cda8 bd3d c0d3 3e3d
00000090: b31b 95be a2df 24bd 3da9 0ebe 67d6 42be
000000a0: c233 113d 0b0e 803e 9055 503d d472 25be
000000b0: 9769 29bd cb61 98be 649a 993e 36e4 223c
000000c0: 7447 343d 7dff 62be b670 983e c223 2a3e
000000d0: 05b4 473d 61ad 8bbe 985d 29be 1136 d8bc
000000e0: 7d4e 3a3e d1fd 21be 5a1c edbd c5e2 8a3d
000000f0: 0dba 973e d3a6 1e3e 3d5c 233e 1fb9 b6bd
