saved_data/gnn_distilled.pt (torch, 40869 bytes, 9 tensors)

lin_self_1.weight f4 [64, 5]
0	0xbe1ddfa1	-0.15417339
1	0xbe8e3952	-0.27778107
2	0x3deee4b8	0.116647184
3	0x3d8c4b41	0.06850291
4	0x3e4bca5d	0.19901414
5	0x3d9196b2	0.07108821
6	0xbe875556	-0.26432294
7	0xbe2f5ba1	-0.17124797
8	0xbe2b11c5	-0.16705997
9	0xbd3683ee	-0.04455941
10	0xbde03896	-0.10948293
11	0xbe88e640	-0.26738167
12	0x3de6fceb	0.11278709
13	0xbd497a19	-0.049188707
14	0x3d2c8a55	0.04212411
15	0xbc756e85	-0.014979963
16	0xbe212a7c	-0.15738863
17	0xbe80d335	-0.25161138
18	0xbd448452	-0.047977753
19	0x3db6e0db	0.089296065
20	0x3c721275	0.014774908
21	0xbe8d29d1	-0.27570966
22	0xbe07e8d0	-0.13272405
23	0xbda5f38f	-0.08103096
24	0x3dd235db	0.10264178
25	0x3e824a61	0.25447372
26	0xbe968c2b	-0.29403815
27	0xbe311b40	-0.17295551
28	0x3e724d15	0.23662217
29	0xbc860ea4	-0.016364403
30	0x3e8d99c9	0.2765639
31	0xbe96a737	-0.2942445
32	0x3ce59d8b	0.028029224
33	0xbd9bc924	-0.07606724
34	0xbe317b93	-0.17332296
35	0x3e1279b9	0.14304246
36	0xbe0260a3	-0.12732176
37	0xbd53c1d2	-0.051698513
38	0xbe843382	-0.25820547
39	0x3e7de00f	0.24792503
40	0xbe729b64	-0.2369209
41	0xbe4e120a	-0.20124069
42	0x3dfd283c	0.1236119
43	0x3e238cb7	0.15971647
44	0x3e46ec14	0.19425994
45	0x3e29aaf2	0.16569117
46	0xbe594b39	-0.21220101
47	0x3e22ecaf	0.159106
48	0xbd9e89e9	-0.07741148
49	0xbe24da5f	-0.16098927
50	0x3b88d81e	0.004176154
51	0xbe8025c0	-0.250288
52	0x3d402919	0.046914194
53	0x3e2211ef	0.15827154
54	0x3e871f2e	0.26390976
55	0xbd33c28f	-0.043886717
56	0xbe73befd	-0.23803325
57	0x3e0f7337	0.14008795
58	0x3e4f9da3	0.20274977
59	0x3dfa2383	0.122138046
60	0xbdcb2167	-0.0991848
61	0x3dd5484a	0.10414179
62	0x3e534bca	0.2063438
63	0xbbcedef6	-0.0063132
64	0x3e6df914	0.23239547
65	0x3e168000	0.14697266
66	0x3d152fee	0.036422662
67	0x3e8e4e76	0.27794236
68	0xbe16ef5d	-0.14739747
69	0x3cdc119a	0.026863862
70	0xbe5112f2	-0.20417383
71	0xbb3fc83f	-0.0029263643
72	0xbc3854ee	-0.011250718
73	0x3e216770	0.15762115
74	0x3d847236	0.064670965
75	0x3e291174	0.16510564
76	0x3e411585	0.18855865
77	0xbd9aa0d7	-0.07550209
78	0x3e53f2df	0.20698117
79	0xbe688071	-0.22705247
80	0xbe57a169	-0.21057667
81	0x3caefd07	0.021360887
82	0x3e3b2ca9	0.18278755
83	0x3e2692dc	0.1626696
84	0x3deb32f2	0.114843264
85	0xbe84b49f	-0.25919053
86	0x3e556c78	0.20842159
87	0x3e8771d5	0.26454034
88	0xbdedeea6	-0.11617784
89	0x3d9b1626	0.07572584
90	0x3e091c11	0.13389613
91	0xbd386da0	-0.04502642
92	0xbdf384c4	-0.118905574
93	0xbe15cd59	-0.14629115
94	0x3cb5ed2c	0.022207819
95	0x3e2210b6	0.15826687
96	0x3e306972	0.17227724
97	0xbe758bbf	-0.2397909
98	0x3e4eec31	0.20207287
99	0xbdb2061d	-0.08692572
100	0xbe18fa05	-0.14939125
101	0xbe879149	-0.2647803
102	0xbda011c2	-0.07815887
103	0xbde1c84d	-0.110245325
104	0x3c8758cd	0.016521836
105	0xbe6ad9bb	-0.2293462
106	0x3d7bee7a	0.061506726
107	0xbe8f81dc	-0.28028762
108	0xbe800a68	-0.2500794
109	0x3cc0a157	0.023514433
110	0x3db07cde	0.086175665
111	0xbe590c65	-0.21196134
112	0x3dac21dc	0.08404896
113	0xbd37f238	-0.044908732
114	0xbe69583e	-0.22787568
115	0xbe001c3b	-0.12510769
116	0xbe0966be	-0.134181
117	0xbe10f4d2	-0.14155892
118	0x3e52ca50	0.20584989
119	0xbe665518	-0.22493398
120	0xbe94cbc9	-0.29061726
121	0xbe831ab1	-0.256063
122	0xbe8e55a2	-0.27799708
123	0x3e770bee	0.24125645
124	0xbe3c6a03	-0.18399815
125	0x3e1c1d7a	0.1524562
126	0xbc47c773	-0.0121935485
127	0x3db745d4	0.089488655
128	0xbe72f216	-0.23725161
129	0x3e67d5e1	0.22640182
130	0x3c44c5cc	0.012010049
131	0xbe2fd828	-0.17172301
132	0x3e8b6790	0.2722745
133	0xbe410fa4	-0.18853623
134	0x3e40b5c1	0.18819334
135	0xbdb7ab8b	-0.08968266
136	0x3e6bb90a	0.23019806
137	0xbe1a165f	-0.15047596
138	0xbe903573	-0.2816578
139	0x3dea8853	0.11451783
140	0xbe909f66	-0.2824661
141	0xbe15046a	-0.14552465
142	0x3e32f171	0.17474915
143	0xbe8bde15	-0.27317873
144	0xbe615767	-0.22005998
145	0x3e772c85	0.24138077
146	0x3ca62ae3	0.020284122
147	0xbe314053	-0.17309694
148	0xbe7c2ee6	-0.24627265
149	0xbe064e98	-0.13115919
150	0x3d257ec4	0.040404096
151	0xbe461825	-0.19345148
152	0x3d78fdf5	0.060789067
153	0x3dbfdf2d	0.09368739
154	0x3e5f5a5f	0.21811818
155	0xbe81121c	-0.2520913
156	0xbe835fce	-0.2565903
157	0xbb999d5a	-0.004687947
158	0xbe8cf6ba	-0.27531987
159	0xbdf7c989	-0.12098987
160	0x3c875a4a	0.016522545
161	0xbe96ccc5	-0.29453102
162	0xbe2e2ccb	-0.17009275
163	0x3df00051	0.1171881
164	0x3cf71521	0.030161442
165	0xbe898ba7	-0.2686436
166	0x3dd587db	0.10426303
167	0x3c3bdf6b	0.011466841
168	0x3e01fa78	0.12693202
169	0xbcbd3208	-0.023095146
170	0x3e733e4c	0.23754233
171	0xbe593b04	-0.21213919
172	0x3e247d04	0.16063315
173	0xbe84277d	-0.25811377
174	0xbc828aad	-0.015935266
175	0xbe8a20f6	-0.26978272
176	0xbdd5f4b5	-0.10447065
177	0xbe4f9cd8	-0.20274675
178	0xbe2af7c7	-0.16696082
179	0xbe3c5d10	-0.18394876
180	0xbe19972e	-0.14999077
181	0xbe34caf0	-0.1765554
182	0x3e0531e9	0.1300732
183	0x3e769f57	0.24084221
184	0xbdf75adc	-0.12077877
185	0x3e641ece	0.22277376
186	0x3c5d3bcc	0.013503026
187	0x3cbc043b	0.022951236
188	0xbe8d7e33	-0.27635345
189	0xbd6e6e2d	-0.05821054
190	0x3e05307a	0.13006774
191	0x3e6537ec	0.22384614
192	0x3e2eb133	0.17059784
193	0x3e10f17e	0.14154622
194	0x3e06fa7a	0.13181487
195	0xbdaf0b64	-0.085470945
196	0x3d61a58e	0.055089526
197	0x3e550e41	0.20806219
198	0xba386b01	-0.0007034988
199	0x3e6884ab	0.22706859
200	0x3c1ab293	0.0094419895
201	0xbdc4eddd	-0.09615681
202	0xbd51c3ce	-0.051212125
203	0x3d6f4e93	0.058424544
204	0xbe839a9c	-0.25703895
205	0x3e03266f	0.1280763
206	0x3dbbf75c	0.091780394
207	0xbc121b6f	-0.0089176735
208	0xbe8c9c31	-0.27462915
209	0x3bc652c0	0.006052345
210	0xbdf4f60a	-0.11960991
211	0x3e933562	0.28751665
212	0x3d0651aa	0.032792725
213	0x3df462f6	0.11932938
214	0x3e273633	0.16329269
215	0x3e5d3ce9	0.21605267
216	0xbdd2e746	-0.10298018
217	0xbe66f928	-0.22555983
218	0x3d008d56	0.03138479
219	0x3e2722a0	0.16321802
220	0xbe2ee71b	-0.17080347
221	0x3e477011	0.19476344
222	0xbe300e3f	-0.17192934
223	0xbd0948d7	-0.03351673
224	0xbe7f3260	-0.2492156
225	0xbdeb9b19	-0.11504192
226	0xbad268e9	-0.0016052994
227	0xbdb61784	-0.08891204
228	0xbe73cafb	-0.238079
229	0x3e52a72b	0.20571582
230	0x3dc551bc	0.0963473
231	0x3cc556c4	0.024089225
232	0x3cea99f9	0.028637873
233	0xbe92ed4a	-0.28696662
234	0xbd38a900	-0.045083046
235	0x3e0de532	0.13856962
236	0xbe0df529	-0.13863052
237	0xbd3d236e	-0.046176367
238	0xbd5e0748	-0.054206163
239	0xbd1c3139	-0.03813288
240	0xbe1857e5	-0.14877279
241	0x3e3e9bae	0.18614075
242	0xbe4916fd	-0.19637676
243	0x3e4118f3	0.18857174
244	0x3dfa157f	0.12211131
245	0xbe7dfb93	-0.24802999
246	0x3e834e84	0.2564584
247	0xbcedc657	-0.02902524
248	0x3c51d8c8	0.012808032
249	0x3e77e480	0.2420826
250	0x3e17e328	0.14832747
251	0x3e4e648b	0.20155542
252	0x3e855257	0.26039383
253	0xbe2dedd3	-0.16985254
254	0xbcb42ef3	-0.021995043
255	0xbe235cb9	-0.1595334

lin_self_1.bias f4 [64]
0	0xb8b2cd5b	-8.525952e-05
1	0xb883393a	-6.257226e-05
2	0x39844e97	0.00025235556
3	0xb7c0d58d	-2.2987626e-05
4	0x340f14a0	1.3325416e-07
5	0x387fbd68	6.0973136e-05
6	0xb9098184	-0.00013113586
7	0xb9a32e6e	-0.00031124376
8	0x398b56da	0.00026576855
9	0xb928160e	-0.00016029945
10	0xb8134268	-3.5109377e-05
11	0xb9dedd94	-0.00042508228
12	0xb966d0ac	-0.00022012246
13	0xb9317086	-0.00016921954
14	0xb9afd12d	-0.0003353445
15	0xb9bdbe82	-0.00036190829
16	0xb9bf80be	-0.0003652628
17	0x38b119c8	8.44482e-05
18	0xb9836858	-0.0002506401
19	0x39b09fa9	0.00033688292
20	0xb801d716	-3.095631e-05
21	0x39ad53a0	0.00033059437
22	0xb9a94c5c	-0.00032291084
23	0x38f5264b	0.00011689643
24	0x38c0077e	9.156669e-05
25	0xb8eee6bc	-0.00011391702
26	0x380c0972	3.3387398e-05
27	0xb9a7087a	-0.00031859038
28	0x37d44ad4	2.5307214e-05
29	0x38c13673	9.213099e-05
30	0xb9666e0b	-0.00021975503
31	0x39c2c877	0.0003715192
32	0xb9247121	-0.00015682403
33	0x380b423a	3.320186e-05
34	0xb8cb21a7	-9.6860625e-05
35	0x390731c7	0.00012893147
36	0xb92d1dd2	-0.00016509675
37	0x39b7ba34	0.00035043212
38	0x39f70837	0.00047117632
39	0xb941c4ae	-0.00018479183
40	0x3a2ab874	0.0006512471
41	0x3916af8d	0.00014370513
42	0x37f02306	2.8626539e-05
43	0xb92c1fb3	-0.00016415007
44	0xb888e454	-6.527515e-05
45	0xb9ba12a7	-0.00035490582
46	0x39054736	0.00012710397
47	0xb7702825	-1.4314462e-05
48	0x39ae8e28	0.0003329378
49	0x3922d8e1	0.00015530318
50	0xb9cad28c	-0.00038685312
51	0xb9690e1f	-0.00022225872
52	0x3805ce77	3.1901956e-05
53	0xb902ceff	-0.00012474878
54	0xb9c980a6	-0.00038433558
55	0xba4e361e	-0.00078663405
56	0x37aa906c	2.033283e-05
57	0xb96bab12	-0.00022475075
58	0x393596ca	0.00017317678
59	0xb7809046	-1.5325972e-05
60	0xb7b05f64	-2.1025255e-05
61	0x398e4110	0.00027132826
62	0xb9824a33	-0.00024850815
63	0xb9af9df8	-0.00033496297

lin_neigh_1.weight f4 [64, 5]
0	0xbdbcc6f5	-0.092176355
1	0x3e15763c	0.14595884
2	0x3d90dd9c	0.07073519
3	0x3d854e09	0.06509025
4	0x3e13143c	0.14363188
5	0xbd638e76	-0.055555783
6	0xbe264e20	-0.1624074
7	0xbe4f1da2	-0.20226148
8	0xbc103568	-0.008801796
9	0xbd8d8b50	-0.069113374
10	0xbd722db3	-0.059125613
11	0x3d304f66	0.04304447
12	0x3ce1f062	0.027580444
13	0x3e1c92a5	0.15290315
14	0xbe0a6874	-0.13516408
15	0x3e969cdb	0.29416546
16	0xbdc050ad	-0.09390388
17	0x3d26bf7a	0.04070995
18	0x3e93a4fe	0.28836817
19	0x3e4ab845	0.19796856
20	0x3cabe54f	0.020983366
21	0x3e95a6d2	0.29228836
22	0x3dfadbaf	0.122489326
23	0xbe85e6ba	-0.26152593
24	0x3d34e5cc	0.044164464
25	0x3dfdbf5d	0.12390015
26	0x3e3fd642	0.18734077
27	0xbe44eb27	-0.19230329
28	0xbe7004df	-0.23439358
29	0xbdc24c89	-0.09487254
30	0xbda45241	-0.08023501
31	0x3d0765e2	0.033056147
32	0xbe9214e0	-0.2853155
33	0x3c2fbd6f	0.010726317
34	0x3e57116a	0.21002737
35	0xbe47f7f2	-0.19528177
36	0x3e8b5283	0.2721139
37	0x3ddcd681	0.10783101
38	0xbe370225	-0.17871912
39	0x3e0eac2d	0.13932867
40	0x3e17dfe5	0.14831503
41	0x3e36bcfb	0.17845528
42	0x3d9f2349	0.07770402
43	0xbe81dd24	-0.2536403
44	0x3e92d730	0.286798
45	0xbe7ea93e	-0.24869248
46	0x3e11db13	0.14243726
47	0xbd944358	-0.07239407
48	0xbe14353c	-0.14473432
49	0x3dd4f18c	0.10397634
50	0xbe885a1c	-0.26631248
51	0xbe493c42	-0.19651893
52	0xbd684025	-0.056701798
53	0x3e83ed98	0.25767207
54	0xbbe339bf	-0.006934374
55	0x3e895b06	0.26827258
56	0x3e95d1fd	0.2926177
57	0xbc2323df	-0.009957283
58	0x3e415cd3	0.18883066
59	0xbcb793ac	-0.022409283
60	0xbe1e80ba	-0.15478793
61	0x3e4b64e4	0.19862705
62	0xbe80f109	-0.25183895
63	0xbc38ccfe	-0.011279343
64	0x3e692902	0.2276955
65	0x3e5acc6f	0.21367048
66	0x3e707809	0.2348329
67	0xbe0364d3	-0.1283143
68	0xbe491956	-0.19638571
69	0x3e197495	0.14985879
70	0x3e63124a	0.22174945
71	0xbd519235	-0.051164825
72	0xbc668bf8	-0.014071457
73	0x3e1d2a1b	0.15348093
74	0xbe466d2c	-0.19377583
75	0x3e152331	0.14564206
76	0xbe3e684e	-0.18594477
77	0xbdef8436	-0.11695139
78	0x3e141a4e	0.1446316
79	0x3e581096	0.21100077
80	0xbe0eef98	-0.13958585
81	0x3dc254c1	0.09488822
82	0x3e3e9bcb	0.18614118
83	0x3e91896c	0.28425157
84	0xbe263638	-0.1623162
85	0xbe88c6eb	-0.26714262
86	0x3e861da4	0.2619449
87	0x3e497592	0.19673756
88	0xbe552832	-0.20816115
89	0xbe24842f	-0.16066049
90	0x3e893c98	0.26804042
91	0x3c492e0e	0.012279047
92	0x3df61893	0.12016406
93	0xbd102dca	-0.035199918
94	0x3dd4648e	0.10370742
95	0xbe4c884f	-0.19973873
96	0x3d9a1b85	0.0752478
97	0xbd581feb	-0.052764814
98	0xbe868c17	-0.26278755
99	0x3e54cc9f	0.20781182
100	0x3cac7587	0.021052135
101	0xbdc18304	-0.09448817
102	0xbe91a0c8	-0.2844298
103	0xbd8db1bf	-0.06918668
104	0xbe8b8d69	-0.27256325
105	0x3db64c03	0.08901217
106	0xbe7e5e76	-0.24840721
107	0x3d9b61ce	0.07587014
108	0xbd700ffe	-0.058609
109	0xbe0269fa	-0.1273574
110	0xbe7d1f55	-0.24718983
111	0xbdac29d0	-0.084064126
112	0xbdcfa760	-0.10139346
113	0x3e62fbef	0.22166418
114	0xbe380d09	-0.17973723
115	0xbdd78fb6	-0.105254576
116	0xbd67772c	-0.056510136
117	0xbe93c690	-0.2886243
118	0xbd8942fe	-0.06702231
119	0xbe744c9b	-0.23857348
120	0xbe2e47d9	-0.17019595
121	0xbe511c09	-0.20420851
122	0x3e245905	0.16049583
123	0x3dd22b8a	0.10262211
124	0x3da72a05	0.081623115
125	0x3dd7c4a7	0.10535555
126	0xbe589fac	-0.2115466
127	0x3e780167	0.24219285
128	0xbe6283bb	-0.22120564
129	0xbd96141f	-0.073280565
130	0x3e391aee	0.18076679
131	0x3db79770	0.08964431
132	0xbe9413a9	-0.2892125
133	0xbe8b5cc2	-0.27219206
134	0xbe32026f	-0.17383741
135	0xbe1c2b2b	-0.15250842
136	0x3e1b2fd1	0.1515496
137	0xbd4adb38	-0.04952547
138	0x3b2092e8	0.0024501625
139	0x3e80785f	0.25091836
140	0xbe55f730	-0.20895076
141	0x3e95745d	0.2919034
142	0x3e7267b5	0.23672374
143	0xbd15e005	-0.036590595
144	0xbe7dfac8	-0.24802697
145	0xbd1712f7	-0.03688332
146	0x3e58b019	0.21160926
147	0xbe438422	-0.19093373
148	0xbe7a355c	-0.24434417
149	0xbb88a728	-0.004170317
150	0x3e781cd8	0.24229753
151	0xbd9ec852	-0.07753052
152	0xbe20a921	-0.15689518
153	0x3e807062	0.2508574
154	0x3e4450a7	0.19171391
155	0x3dae6345	0.08515028
156	0xbe85dd89	-0.2614558
157	0x3de735be	0.112895474
158	0x3e76a0ac	0.24084729
159	0xbe3dc148	-0.18530762
160	0x3e3fea02	0.1874161
161	0x3cbb5181	0.022866013
162	0x3d9e985c	0.07743904
163	0xbdbffed6	-0.09374778
164	0x3e00f9b9	0.12595262
165	0x3e5fd590	0.21858811
166	0xbe8d19a8	-0.27558637
167	0x3cebea68	0.028798297
168	0x3dbcd265	0.09219817
169	0xbdcc0844	-0.09962514
170	0x3dbd9b33	0.092581175
171	0x3dcf5237	0.10123103
172	0x3e58dee6	0.21178779
173	0xbe7dd581	-0.24788477
174	0xbe36e34a	-0.17860141
175	0x3e44b31f	0.19208954
176	0xbd2cd23b	-0.04219268
177	0x3e03ea66	0.12882385
178	0x3db314c8	0.08744198
179	0x3e8c7861	0.27435592
180	0x3e8f405b	0.27978787
181	0x3e71f012	0.23626736
182	0x3e2f43b3	0.17115669
183	0xbe6517f7	-0.22372423
184	0x3e0071b1	0.1254337
185	0xbe5e3c84	-0.21702772
186	0x3d99ad47	0.07503753
187	0xbd40ed48	-0.04710129
188	0x3d9d0152	0.076662675
189	0x3e887384	0.2665063
190	0x3db4843d	0.08814285
191	0xbd5a8af7	-0.053355183
192	0x3c31d275	0.0108533995
193	0x3e844f60	0.25841808
194	0xbe3f37eb	-0.18673675
195	0xbe93f2ae	-0.28896087
196	0x3dd8da82	0.10588552
197	0x3c698fd7	0.0142554855
198	0xbe7de71d	-0.24795194
199	0xbe88d381	-0.26723865
200	0x3d56b9df	0.052423354
201	0xbce072a1	-0.02739841
202	0x3e3eb195	0.1862243
203	0xbe2d7371	-0.16938569
204	0x3e854352	0.26027924
205	0x3d85569c	0.0651066
206	0x3ca66a08	0.020314232
207	0x3de5bd14	0.112177044
208	0x3e79206a	0.24328771
209	0x3e07d5c0	0.13265133
210	0xbe4bdb91	-0.19907977
211	0xbe199b15	-0.15000565
212	0x3e38c16f	0.18042539
213	0x3e6f03d5	0.23341306
214	0x3e235245	0.15949352
215	0x3e42e4df	0.1903262
216	0xbd92f309	-0.071752615
217	0xbe26c9e9	-0.1628796
218	0xbe559168	-0.2085625
219	0xbe8df1c0	-0.27723503
220	0x3e77c40d	0.24195881
221	0x3d02292e	0.031777553
222	0xbca5e8ba	-0.020252574
223	0x3dc13061	0.09433056
224	0x3e2acd1b	0.16679804
225	0x3e7f5421	0.24934436
226	0xbe660ff5	-0.22467025
227	0x3e425810	0.18978906
228	0x3cde9c92	0.027174268
229	0xbe185f0d	-0.14880009
230	0x3e3ffa5e	0.18747851
231	0xbd0ad5f0	-0.033895433
232	0xbcb710b9	-0.022346841
233	0xbd2fec59	-0.042950008
234	0xbd477f0d	-0.04870515
235	0xbe32cabf	-0.17460154
236	0x3e361a0e	0.17783377
237	0x3e86e778	0.26348472
238	0xbdd91f13	-0.1060163
239	0x3c54920b	0.0129742725
240	0xbc665544	-0.014058415
241	0xbb3c1dff	-0.0028704403
242	0x3e8ab6fc	0.2709273
243	0x3e878403	0.26467904
244	0xbdf81208	-0.12112814
245	0xbd82ff3e	-0.0639634
246	0xbd3b8300	-0.04577923
247	0xbe8301df	-0.25587365
248	0x3e6efbb4	0.23338205
249	0x3e6940c6	0.22778615
250	0x3e8455f5	0.2584683
251	0xbe95c057	-0.29248306
252	0x3d2d0b14	0.042246893
253	0x3d176b45	0.036967535
254	0x3e84a98c	0.25910604
255	0xbd8338a8	-0.06407291

lin_neigh_1.bias f4 [64]
0	0xb8b2cd5b	-8.525952e-05
1	0xb883393a	-6.257226e-05
2	0x39844e97	0.00025235556
3	0xb7c0d58d	-2.2987626e-05
4	0x340f14a0	1.3325416e-07
5	0x387fbd68	6.0973136e-05
6	0xb9098184	-0.00013113586
7	0xb9a32e6e	-0.00031124376
8	0x398b56da	0.00026576855
9	0xb928160e	-0.00016029945
10	0xb8134268	-3.5109377e-05
11	0xb9dedd94	-0.00042508228
12	0xb966d0ac	-0.00022012246
13	0xb9317086	-0.00016921954
14	0xb9afd12d	-0.0003353445
15	0xb9bdbe82	-0.00036190829
16	0xb9bf80be	-0.0003652628
17	0x38b119c8	8.44482e-05
18	0xb9836858	-0.0002506401
19	0x39b09fa9	0.00033688292
20	0xb801d716	-3.095631e-05
21	0x39ad53a0	0.00033059437
22	0xb9a94c5c	-0.00032291084
23	0x38f5264b	0.00011689643
24	0x38c0077e	9.156669e-05
25	0xb8eee6bc	-0.00011391702
26	0x380c0972	3.3387398e-05
27	0xb9a7087a	-0.00031859038
28	0x37d44ad4	2.5307214e-05
29	0x38c13673	9.213099e-05
30	0xb9666e0b	-0.00021975503
31	0x39c2c877	0.0003715192
32	0xb9247121	-0.00015682403
33	0x380b423a	3.320186e-05
34	0xb8cb21a7	-9.6860625e-05
35	0x390731c7	0.00012893147
36	0xb92d1dd2	-0.00016509675
37	0x39b7ba34	0.00035043212
38	0x39f70837	0.00047117632
39	0xb941c4ae	-0.00018479183
40	0x3a2ab874	0.0006512471
41	0x3916af8d	0.00014370513
42	0x37f02306	2.8626539e-05
43	0xb92c1fb3	-0.00016415007
44	0xb888e454	-6.527515e-05
45	0xb9ba12a7	-0.00035490582
46	0x39054736	0.00012710397
47	0xb7702825	-1.4314462e-05
48	0x39ae8e28	0.0003329378
49	0x3922d8e1	0.00015530318
50	0xb9cad28c	-0.00038685312
51	0xb9690e1f	-0.00022225872
52	0x3805ce77	3.1901956e-05
53	0xb902ceff	-0.00012474878
54	0xb9c980a6	-0.00038433558
55	0xba4e361e	-0.00078663405
56	0x37aa906c	2.033283e-05
57	0xb96bab12	-0.00022475075
58	0x393596ca	0.00017317678
59	0xb7809046	-1.5325972e-05
60	0xb7b05f64	-2.1025255e-05
61	0x398e4110	0.00027132826
62	0xb9824a33	-0.00024850815
63	0xb9af9df8	-0.00033496297

lin_self_2.weight f4 [64, 64]
0	0x3dd0e6fc	0.10200307
1	0x3e565ab2	0.20933035
2	0xbdd5566d	-0.10416875
3	0xbe554954	-0.20828754
4	0x3de0677d	0.10957239
5	0xbe164ff0	-0.14678931
6	0xbe22f900	-0.15915298
7	0x3d45d052	0.048294373
8	0x3d40fd4f	0.047116574
9	0xbd0b2ec0	-0.03398013
10	0x3dca9880	0.09892368
11	0xbe4f20e1	-0.20227386
12	0xbddb268c	-0.107007116
13	0xbe53f14b	-0.20697515
14	0xbe311fad	-0.1729724
15	0x3e495188	0.19660008
16	0x3d0fd85f	0.035118457
17	0x3d5c7f32	0.05383224
18	0x3e509f58	0.20373285
19	0xbe2e909c	-0.17047352
20	0xbd3d9069	-0.0462803
21	0xbb8f826b	-0.0043795607
22	0xbdf91874	-0.12162867
23	0xbe1859e8	-0.14878047
24	0xbd9a0451	-0.075203545
25	0xbd34e4eb	-0.044163626
26	0xbe434fee	-0.1907346
27	0xbdf9cd4d	-0.12197361
28	0xbdb9558c	-0.0904952
29	0x3e130cde	0.14360377
30	0xbd250a54	-0.040293053
31	0x3e20e0a1	0.15710689
32	0x3dd66157	0.10467785
33	0xbc2c7c12	-0.010527628
34	0xbd3a1847	-0.04543331
35	0xbe3901af	-0.18067048
36	0x3dc867c6	0.09785418
37	0xbe0feed0	-0.14055943
38	0xbdd9acf6	-0.10628693
39	0xbd675d04	-0.05648519
40	0x3d71b670	0.059011877
41	0x3e3eea09	0.18643965
42	0x3e2e25f6	0.17006668
43	0xbe11fe55	-0.14257176
44	0xbe12968a	-0.14315239
45	0x3dfe7a10	0.12425625
46	0x3e0868b7	0.13321196
47	0x3c0d800a	0.008636484
48	0xbe596f85	-0.21233948
49	0x3da7729b	0.08176156
50	0x3dfc121d	0.12308142
51	0xbe563496	-0.20918497
52	0x3c852724	0.016254015
53	0xbe3aceb8	-0.1824292
54	0x3dce25cc	0.10065803
55	0x3e29effc	0.16595453
56	0x3e138f2a	0.14410082
57	0x3da0bf84	0.07849029
58	0xbe2faa56	-0.17154822
59	0xbc8fa9a3	-0.017536944
60	0xbe1ae82d	-0.1512763
61	0xbdc4b80d	-0.096054174
62	0x3e286f20	0.16448641
63	0xbdcb5fd9	-0.09930391
64	0xbd1f8ac8	-0.03895071
65	0xbe5c08e2	-0.21487764
66	0xbe442263	-0.19153742
67	0x3dd705ff	0.104991905
68	0x3d0f2320	0.034945607
69	0x3d084bdc	0.03327547
70	0x3c1a83ee	0.009430869
71	0x3d2b1fb4	0.04177828
72	0x3e11fdc9	0.14256968
73	0x3e49c34f	0.1970341
74	0x3e520d72	0.20512941
75	0x3e39ea79	0.1815585
76	0xbde3a057	-0.11114567
77	0xbdc3f1f7	-0.095676355
78	0xbdee9055	-0.11648623
79	0x3dda2cb2	0.10653056
80	0x3dbacdb7	0.09121268
81	0xbe4cf9f9	-0.20017232
82	0xbe1aaa97	-0.15104137
83	0xbab273de	-0.0013614853
84	0x3db2b2dc	0.08725521
85	0xbe0e3d56	-0.13890585
86	0x3e0f7e2f	0.14012979
87	0xbcf76e76	-0.030204039
88	0xbdbd3152	-0.09237923
89	0xbe0e88b5	-0.13919337
90	0x3df32b63	0.1187351
91	0x3d5e8ca5	0.054333348
92	0xbb901ef9	-0.0043982235
93	0xbd8b9fe8	-0.06817609
94	0x3d07a3d1	0.033115212
95	0xbd77bc2d	-0.060482193
96	0x3caaab73	0.020833706
97	0x3db596aa	0.088666275
98	0x3df0e9bf	0.117633335
99	0xbe22831b	-0.15870325
100	0x3d3dcbaa	0.046336807
101	0x3e4ff934	0.20309907
102	0xbe2798aa	-0.1636683
103	0xbe28c26b	-0.16480415
104	0xbe1d4a8d	-0.1536047
105	0x3d656506	0.056004547
106	0x3e532a18	0.20621526
107	0xbe2a0a7b	-0.1660556
108	0x3ce73e1c	0.028227858
109	0x3cb8b61c	0.022547774
110	0x3e074754	0.13210803
111	0xbd370813	-0.044685435
112	0xbd0a5b76	-0.03377863
113	0xbdbf8dc3	-0.09353211
114	0xbdda01dc	-0.10644886
115	0xbd1c804d	-0.038208295
116	0xbe33417d	-0.1750545
117	0xbdebb65d	-0.115093924
118	0xbe364db9	-0.17803086
119	0xbe414209	-0.18872847
120	0x3e088e9d	0.13335653
121	0x3e31cbe6	0.17362937
122	0x3d1449c7	0.036203172
123	0x3e459910	0.1929667
124	0xbe264fb9	-0.1624135
125	0xbe5a498d	-0.2131712
126	0x3e4c0ca3	0.19926696
127	0xbdf0e2bb	-0.117619954
128	0x3e12622a	0.14295259
129	0xbb96f80c	-0.004607206
130	0xbaa6cbd4	-0.001272554
131	0x3d899c9b	0.06719323
132	0x3d8fe51c	0.07026121
133	0x3dd4d398	0.10391921
134	0x3e5c2909	0.21500029
135	0x3e141062	0.14459375
136	0x3ddcba1c	0.10777685
137	0xbe2357ae	-0.15951416
138	0x3bbafa1f	0.0057060863
139	0x3cb50c93	0.022100722
140	0x3dc5d6ce	0.09660111
141	0x3e3c17d1	0.1836846
142	0x3e24d05c	0.16095108
143	0xbdfc299e	-0.12312625
144	0xbd295283	-0.041338455
145	0x3d96f425	0.073707856
146	0xbcf51c6e	-0.029920783
147	0xbd962dfc	-0.073329896
148	0x3e24031b	0.1601681
149	0x3d5e1ef8	0.054228753
150	0x3e497d6b	0.1967675
151	0x3debc7e6	0.11512737
152	0xba4b0718	-0.00077448925
153	0xbe257949	-0.16159548
154	0xbdd5e671	-0.10444344
155	0xbd5e5b88	-0.05428651
156	0x3d075651	0.033041302
157	0xbe2c4cce	-0.16826174
158	0xbe5a7c09	-0.21336378
159	0xbe512cd7	-0.20427261
160	0x3e318746	0.17336759
161	0x3e086577	0.13319956
162	0xbc3a2f92	-0.011363881
163	0x3e520bc9	0.20512308
164	0x3e040d28	0.12895644
165	0xbe4c7b23	-0.19968848
166	0x3e2e0b3b	0.16996472
167	0xbe26bfee	-0.16284153
168	0x3dfd2c11	0.123619206
169	0x3cf0f175	0.02941201
170	0xbdfcd2df	-0.12344908
171	0xbd63a4a5	-0.05557694
172	0x3e2b286d	0.1671464
173	0x3e3486b7	0.17629515
174	0x3dde24d2	0.10846867
175	0xbe0e7f86	-0.13915834
176	0xbc156a7d	-0.009119627
177	0x3dc32cc7	0.09530025
178	0x3dfbbeb1	0.12292231
179	0x3e147bb0	0.14500308
180	0x3ddd0d16	0.107935116
181	0xbe4fff20	-0.20312166
182	0x3e38c64b	0.18044393
183	0xbe12a956	-0.14322409
184	0x3d079438	0.033100337
185	0xbe2693b9	-0.16267289
186	0xbb8bcec8	-0.0042665936
187	0x3d442e61	0.047895793
188	0x3e399b4e	0.1812565
189	0xbdb05c14	-0.086113125
190	0x3b5931d3	0.003314127
191	0xbc6bd508	-0.014394052
192	0x3d0901b7	0.0334489
193	0xbcccbd05	-0.024992475
194	0x3e4ebb35	0.20188601
195	0x3e12243e	0.14271638
196	0x3dc55d52	0.0963694
197	0x3e1fbdb8	0.15599716
198	0xbb1155aa	-0.0022176304
199	0x3e22cb9b	0.15897982
200	0xbcf2b6e3	-0.029628223
201	0xbe3c9d32	-0.1841934
202	0xbdfe1685	-0.12406639
203	0xbe488999	-0.1958374
204	0x3e149415	0.14509614
205	0x3e2c0844	0.16800028
206	0x3be559d5	0.006999234
207	0xbe312980	-0.17300987
208	0xbe37f1db	-0.17963354
209	0x3c816bdc	0.015798502
210	0x3e293a91	0.16526248
211	0xbdaea90b	-0.08528336
212	0x3e1a75ad	0.15083952
213	0x3e3904c3	0.18068223
214	0x3e30edcc	0.17278212
215	0xbd8d7fe8	-0.06909162
216	0xbe5c9969	-0.21542896
217	0x3bb3d9ab	0.0054885945
218	0xbdfc4eb9	-0.12319703
219	0x3d9cecb4	0.07662335
220	0xbcae8195	-0.021302024
221	0x3e5cd2c7	0.2156478
222	0xbe446254	-0.19178134
223	0xbe1f3d68	-0.15550768
224	0x3d2a8ee5	0.04164018
225	0xbd6ae02a	-0.057342686
226	0xbd6a9d72	-0.057279058
227	0x3e3210d0	0.17389226
228	0x3d2dd9fb	0.04244421
229	0x3dc8a96f	0.09797942
230	0xbcab70d7	-0.02092783
231	0x3cd0ba82	0.025479559
232	0x3e46f0bf	0.19427775
233	0xbe4519c1	-0.19248106
234	0xbde3bcac	-0.11119971
235	0x3de7932a	0.11307366
236	0xbd3d5d7e	-0.04623174
237	0x3e250d7d	0.16118427
238	0x3e2ea057	0.17053352
239	0x3d86911f	0.065706484
240	0x3e17e37f	0.14832877
241	0xbe2b7185	-0.16742523
242	0xbe1d7a7e	-0.15378758
243	0xbccae10a	-0.02476551
244	0x3e4b623b	0.1986169
245	0xbe572dff	-0.2101364
246	0xbd02b273	-0.031908464
247	0x3d3b1be6	0.045680903
248	0x3e2c3e9d	0.1682076
249	0x3e0da55b	0.1383261
250	0xbe1f5ae5	-0.15562017
251	0x3e1ef15b	0.15521757
252	0x3d398b4e	0.045298867
253	0xbe03da0b	-0.12876146
254	0x3d0937ef	0.033500608
255	0x3e4eacf1	0.2018316

lin_self_2.bias f4 [64]
0	0xb8407110	-4.5881665e-05
1	0xb7156a48	-8.905838e-06
2	0xb8cbc5f9	-9.7166696e-05
3	0x388a7acc	6.6032255e-05
4	0x37433962	1.1636266e-05
5	0x3a6f195c	0.00091209053
6	0xb95100cf	-0.00019932094
7	0x39630ef6	0.0002165398
8	0x3988ed38	0.00026116683
9	0xba187a34	-0.00058165495
10	0xb914e078	-0.00014198001
11	0x3a53d204	0.0008080306
12	0xba2a9e81	-0.0006508604
13	0xb885d736	-6.3820204e-05
14	0xb92648fe	-0.00015858185
15	0xb90c5965	-0.00013384742
16	0xb87fbcb0	-6.0972467e-05
17	0xb90f3abb	-0.00013659422
18	0x37a84688	2.0060004e-05
19	0xba1a1640	-0.00058779493
20	0x3799d78a	1.833939e-05
21	0x39d10f56	0.00039875013
22	0xba384119	-0.0007028743
23	0xba1a9411	-0.00058966974
24	0x37b63db7	2.1724829e-05
25	0xba699dfa	-0.0008911785
26	0xb871acd4	-5.7619836e-05
27	0xb8d11a47	-9.970791e-05
28	0xb96237a7	-0.00021573772
29	0xb9a3bfcf	-0.0003123269
30	0xb9933a52	-0.00028081477
31	0x38be11b8	9.0632064e-05
32	0x36b58b9a	5.410472e-06
33	0xba04d0c2	-0.0005066508
34	0x3722c2af	9.701281e-06
35	0x39082091	0.00012982103
36	0xb953bbbe	-0.00020192467
37	0xb90f60fc	-0.00013673672
38	0x37a6a89a	1.9867253e-05
39	0xb8032ed6	-3.1276453e-05
40	0x379d139f	1.8724995e-05
41	0x39f7c6f2	0.00047259737
42	0xba5e8d8a	-0.0008489719
43	0x3a037df7	0.00050160236
44	0x3933a579	0.00017132414
45	0x37fafb66	2.9919389e-05
46	0xb91fcf94	-0.0001524075
47	0xb9b0a424	-0.0003369163
48	0x3883ac85	6.278701e-05
49	0xba19766d	-0.00058541336
50	0xb7d0e21f	-2.4900828e-05
51	0xb92e5d68	-0.0001662873
52	0x39973eaa	0.00028847653
53	0xba054605	-0.0005083981
54	0xb81bc218	-3.7135644e-05
55	0xb9cbd797	-0.00038879804
56	0x38f907b8	0.00011874683
57	0x3a3d70ea	0.00072266033
58	0xb86f4243	-5.704375e-05
59	0x3944446a	0.00018717503
60	0xb92dc64c	-0.00016572437
61	0xb9c7a743	-0.00038080857
62	0xb9730929	-0.00023177698
63	0x3a497b51	0.0007685917

lin_neigh_2.weight f4 [64, 64]
0	0x3c5d7bc7	0.01351828
1	0x3d5ed97a	0.05440662
2	0x3e0ff05a	0.1405653
3	0xbd834319	-0.06409282
4	0xbe024947	-0.12723266
5	0x3da9cd07	0.08291059
6	0xbe0a6a21	-0.13517047
7	0xbe3eecaa	-0.18644968
8	0xbe22cca5	-0.15898378
9	0x3d1f874f	0.0389474
10	0xbe199f5f	-0.15002201
11	0xbe430a0a	-0.19046798
12	0xbe013313	-0.1261714
13	0x3e592fd5	0.21209653
14	0xbcab7b8a	-0.020932931
15	0xbbeba5c4	-0.0071913917
16	0xbd8ba123	-0.06817844
17	0x3d8fd3f2	0.07022847
18	0x3e37d668	0.17952883
19	0xbda7797d	-0.08177469
20	0xbdb8cc73	-0.090233706
21	0x3e4edad1	0.2020066
22	0xbe56fc22	-0.20994619
23	0xbdb2c020	-0.08728051
24	0xbdf55e16	-0.11980836
25	0x3e1e1a8e	0.15439817
26	0xbdcd1f91	-0.100157864
27	0xbdb5d2cc	-0.08878097
28	0x3d368ac3	0.044565927
29	0x3e56740d	0.20942707
30	0x3cfe6504	0.031054027
31	0x3e3e469f	0.18581627
32	0x3e5902eb	0.2119252
33	0xbd24941c	-0.04018031
34	0xbdd316b8	-0.10307068
35	0x3d4a649e	0.049412362
36	0xbe5507f7	-0.2080382
37	0x3e31acf1	0.17351128
38	0xbdb43611	-0.08799375
39	0xbe563f34	-0.20922548
40	0xb937f391	-0.00017542976
41	0x3e4741b3	0.19458656
42	0x3e241a2d	0.1602561
43	0xbd96eb35	-0.07369081
44	0x3e077e01	0.1323166
45	0xbdb0db05	-0.08635525
46	0x3deceba3	0.11568382
47	0xbdc02e3f	-0.09383821
48	0x3e4463f3	0.19178753
49	0xbe00b343	-0.12568383
50	0x3e42a2b1	0.19007374
51	0xbd37746f	-0.044788774
52	0xbd8c5473	-0.06852045
53	0x3c9936a8	0.01870282
54	0x3d4a5c4d	0.04940443
55	0x3d5bf632	0.053701587
56	0xbe166198	-0.14685667
57	0x3e0f7cb4	0.14012414
58	0xbe48e3f9	-0.19618215
59	0x3e04406a	0.12915197
60	0x3d031682	0.032003887
61	0xbd8d9666	-0.06913452
62	0xbe092781	-0.13393976
63	0xbe52a77c	-0.20571703
64	0x3e0b1a2e	0.13584206
65	0xbc93111e	-0.017952498
66	0xbe1b3a4c	-0.15158957
67	0xbdb330f6	-0.08749573
68	0xbdfa8f94	-0.122344166
69	0xbe0688df	-0.1313815
70	0xbdfecd2d	-0.12441478
71	0x3e050b60	0.1299262
72	0xbd881dc7	-0.066463046
73	0x3e2d467f	0.16921423
74	0xbe3598cd	-0.1773407
75	0x3d79584c	0.060875222
76	0x3e05f471	0.13081528
77	0xbd19ab04	-0.03751661
78	0xbd03163c	-0.032003626
79	0x3e16dcea	0.1473271
80	0x3c2c8ca3	0.010531577
81	0x3e13f519	0.14448966
82	0xbdbaf040	-0.09127855
83	0xbe4ed948	-0.20200074
84	0x3d6719b1	0.056420986
85	0xbe345b3a	-0.17612925
86	0xbe3b56a0	-0.18294764
87	0xbd5624de	-0.052281253
88	0xbe081d34	-0.1329239
89	0x3d2f4a29	0.042795334
90	0x3e5a31a6	0.21308002
91	0xbc810959	-0.015751528
92	0xbe24b899	-0.16086043
93	0xbe595966	-0.21225509
94	0xbcf2fe8f	-0.029662399
95	0x3ded5d53	0.11590066
96	0xbe45f716	-0.19332537
97	0xbd869a45	-0.06572393
98	0x3df2a805	0.118484534
99	0x3e006dab	0.12541835
100	0x3d9c83fa	0.0764236
101	0x3e23b60d	0.15987416
102	0xbe441f7d	-0.19152637
103	0x3e506daf	0.20354341
104	0x3e2f6b43	0.17130761
105	0xbd7a7ed1	-0.061156098
106	0x3e01ee22	0.12688497
107	0x3dab68e0	0.08369613
108	0x3dce8117	0.10083216
109	0xbd802e2b	-0.06258806
110	0xbe400e2a	-0.18755403
111	0x3c92543f	0.017862437
112	0x3dfc1a67	0.12309723
113	0xbc165c66	-0.009177303
114	0x3e2a5457	0.16633736
115	0x3d42fd73	0.04760499
116	0xbd4eedca	-0.050519742
117	0x3d3e4672	0.0464539
118	0x3b8c56f8	0.0042828284
119	0x3e2a0c7d	0.16606326
120	0xbd74a881	-0.05973101
121	0x3dd0bd92	0.10192408
122	0xbdeab0d7	-0.11459511
123	0x3d65d351	0.05610973
124	0xbe0ae5cc	-0.13564223
125	0x3e0aedd5	0.13567288
126	0x3e2b7dda	0.16747227
127	0xbd112490	-0.03543526
128	0xbe08f98c	-0.13376445
129	0xbbed4706	-0.0072411327
130	0xbe57a227	-0.2105795
131	0x3e33d416	0.17561373
132	0x3e44484d	0.19168206
133	0x3c021272	0.007938968
134	0xbe434f27	-0.19073163
135	0xbda1835a	-0.078863814
136	0xbe3811a3	-0.17975478
137	0x3cdd5961	0.027020158
138	0x3c3aba9d	0.011397031
139	0xbe30be77	-0.17260157
140	0x3d9e08f9	0.07716555
141	0xbda7ffb3	-0.08203068
142	0xba59c92d	-0.00083078706
143	0x3e074dc5	0.1321326
144	0xbc1682dc	-0.009186473
145	0xbd91056b	-0.070811115
146	0xbe182a8f	-0.14859985
147	0xbe0d0f1e	-0.13775298
148	0x3db0673f	0.08613443
149	0xbd976ab2	-0.073933974
150	0x3e2b45ca	0.16725841
151	0xbdbc9473	-0.09208002
152	0x3df8104c	0.121124834
153	0xbcfe7aef	-0.031064479
154	0xbe545716	-0.20736346
155	0xbe314218	-0.17310369
156	0x3e121abe	0.14268014
157	0x3cb96a31	0.022633644
158	0x3d9eaa03	0.07747271
159	0x3e410b69	0.18852009
160	0xbe0446f0	-0.12917686
161	0xbc5355ea	-0.0128989015
162	0x3c4c76bc	0.01247948
163	0x3dde3724	0.10850361
164	0xbe4e1a8e	-0.20127317
165	0x3c94c66f	0.018161027
166	0x3d89aacb	0.06722029
167	0x3dbd6762	0.09248234
168	0x3d6aded3	0.057341408
169	0x3db8cddb	0.09023639
170	0x3cbbf57d	0.022944206
171	0x3cdb2093	0.026748931
172	0xbe0dfee0	-0.13866758
173	0x3d2cbed6	0.042174183
174	0xbdd352d8	-0.103185356
175	0xbe106c98	-0.14103925
176	0xbe5c5a96	-0.21518931
177	0x3de4390f	0.111436956
178	0xbe386f15	-0.18011124
179	0xbe529719	-0.20565452
180	0x3e072b47	0.13200103
181	0x3d6d6292	0.057955332
182	0xbe521ddb	-0.20519201
183	0x3daa24fa	0.08307834
184	0x3cfc3ed4	0.030791678
185	0x3dd57ebb	0.104245625
186	0x3e16605c	0.14685196
187	0x3dbb5b5a	0.09148283
188	0xbde98a56	-0.114033386
189	0x3de206e8	0.110364735
190	0xbe49a2c1	-0.19690992
191	0x3cb00b06	0.021489631
192	0x3d51049b	0.051029783
193	0xbe060c05	-0.13090523
194	0x3de459eb	0.11149963
195	0x3d84b458	0.0647971
196	0x3e3fa135	0.1871384
197	0xbe2f01cb	-0.17090528
198	0x3db4074a	0.08790453
199	0x3e3434e3	0.175983
200	0xbe04b051	-0.12957884
201	0xbddda33b	-0.10822149
202	0xbe44a103	-0.19202046
203	0x3d0d0f3d	0.03443836
204	0x3c3a2504	0.011361364
205	0x3ca32150	0.019913346
206	0xbdee17a2	-0.11625601
207	0xbdf71096	-0.120637104
208	0xbdb172bb	-0.08664461
209	0x3d49da2e	0.049280338
210	0x3e23bba6	0.15989551
211	0x3d9ec891	0.07753099
212	0xbe3a7ca9	-0.18211617
213	0xbd46989f	-0.048485395
214	0xbd621487	-0.055195358
215	0x3e1146c0	0.14187145
216	0x3e0a592c	0.13510579
217	0xbe482038	-0.1954354
218	0x3e32b9ec	0.17453736
219	0x3e4ab17d	0.19794269
220	0xbe4ef989	-0.20212378
221	0xbe391c12	-0.18077114
222	0x3d2ad83f	0.041710135
223	0xbe101a61	-0.14072563
224	0xbdc998b6	-0.098435804
225	0xbcc3d448	-0.023904935
226	0xbe21fae0	-0.15818357
227	0xbd869003	-0.06570437
228	0x3e026a18	0.12735784
229	0x3d144552	0.03619892
230	0xbbe35340	-0.0069374144
231	0x3d972dbe	0.073817715
232	0xbe2d269e	-0.16909263
233	0xbe5cdc1c	-0.2156834
234	0x3dfc8522	0.123300806
235	0x3cbd50e4	0.02310986
236	0xbe003f11	-0.12524058
237	0x3db61d77	0.08892339
238	0xbe09681f	-0.13418625
239	0x3d2eac77	0.042644944
240	0xbe51cd5a	-0.20488492
241	0xbd1ff4b3	-0.039051723
242	0x3d361b1a	0.04445944
243	0xbe000231	-0.12500836
244	0x3cd127ad	0.025531614
245	0x3d947dad	0.07250533
246	0xbddee9a5	-0.10884408
247	0xbd839410	-0.06424725
248	0x3e2e5e76	0.17028221
249	0xbde9cd09	-0.114160605
250	0x3d047d56	0.032346092
251	0xbdbd24fc	-0.0923557
252	0x3e34a77f	0.1764202
253	0x3cc81f6b	0.024429044
254	0xbdeadbd2	-0.11467709
255	0xbe4f0022	-0.20214894

lin_neigh_2.bias f4 [64]
0	0xb8407110	-4.5881665e-05
1	0xb7156a48	-8.905838e-06
2	0xb8cbc5f9	-9.7166696e-05
3	0x388a7acc	6.6032255e-05
4	0x37433962	1.1636266e-05
5	0x3a6f195c	0.00091209053
6	0xb95100cf	-0.00019932094
7	0x39630ef6	0.0002165398
8	0x3988ed38	0.00026116683
9	0xba187a34	-0.00058165495
10	0xb914e078	-0.00014198001
11	0x3a53d204	0.0008080306
12	0xba2a9e81	-0.0006508604
13	0xb885d736	-6.3820204e-05
14	0xb92648fe	-0.00015858185
15	0xb90c5965	-0.00013384742
16	0xb87fbcb0	-6.0972467e-05
17	0xb90f3abb	-0.00013659422
18	0x37a84688	2.0060004e-05
19	0xba1a1640	-0.00058779493
20	0x3799d78a	1.833939e-05
21	0x39d10f56	0.00039875013
22	0xba384119	-0.0007028743
23	0xba1a9411	-0.00058966974
24	0x37b63db7	2.1724829e-05
25	0xba699dfa	-0.0008911785
26	0xb871acd4	-5.7619836e-05
27	0xb8d11a47	-9.970791e-05
28	0xb96237a7	-0.00021573772
29	0xb9a3bfcf	-0.0003123269
30	0xb9933a52	-0.00028081477
31	0x38be11b8	9.0632064e-05
32	0x36b58b9a	5.410472e-06
33	0xba04d0c2	-0.0005066508
34	0x3722c2af	9.701281e-06
35	0x39082091	0.00012982103
36	0xb953bbbe	-0.00020192467
37	0xb90f60fc	-0.00013673672
38	0x37a6a89a	1.9867253e-05
39	0xb8032ed6	-3.1276453e-05
40	0x379d139f	1.8724995e-05
41	0x39f7c6f2	0.00047259737
42	0xba5e8d8a	-0.0008489719
43	0x3a037df7	0.00050160236
44	0x3933a579	0.00017132414
45	0x37fafb66	2.9919389e-05
46	0xb91fcf94	-0.0001524075
47	0xb9b0a424	-0.0003369163
48	0x3883ac85	6.278701e-05
49	0xba19766d	-0.00058541336
50	0xb7d0e21f	-2.4900828e-05
51	0xb92e5d68	-0.0001662873
52	0x39973eaa	0.00028847653
53	0xba054605	-0.0005083981
54	0xb81bc218	-3.7135644e-05
55	0xb9cbd797	-0.00038879804
56	0x38f907b8	0.00011874683
57	0x3a3d70ea	0.00072266033
58	0xb86f4243	-5.704375e-05
59	0x3944446a	0.00018717503
60	0xb92dc64c	-0.00016572437
61	0xb9c7a743	-0.00038080857
62	0xb9730929	-0.00023177698
63	0x3a497b51	0.0007685917

readout.weight f4 [1, 64]
0	0xbda99ed0	-0.08282244
1	0xbb88eda6	-0.0041787205
2	0xbd4d35b0	-0.05010003
3	0x3d82cf7f	0.06387233
4	0xbe101ed7	-0.14074264
5	0x3e8a089f	0.26959702
6	0xbd6a6315	-0.0572234
7	0x3d9bc9e3	0.07606866
8	0x3e488eb1	0.19585682
9	0xbe3deb04	-0.18546683
10	0xbe12aea4	-0.14324433
11	0x3e82d4ef	0.2555308
12	0xbe520d89	-0.20512976
13	0xbe938a07	-0.28816244
14	0xbd78afec	-0.060714647
15	0xbe5fe5f2	-0.21865061
16	0xbdd1b822	-0.10240199
17	0xbd24d0ab	-0.040238064
18	0x3e28fcb8	0.16502655
19	0xbe8a943f	-0.27066228
20	0xbe85f17f	-0.2616081
21	0x3e848787	0.2588465
22	0xbe5b38c0	-0.21408367
23	0xbe94d449	-0.2906821
24	0x3c0d935d	0.008641091
25	0xbe84d49c	-0.25943458
26	0xbe197088	-0.14984334
27	0xbe907053	-0.28210697
28	0xbe26c75d	-0.16286989
29	0xbe218d0e	-0.15776464
30	0xbda2b998	-0.079455554
31	0x3e469db5	0.19396098
32	0x3d31c09c	0.043396577
33	0xbe56e7ea	-0.20986906
34	0x3e596ccb	0.21232907
35	0x3dfa159d	0.12211154
36	0xbdaa8cc2	-0.08327629
37	0xbd453b15	-0.04815205
38	0x3e08d528	0.13362563
39	0xbcba3dad	-0.022734487
40	0x3e5059a8	0.20346701
41	0x3e8d26cb	0.2756866
42	0xbe748531	-0.23878933
43	0x3e0db688	0.13839161
44	0x3d417f81	0.047240738
45	0x3e4c7475	0.199663
46	0xbe2d295d	-0.1691031
47	0xbdd44607	-0.10364919
48	0x3cb65d67	0.022261335
49	0xbe925de6	-0.28587264
50	0xbe290a31	-0.16507794
51	0xbdf2cce7	-0.11855488
52	0x3de4c130	0.1116966
53	0xbe87470b	-0.2642139
54	0xbc4e210d	-0.012581122
55	0xbe8b8331	-0.2724853
56	0x3de266c1	0.11054755
57	0x3e899bc6	0.26876658
58	0xbd0102a4	-0.03149666
59	0x3dd34836	0.103165075
60	0xbd7fdb68	-0.0624651
61	0xbe965951	-0.29365018
62	0xbe0dcc01	-0.13847353
63	0x3e65525a	0.22394696
