saved_data/gnn_distilled.pt (torch, 40869 bytes, 9 tensors)

lin_self_1.weight f4 [64, 5]
-0.24671482 0.107824974 0.16852516 0.029613296 0.24682933 -0.10478868 -0.12041996 0.26493558
-0.17550442 -0.24338613 -0.23932365 -0.2232381 -0.20620106 -0.2625374 -0.20277376 -0.2635004
-0.11242468 -0.12409798 0.2859053 -0.24509944 -0.08485512 -0.16957666 0.13558842 0.199986
0.16593006 0.20158078 -0.08597994 0.14462157 0.23249534 -0.07507717 -0.057738498 -0.09413203
0.1652593 0.1290498 0.22864328 -0.055737596 -0.28154472 -0.28046688 0.21856445 0.17273742
0.071618214 0.15633926 -0.24421717 -0.24948008 0.0779172 -0.21226537 -0.1619048 0.09278718
-0.08312364 0.06305636 -0.046408813 0.15500182 0.24397705 0.26561612 0.21425349 -0.24933307
0.022867497 -0.053853873 0.13958229 -0.05425827 0.02765408 -0.15365979 0.16972382 -0.10277638
-0.017281689 0.21423966 0.17737065 0.24977364 0.06518803 0.27691936 0.19611678 -0.26407
0.15754777 0.08277975 -0.16630022 -0.002695973 0.03332312 -0.025965234 0.058307707 -0.07295514
0.17292446 0.03559526 -0.24613123 -0.09259863 0.27944577 -0.25593928 0.08536273 0.14434335
-0.24997486 -0.17705116 -0.0093603 0.27127287 -0.13743058 -0.14155896 -0.113533765 -0.05845496
0.096246086 0.07024932 -0.08552867 -0.1885743 -0.060418002 -0.13182636 0.24351208 0.013046085
-0.22505122 0.23895416 -0.007021708 -0.15121168 0.089587055 0.2985687 -0.19606738 -0.011368863
-0.26371172 -0.15767522 0.118206136 -0.2471676 -0.04056829 -0.20689824 -0.26301113 -0.22622761
-0.048473537 0.07539785 0.02971513 -0.28447217 0.27455407 -0.111707896 0.13261122 -0.13040623
0.23340628 -0.28303528 -0.07665358 -0.20871994 -0.24342746 -0.06432305 -0.12156867 0.1569333
-0.21363886 0.10549629 0.1789568 0.23052359 0.27062306 0.2949051 -0.24353553 0.08676181
-0.07166539 0.088741794 -0.02100501 0.09274547 -0.043609634 0.05911158 0.27100345 -0.15893397
-0.08525571 0.2566818 -0.28555766 0.2581552 0.13216798 0.1822337 0.22947879 0.032358915
-0.23419976 0.15585762 -0.22872981 0.09752997 -0.22822753 0.0847735 -0.18514627 -0.26885056
0.3107379 -0.020924874 -0.2519845 -0.07392644 0.28422523 -0.26297972 -0.111532114 -0.2121211
-0.25006276 -0.0015027141 -0.12703307 0.054099165 0.09583309 0.28713357 0.19444962 0.24588917
0.28925368 -0.2342803 0.0705819 -0.07909089 0.13797893 -0.061654814 -0.14702517 0.28404474
0.04777356 -0.25754857 -0.28682628 0.182534 0.28323352 0.040222697 0.07262394 -0.26569894
0.15619232 -0.19497167 -0.030176906 0.19567753 0.083650336 0.19685571 0.068371736 0.18617675
-0.100556865 -0.15544872 -0.2206436 0.13735688 0.16292547 0.07352541 -0.12651521 -0.15943602
-0.07185181 0.17336239 0.27601776 -0.21067373 0.14779761 0.20885439 0.1665474 -0.2756676
-0.13397855 -0.019210547 -0.0653562 0.26871324 0.30060622 0.022809492 -0.023880323 -0.28133982
0.0062505603 -0.19865124 0.19499023 -0.23328373 0.19749866 -0.2450849 -0.10747623 0.106782064
0.15714985 0.23473299 0.27441207 0.28382525 -0.012047007 0.15620798 -0.20790116 -0.087545395
0.12201722 -0.25702214 0.22355309 0.18930185 0.03518903 -0.060442686 -0.08316437 -0.21791764
00000000: cfa2 7cbe 57d3 dc3d dc91 2c3e 9597 f23c
00000010: d4c0 7c3e 739b d6bd bd9e f6bd a3a5 873e
00000020: 6eb7 33be 373a 79be 4211 75be 8798 64be
00000030: 5f26 53be 4d6b 86be eda3 4fbe 86e9 86be
00000040: e93e e6bd 1527 febd 2e62 923e 59fb 7abe
00000050: 85c8 adbd 81a5 2dbe b1d7 0a3e 21c9 4c3e
00000060: 92e9 293e 316b 4e3e 4016 b0bd ad17 143e
00000070: 4213 6e3e 0fc2 99bd 347f 6cbd 4bc8 c0bd
00000080: bc39 293e a125 043e 7721 6a3e 1b4d 64bd
00000090: a126 90be 5b99 8fbe 5ccf 5f3e 14e2 303e
000000a0: 92ac 923d 6617 203e 1114 7abe b577 7fbe
000000b0: 0e93 9f3d 185c 59be 5fca 25be 3407 be3d
000000c0: ba3c aabd b123 813d 2b17 3ebd ccb8 1e3e
000000d0: 1fd5 793e d6fe 873e 4465 5b3e 2b51 7fbe
000000e0: 9e54 bb3c e195 5cbd a9ee 0e3e eb3d 5ebd
000000f0: cf8a e23c fe58 1dbe 15cc 2d3e 6c7c d2bd
00000100: 5492 8dbc a461 5b3e a7a0 353e a9c4 7f3e
00000110: 4d81 853d 60c8 8d3e d6d2 483e 2f34 87be
00000120: 3454 213e 6e88 a93d 9b4a 2abe ecae 30bb
00000130: d37d 083d 0bb5 d4bc 10d4 6e3d 8169 95bd
00000140: 1c13 313e 56cc 113d d309 7cbe 5aa4 bdbd
00000150: 8413 8f3e 790a 83be a8d2 ae3d bece 133e
00000160: 69f9 7fbe e64c 35be f25b 19bc 47e4 8a3e
00000170: 9aba 0cbe d5f4 10be 6484 e8bd 786e 6fbd
00000180: ab1c c53d e0de 8f3d a829 afbd 9f19 41be
00000190: de78 77bd 7dfd 06be 3b5b 793e 3fbf 553c
000001a0: d473 66be 66b0 743e 5b16 e6bb 3cd7 1abe
000001b0: 6b79 b73d ffdd 983e e3c5 48be 7844 3abc
000001c0: 3905 87be 9d75 21be 0f16 f23d 8119 7dbe
000001d0: ef2a 26bd 22dd 53be 65a9 86be 36a8 67be
000001e0: 308c 46bd 306a 9a3d 256d f33c 56a6 91be
000001f0: 5a92 8c3e 1cc7 e4bd 3ccb 073e 3689 05be
00000200: 0e02 6f3e 00ea 90be 8dfc 9cbd aeba 55be
00000210: 0c45 79be cebb 83bd fff8 f8bd 1fb3 203e
00000220: 25c4 5abe 700e d83d 7440 373e 600e 6c3e
00000230: 1b8f 8a3e cdfd 963e 6161 79be 2db0 b13d
00000240: 4ec5 92bd 42be b53d b312 acbc 56f1 bd3d
00000250: 04a0 32bd fc1e 723d f7c0 8a3e 96bf 22be
00000260: 8c9a aebd cc6b 833e 9d34 92be eb2c 843e
00000270: 0b57 073e 799b 3a3e 7dfc 6a3e c88a 043d
00000280: 10d2 6fbe 2499 1f3e 2638 6abe cbbd c73d
00000290: 7ab4 69be bb9d ad3d fc96 3dbe c8a6 89be
000002a0: 0a19 9f3e a46a abbc 1d04 81be bf66 97bd
000002b0: f885 913e 47a5 86be f36a e4bd 4636 59be
000002c0: 3a08 80be b8f6 c4ba f514 02be 1697 5d3d
000002d0: 2444 c43d 2c03 933e cd1d 473e 5fca 7b3e
000002e0: 0f19 943e 2de7 6fbe 3e8d 903d 68fa a1bd
000002f0: 594a 0d3e c289 7cbd c48d 16be 506e 913e
00000300: 35ae 433d 68dd 83be e5da 92be 31ea 3a3e
00000310: fc03 913e 8ec0 243d dcbb 943d b109 88be
00000320: e1f0 1f3e a7a6 47be 8f35 f7bc b15f 483e
00000330: de50 ab3d 8b94 493e 7b06 8c3d 1ea5 3e3e
00000340: c2f0 cdbd f32d 1fbe 65f0 61be 48a7 0c3e
00000350: efd5 263e 7d94 963d 348d 01be 3243 23be
00000360: 0b27 93bd e985 313e 3352 8d3e dbba 57be
00000370: 4258 173e eddd 553e 678b 2a3e 4e24 8dbe
00000380: ac31 09be 705f 9dbc 79d9 85bd c894 893e
00000390: 0fe9 993e f9da ba3c aba0 c3bc c60b 90be
000003a0: 80d1 cc3b 3b6b 4bbe 85ab 473e eee1 6ebe
000003b0: 173d 4a3e 89f7 7abe 7f1c dcbd 8eb0 da3d
000003c0: e4eb 203e d85d 703e bd7f 8c3e 8b51 913e
000003d0: cf60 45bc fcf4 1f3e 0be4 54be 004b b3bd
000003e0: 2ae4 f93d 6898 83be 1aeb 643e 58d8 413e
000003f0: 5f22 103d c092 77bd 1552 aabd cd25 5fbe

lin_self_1.bias f4 [64]
-0.008082013 0.010096825 0.004987983 0.0022710143 -0.024428403 0.025765158 0.004136437 -0.009240212
-0.021686435 -0.0002873875 0.006884739 -0.0073481803 0.009463915 0.005865205 -0.014973147 -0.0066304887
-0.022335047 0.02958784 0.012241552 0.006123565 0.012816066 -0.010711376 -0.0036899468 -0.007625384
-0.0121779535 -0.015026271 0.026509656 0.013625768 0.00040640056 -0.0030949 0.0152966585 0.002218099
-0.008932774 0.024524864 0.014477485 -0.0019319945 -0.0054650772 -5.208797e-05 0.004000154 0.0064334436
-0.0047836085 0.00037230295 0.0019945018 0.009869005 0.0025218136 0.016457485 -0.009873598 -0.01663237
0.0033040592 0.009595713 -0.0025026489 0.0034562564 -0.033137053 0.0034732171 0.007854337 -0.0004980262
0.0048219343 0.00059383875 0.002834022 0.020701878 -0.00808232 -0.00064200605 0.005045887 -0.011641479
00000000: 6b6a 04bc 276d 253c 3c72 a33b 4cd5 143b
00000010: 131e c8bc 7411 d33c f38a 873b 4264 17bc
00000020: c0a7 b1bc 7fac 96b9 6099 e13b 01c9 f0bb
00000030: 890e 1b3c e830 c03b ee51 75bc 9244 d9bb
00000040: fdf7 b6bc 3362 f23c ca90 483c 30a8 c83b
00000050: 7afa 513c c47e 2fbc 09d3 71bb 5bde f9bb
00000060: 0a86 47bc c030 76bc c72a d93c 9d3e 5f3c
00000070: 2912 d539 ced3 4abb d69e 7a3c 875d 113b
00000080: c55a 12bc 5ee8 c83c f932 6d3c fa3a fdba
00000090: 6414 b3bb 0879 5ab8 b913 833b a3cf d23b
000000a0: d1bf 9cbb a831 c339 30b6 023b 9bb1 213c
000000b0: 0345 253b d9d1 863c dfc4 21bc 9c40 88bc
000000c0: ea88 583b 5637 1d3c 7b03 24bb 5c82 623b
000000d0: b8ba 07bd ea9e 633b 7aaf 003c f98d 02ba
000000e0: 5101 9e3b d8ab 1b3a 00bb 393b fc96 a93c
000000f0: b56b 04bc 4c4c 28ba f857 a53b e7bb 3ebc

lin_neigh_1.weight f4 [64, 5]
0.016490838 0.045503467 -0.2166155 -0.24301133 -0.12236305 -0.27934352 0.16284049 -0.2611184
-0.24804689 -0.08530803 0.03303503 -0.13668573 -0.15125164 -0.076555684 0.29025912 0.21410437
-0.015145213 -0.15141708 0.045784045 -0.28039542 -0.1649692 -0.04103971 -0.015449642 0.23527394
-0.01897046 -0.03860664 -0.20413591 -0.17758833 0.28423098 -0.11842239 -0.116259165 -0.2604427
0.28427148 -0.1378852 0.0033538975 0.07032856 0.08357098 0.23402947 -0.076590955 0.13518092
0.060604226 0.27916804 -0.0064133834 -0.039613727 0.18584722 -0.110858746 -0.012965946 0.062081877
-0.22147126 -0.20958292 0.27465183 -0.19927594 -0.276775 -0.030020079 0.006500961 -0.050717384
0.14313795 -0.14840603 0.16265696 0.20762824 0.13776885 0.09215803 -0.060585402 -0.2298475
-0.07294703 -0.28612247 -0.05507173 0.19515938 -0.28878775 -0.17799194 0.03113625 -0.10341668
-0.07024261 -0.017395342 -0.2515007 -0.1886809 -0.25900885 0.29580083 0.13279381 0.11777595
-0.09735276 -0.2946092 -0.260351 -0.093029514 0.0935441 0.19724286 0.20152281 -0.24442047
-0.23799844 -0.26861355 0.050806914 -0.083168134 0.20309074 0.2423926 0.21837173 0.06754384
0.19095689 0.043824956 -0.25646788 -0.20171505 0.0933672 -0.08314064 -0.25504273 -0.08669257
-0.27120906 -0.04212732 0.17523402 -0.023747496 -0.2413376 -0.18798208 -0.16530207 0.057396952
0.26479185 -0.03801557 -0.12332831 0.2773235 0.25346667 0.08028083 0.040183567 0.030895611
0.14025699 0.13238548 0.014523901 0.15952928 -0.11078238 0.19102521 -0.08141111 -0.035161257
-0.054831203 -0.24467033 0.26855168 -0.14481309 0.20044984 -0.06416543 -0.25668466 -0.2518101
-0.031080931 -0.149825 -0.27236903 -0.2869098 0.2850822 -0.2887461 0.2772919 0.1596783
0.019299928 0.15233168 -0.28397876 -0.07968794 -0.095394105 -0.15446058 0.25687954 0.24453776
0.14777854 -0.08260114 -0.09339957 -0.023187928 -0.020281337 0.21143115 -0.20503037 0.14163208
0.1501261 0.092906326 -0.2737091 0.27406734 0.10582559 0.11418424 -0.02425382 0.12499947
0.26132312 0.13078572 0.16789523 -0.22641583 0.23293798 -0.26261362 -0.24219361 0.01705397
0.19332762 -0.149612 -0.04464537 -0.15216792 0.06485768 -0.1847906 0.15692852 -0.19644526
0.092956044 0.27944368 -0.22126019 -0.15449537 -0.14479819 0.26246306 0.206572 -0.24267967
-0.2903793 -0.021168161 0.14396445 -0.12506407 -0.118014954 -0.13982135 0.26929522 -0.09190389
0.14695452 -0.061665785 0.14207858 -0.2831692 -0.041776534 -0.20256598 -0.19424273 0.19732426
-0.060450602 -0.13327332 0.26725656 0.21969074 -0.0060121757 -0.13762729 -0.19569904 0.03885628
-0.055037245 0.050311144 0.19298407 0.14054592 0.2083635 -0.16472882 -0.04504225 0.27774063
-0.050340675 0.06361274 -0.11751826 0.119086765 0.21818274 0.20519295 -0.25613338 -0.18500838
0.1837004 0.27524668 -0.002536195 -0.12886812 0.036362648 -0.13275523 0.22756809 0.20517452
0.24228184 -0.020524465 0.1463923 0.2244366 0.096190274 -0.22412005 0.030600192 -0.10166007
-0.09477845 0.27169138 0.0024786629 0.16290858 0.27715093 -0.06166716 -0.070042804 0.23862925
00000000: cb17 873c d861 3a3d 74d0 5dbe f6d7 78be
00000010: 7b99 fabd 1d06 8fbe a8bf 263e 50b1 85be
00000020: 0100 7ebe fab5 aebd bd4f 073d 58f7 0bbe
00000030: b6e1 1abe 3ac9 9cbd d89c 943e 2d3e 5b3e
00000040: a123 78bc 140d 1bbe 0d88 3b3d fd8f 8fbe
00000050: b0ed 28be 4119 28bd 7f20 7dbc a7eb 703e
00000060: f067 9bbc ff21 1ebd 0109 51be b7d9 35be
00000070: b986 913e 7087 f2bd 4919 eebd bf58 85be
00000080: 088c 913e c731 0dbe 10cd 5b3b 6c08 903d
00000090: 4327 ab3d 6ca5 6f3e b8db 9cbd de6c 0a3e
000000a0: 233c 783d 1def 8e3e 5c27 d2bb 0142 22bd
000000b0: bc4e 3e3e e909 e3bd 1f6f 54bc 9149 7e3d
000000c0: 5dc9 62be e89c 56be 2a9f 8c3e fe0e 4cbe
000000d0: 74b5 8dbe abec f5bc 0306 d53b 08bd 4fbd
000000e0: c192 123e c0f7 17be 8c8f 263e 7f9c 543e
000000f0: 4713 0d3e 59bd bc3d 6628 78bd 255d 6bbe
00000100: 4165 95bd a57e 92be e592 61bd dcd7 473e
00000110: fddb 93be 8543 36be 7311 ff3c 20cc d3bd
00000120: 5cdb 8fbd ad80 8ebc b3c4 80be 9135 41be
00000130: cf9c 84be 3573 973e 1afb 073e 8434 f13d
00000140: e260 c7bd 04d7 96be ba4c 85be 4286 bebd
00000150: 0d94 bf3d 08fa 493e ff5b 4e3e 5c49 7abe
00000160: ddb5 73be b787 89be e91a 503d 0e54 aabd
00000170: 05f7 4f3e c435 783e d79c 5f3e 6d54 8a3d
00000180: 348a 433e cc81 333d c24f 83be 648e 4ebe
00000190: 4d37 bf3d a445 aabd f694 82be e08b b1bd
000001a0: eadb 8abe b28d 2cbd 8c70 333e 1c8a c2bc
000001b0: 3421 77be 607e 40be f244 29be 1119 6b3d
000001c0: cc92 873e 37b6 1bbd 8e93 fcbd 59fd 8d3e
000001d0: 62c6 813e 476a a43d 8697 243d cb18 fd3c
000001e0: 879f 0f3e 0f90 073e a8f5 6d3c a55b 233e
000001f0: dfe1 e2bd 1d9c 433e deba a6bd 4005 10bd
00000200: af96 60bd dc8a 7abe 9b7f 893e e249 14be
00000210: b942 4d3e 2a69 83bd 2c6c 83be 41ed 80be
00000220: 709d febc ba6b 19be f473 8bbe d7e5 92be
00000230: 4bf6 913e 87d6 93be 34f9 8d3e b582 233e
00000240: e21a 9e3c d6fc 1b3e aa65 91be 6e33 a3bd
00000250: fc5d c3bd ea2a 1ebe b785 833e 1b68 7a3e
00000260: 4253 173e c92a a9bd 4648 bfbd 9cf4 bdbc
00000270: 0c25 a6bc 6881 583e 7bf3 51be 0008 113e
00000280: a8ba 193e ac45 be3d 9923 8cbe 8e52 8c3e
00000290: 16bb d83d 6dd9 e93d f2af c6bc b9ff ff3d
000002a0: 25cc 853e b1ec 053e baec 2b3e 8dd9 67be
000002b0: 4b87 6e3e 4b75 86be 9a01 78be c4b4 8b3c
000002c0: adf7 453e e333 19be 10de 36bd e8d1 1bbe
000002d0: 1ad4 843d bf39 3dbe dfb1 203e f228 49be
000002e0: bd5f be3d 3e13 8f3e 0892 62be 0934 1ebe
000002f0: fa45 14be 8f61 863e 9c87 533e 0581 78be
00000300: 98ac 94be da68 adbc 6b6b 133e cc10 00be
00000310: d3b1 f1bd 542d 0fbe 10e1 893e 1b38 bcbd
00000320: 3f7b 163e 4395 7cbd 0c7d 113e 8efb 90be
00000330: df1d 2bbd 756d 4fbe 91e7 46be 5f0f 4a3e
00000340: 0d9b 77bd cd78 08be dad5 883e 9cf6 603e
00000350: c901 c5bb 2bee 0cbe 5465 48be c327 1f3d
00000360: bc6e 61bd 0f13 4e3d 9e9d 453e 45eb 0f3e
00000370: 3e5d 553e acae 28be 397e 38bd 0534 8e3e
00000380: 0632 4ebd 6547 823d 6aad f0bd c3e3 f33d
00000390: 4c6b 5f3e 1a1e 523e ea23 83be d672 3dbe
000003a0: f51b 3c3e 22ed 8c3e 4b36 26bb 01f6 03be
000003b0: 00f1 143d fdf0 07be 9c07 693e 4519 523e
000003c0: bb18 783e ec22 a8bc dde7 153e b5d2 653e
000003d0: 68ff c43d ba7f 65be 41ad fa3c 2833 d0bd
000003e0: 341b c2bd 221b 8b3e 1071 223b 82d1 263e
000003f0: bae6 8d3e b496 7cbd 9a72 8fbd 3a5b 743e

lin_neigh_1.bias f4 [64]
-0.008082013 0.010096825 0.004987983 0.0022710143 -0.024428403 0.025765158 0.004136437 -0.009240212
-0.021686435 -0.0002873875 0.006884739 -0.0073481803 0.009463915 0.005865205 -0.014973147 -0.0066304887
-0.022335047 0.02958784 0.012241552 0.006123565 0.012816066 -0.010711376 -0.0036899468 -0.007625384
-0.0121779535 -0.015026271 0.026509656 0.013625768 0.00040640056 -0.0030949 0.0152966585 0.002218099
-0.008932774 0.024524864 0.014477485 -0.0019319945 -0.0054650772 -5.208797e-05 0.004000154 0.0064334436
-0.0047836085 0.00037230295 0.0019945018 0.009869005 0.0025218136 0.016457485 -0.009873598 -0.01663237
0.0033040592 0.009595713 -0.0025026489 0.0034562564 -0.033137053 0.0034732171 0.007854337 -0.0004980262
0.0048219343 0.00059383875 0.002834022 0.020701878 -0.00808232 -0.00064200605 0.005045887 -0.011641479
00000000: 6b6a 04bc 276d 253c 3c72 a33b 4cd5 143b
00000010: 131e c8bc 7411 d33c f38a 873b 4264 17bc
00000020: c0a7 b1bc 7fac 96b9 6099 e13b 01c9 f0bb
00000030: 890e 1b3c e830 c03b ee51 75bc 9244 d9bb
00000040: fdf7 b6bc 3362 f23c ca90 483c 30a8 c83b
00000050: 7afa 513c c47e 2fbc 09d3 71bb 5bde f9bb
00000060: 0a86 47bc c030 76bc c72a d93c 9d3e 5f3c
00000070: 2912 d539 ced3 4abb d69e 7a3c 875d 113b
00000080: c55a 12bc 5ee8 c83c f932 6d3c fa3a fdba
00000090: 6414 b3bb 0879 5ab8 b913 833b a3cf d23b
000000a0: d1bf 9cbb a831 c339 30b6 023b 9bb1 213c
000000b0: 0345 253b d9d1 863c dfc4 21bc 9c40 88bc
000000c0: ea88 583b 5637 1d3c 7b03 24bb 5c82 623b
000000d0: b8ba 07bd ea9e 633b 7aaf 003c f98d 02ba
000000e0: 5101 9e3b d8ab 1b3a 00bb 393b fc96 a93c
000000f0: b56b 04bc 4c4c 28ba f857 a53b e7bb 3ebc

lin_self_2.weight f4 [64, 64]
0.16600801 0.0777157 -0.18856362 -0.0690008 -0.1512171 0.0669831 -0.032760456 -0.1917586
0.053520434 -0.13960232 -0.05093222 0.118884 -0.16672242 0.072923616 -0.07052321 0.044589266
-0.07375548 0.13114001 -0.084032565 0.1705326 -0.12739323 0.17046233 0.17694794 0.16024828
0.11329392 0.1391224 0.06925081 -0.005240469 0.08005944 -0.073718645 -0.13569131 -0.06492363
0.10951319 0.024563637 -0.2050981 -0.17406018 0.11330049 0.21729326 0.0065769884 -0.03916528
-0.0250654 0.07596562 -0.090449095 0.033577424 -0.11690925 -0.20898038 0.20462802 -0.11041161
-0.19362172 -0.023746083 -0.1888559 -0.029529752 0.09027763 -0.15429711 0.08318774 -0.04421671
0.15849024 -0.12350159 -0.2048503 0.029600909 -0.103606775 0.17740004 -0.1011491 -0.14653571
0.021512564 -0.12676486 -0.0856627 -0.14697438 0.09281823 -0.035830367 -0.16088857 -0.059974156
0.13293605 0.19033358 0.15934801 0.072083734 -0.10778586 0.032058183 0.19639431 0.0441279
0.0570601 -0.015171602 0.052932326 -0.14988926 -0.06979279 -0.15848126 0.11838634 -0.013141385
-0.028094936 -0.18811618 0.11097934 0.092964545 -0.10912781 -0.04119522 0.066845305 0.1626006
0.1021219 -0.11242763 -0.16070528 0.20601843 -0.02704044 0.09628676 -0.14727125 -0.006833113
-0.12298951 0.15542895 -0.14834352 -0.028717225 0.08929746 -0.004659388 -0.09598825 0.075472474
0.11424803 0.19398208 -0.053162 -0.089828044 -0.11581769 -0.062424313 -0.025273124 -0.11098626
-0.18804044 -0.078351945 0.21265206 -0.1932242 -0.097988 0.13738051 -0.16704877 -0.06843078
0.010811498 0.111922555 0.0945418 0.2050424 -0.15803318 -0.05697049 0.19229466 -0.17024021
-0.0006392905 0.15434827 -0.011014402 0.13576627 0.16382402 -0.12151361 -0.1711167 0.02704113
0.14990535 0.10551916 -0.056699406 0.20269099 -0.15224713 0.14129387 0.08957028 0.17801593
-0.19102642 -0.017611617 0.06805649 -0.10567354 0.17808521 -0.10747203 0.108124405 -0.14025837
0.13581704 0.19542545 -0.13171645 0.09043556 -0.058175627 0.099915855 0.13708441 0.20703836
0.123445496 -0.10846021 -0.046436068 0.1867497 0.20981227 -0.09783811 -0.03032215 0.045342505
0.16622175 0.10360883 -0.032145288 -0.09415609 -0.029028667 0.059329063 0.027927568 -0.13886431
0.0662932 0.024902102 0.19970709 -0.21148457 -0.20667644 -0.15949638 0.048005585 0.09624365
-0.019111145 0.13932784 -0.022984564 0.15773799 -0.15528674 -0.13573517 -0.038486257 -0.008646742
0.18922408 0.2044143 0.16975307 0.051030852 0.13301559 -0.18873467 0.02821208 -0.009288087
0.11177812 -0.17930387 -0.054818068 0.16842157 0.08624674 0.09545858 -0.21597533 -0.010573051
0.13428985 -0.109020226 0.07509339 -0.016248247 0.08746232 -0.16142467 -0.118151166 0.1095455
0.15294887 0.062283263 0.13031092 0.16442724 -0.036203727 -0.03926806 -0.139468 0.08439095
-0.08410278 -0.070582464 0.13151942 0.14025179 -0.0670447 0.19074684 -0.19680299 0.14442721
0.098160446 0.025290158 -0.057758484 0.18785156 -0.016285226 0.18393038 0.18901934 0.14100729
0.08876352 0.011130779 0.093811214 0.090235636 -0.12681697 -0.19866487 -0.037927605 0.0151279755
00000000: 01fe 293e 6929 9f3d d216 41be 4b50 8dbd
00000010: a8d8 1abe 6f2e 893d d42f 06bd 5e5c 44be
00000020: 3e38 5b3d e9f3 0ebe 4e9e 50bd 7479 f33d
00000030: 48b9 2abe fa58 953d 796e 90bd 3ca3 363d
00000040: 1d0d 97bd 9149 063e 4419 acbd 19a0 2e3e
00000050: 5f73 02be ad8d 2e3e d731 353e 2018 243e
00000060: a506 e83d 1a76 0e3e 5ed3 8d3d 3db8 abbb
00000070: 34f6 a33d cdf9 96bd aaf2 0abe aef6 84bd
00000080: 7448 e03d ae39 c93c 3c05 52be d53c 32be
00000090: 160a e83d 2082 5e3e c783 d73b c66b 20bd
000000a0: f455 cdbc dd93 9b3d 603d b9bd 7b88 093d
000000b0: 1e6e efbd f4fe 55be 028a 513e 7b1f e2bd
000000c0: c644 46be 2587 c2bc 7163 41be 61e8 f1bc
000000d0: 7ae3 b83d 1000 1ebe 555e aa3d 951c 35bd
000000e0: 444b 223e 67ee fcbd 47c4 51be 9b7d f23c
000000f0: ca2f d4bd 5ba8 353e 4227 cfbd 750d 16be
00000100: 1e3b b03c a6ce 01be ed6f afbd 7480 16be
00000110: 7c17 be3d ddc2 12bd f9bf 24be 76a7 75bd
00000120: 6320 083e cee6 423e 202c 233e a3a0 933d
00000130: d5be dcbd 714f 033d 971b 493e 75bf 343d
00000140: dab7 693d 5092 78bc 91cf 583d 927c 19be
00000150: 86ef 8ebd e948 22be 8a74 f23d f74e 57bc
00000160: 5a27 e6bc 87a1 40be 2349 e33d 3264 be3d
00000170: 677e dfbd 52bc 28bd 31e6 883d c680 263e
00000180: 4925 d13d 7540 e6bd ed8f 24be 7ff6 523e
00000190: ea83 ddbc fe31 c53d 46ce 16be 4ee8 dfbb
000001a0: ede1 fbbd c428 1f3e 5de7 17be 6340 ebbc
000001b0: 96e1 b63d c8ad 98bb 7d95 c4bd 5091 9a3d
000001c0: dffa e93d 3da3 463e 66c0 59bd c4f7 b7bd
000001d0: d331 edbd a3b0 7fbd 9509 cfbc c44c e3bd
000001e0: ac8d 40be fc76 a0bd 76c1 593e 91dc 45be
000001f0: efad c8bd 7aad 0c3e d50e 2bbe 7025 8cbd
00000200: b622 313c a737 e53d 229f c13d a3f6 513e
00000210: 73d3 21be e359 69bd e4e8 443e 7353 2ebe
00000220: 0f96 27ba 790d 1e3e c075 34bc 5006 0b3e
00000230: 7cc1 273e 21dc f8bd 3739 2fbe 5c85 dd3c
00000240: ca80 193e 6e1a d83d a33d 68bd 3a8e 4f3e
00000250: ace6 1bbe 57af 103e 9f70 b73d cf49 363e
00000260: 6e9c 43be 3d46 90bc 3361 8b3d 5e6b d8bd
00000270: f85b 363e 4c1a dcbd 5470 dd3d e49f 0fbe
00000280: 9f13 0b3e 9c1d 483e ade0 06be 4736 b93d
00000290: 9149 6ebd afa0 cc3d db5f 0c3e dd01 543e
000002a0: fed0 fc3d 6320 debd bf33 3ebd 503b 3f3e
000002b0: 07d9 563e 595f c8bd 2866 f8bc 10b9 393d
000002c0: 0936 2a3e de30 d43d c7aa 03bd e8d4 c0bd
000002d0: 87cd edbc 0803 733d 5bc8 e43c 7232 0ebe
000002e0: bbc4 873d 7eff cb3c 0480 4c3e 698f 58be
000002f0: fda2 53be 0553 23be 81a1 443d 641b c53d
00000300: fa8e 9cbc f5ab 0e3e 204a bcbc 1186 213e
00000310: 7d03 1fbe 29fe 0abe c4a3 1dbd 11ab 0dbc
00000320: f5c3 413e fb51 513e c0d3 2d3e ba05 513d
00000330: 3d35 083e a943 41be 051d e73c 0f2d 18bc
00000340: edeb e43d 6f9b 37be e988 60bd b476 2c3e
00000350: 21a2 b03d ca7f c33d a328 5dbe 973a 2dbc
00000360: 4783 093e ff45 dfbd 90ca 993d 0b1b 85bc
00000370: 721f b33d 824c 25be 3df9 f1bd 6459 e03d
00000380: a19e 1c3e bc1c 7f3d 3a70 053e 9d5f 283e
00000390: 5c4a 14bd 8cd7 20bd b3d0 0ebe 2ad5 ac3d
000003a0: 143e acbd 8a8d 90bd 07ad 063e 2a9e 0f3e
000003b0: bb4e 89bd 2453 433e b986 49be bae4 133e
000003c0: 5808 c93d 4e2d cf3c 2994 6cbd 295c 403e
000003d0: 9868 85bc 3f58 3c3e 498e 413e 3764 103e
000003e0: a6c9 b53d df5d 363c 1820 c03d 76cd b83d
000003f0: 4fdc 01be ce6e 4bbe fa59 1bbd 54db 773c

lin_self_2.bias f4 [64]
-0.01311402 -0.020714872 -2.9550269e-05 -0.0030843867 -0.002353542 0.01847966 -0.013345037 -9.629359e-05
0.00024792066 -0.0011517901 0.0 0.0059815864 -0.0046645626 0.008977374 0.0013206432 -0.022710321
0.004230484 0.002935777 0.007711422 0.0050040055 -0.0020230755 0.002739328 -0.011982374 0.0010055425
0.022389868 -0.0054921685 0.009967237 0.009257192 0.0065481216 0.0027061708 0.008014561 0.009166521
0.015093533 -0.0077184485 0.012733198 -0.01457126 0.008356498 -0.0060099913 -0.0021287755 0.007239754
-0.009792977 0.0059318617 -0.00886912 -2.266784e-05 0.0 -0.0008339228 -0.016410269 -0.0016533051
-0.0026643814 -0.0007957851 0.021751842 0.0022077803 0.00061936665 0.005281179 0.017716046 -0.0035788023
-0.0020587042 -0.004911632 0.00640762 0.003416001 0.013013664 -0.004650162 0.0063116527 -0.00034071764
00000000: 30dc 56bc 3cb2 a9bc b8e2 f7b7 6c23 4abb
00000010: e23d 1abb a862 973c 24a5 5abc 3af1 c9b8
00000020: 59fb 8139 aaf7 96ba 0000 0000 2f01 c43b
00000030: 30d9 98bb d615 133c 6f19 ad3a ff0a babc
00000040: df9f 8a3b 2a66 403b 19b0 fc3b a4f8 a33b
00000050: 9395 04bb 4c86 333b b851 44bc 68cc 833a
00000060: f56a b73c a6f7 b3bb 9f4d 233c 7aab 173c
00000070: a091 d63b 035a 313b 814f 033c 2d2f 163c
00000080: de4a 773c 0aeb fcbb e79e 503c 4bbc 6ebc
00000090: b1e9 083c 76ef c4bb ed82 0bbb 753b ed3b
000000a0: b972 20bc 1060 c23b c94f 11bc d126 beb7
000000b0: 0000 0000 9d9b 5aba d46e 86bc b7b3 d8ba
000000c0: e79c 2ebb 3c9c 50ba eb30 b23c 68b0 103b
000000d0: fe5c 223a be0d ad3b 3e21 913c 578a 6abb
000000e0: 53eb 06bb c1f1 a0bb 03f7 d13b fdde 5f3b
000000f0: 4337 553c 6360 98bb fbd1 ce3b 59a2 b2b9

lin_neigh_2.weight f4 [64, 64]
-0.014941374 0.07118438 -0.10612511 0.17062195 0.204295 -0.002864634 0.1090921 0.11201222
0.042247836 -0.081718884 -0.027261972 0.15194307 0.00046420682 0.19697988 -0.053635743 0.045304455
-0.17519894 -0.03679418 -0.15109387 0.068840325 -0.20441853 0.12655075 -0.21239445 -0.12775254
0.13985433 0.09387198 0.009745588 0.08160765 -0.013048239 0.18372391 -0.070876084 -0.17983961
-0.062283978 -0.1618338 0.061370306 -0.07554196 0.20530123 0.062441323 -0.09562758 0.11848495
-0.14201537 0.19394273 0.14327171 0.13795644 0.17786615 0.08961801 -0.1084655 0.0003584607
0.12049694 -0.13628775 0.16125394 0.16105965 0.17936756 -0.0031512172 -0.022964602 -0.009371748
0.11094491 0.14806035 -0.21668509 -0.07894257 0.03749672 -0.033808134 -0.09858712 -0.074756205
-0.1155033 -0.21344806 0.11508982 -0.17435437 0.1295138 0.15289256 0.21216941 0.01060454
0.14032581 0.06805822 0.13211478 -0.16284853 -0.03460694 0.02273478 -0.055655856 0.19488618
-0.16981766 -0.19581203 -0.16551499 0.16872324 0.13249572 0.11149034 0.07242524 0.19072823
-0.15907441 0.02434894 0.03983377 -0.20787653 -0.13243753 0.06688945 0.026868958 -0.13241658
0.19015042 0.117107294 0.09750407 0.18424293 0.17234503 0.13548516 0.038581815 0.18767317
-0.07053707 -0.024472171 0.082176715 0.011784913 -0.09025953 0.20860894 -0.13627626 -0.1517408
-0.07342277 0.05771704 0.0044707293 0.115699135 0.1858785 -0.016147071 -0.0047397274 -0.14808743
-0.12655269 0.13313054 0.14146793 -0.027778374 0.062863424 -0.061281424 -0.036603875 0.053643033
-0.16237964 -0.12658682 0.014454415 0.021801963 0.108081914 0.016064402 -0.10035767 0.21028586
-0.013008664 -0.13713744 -0.120800994 0.027410986 -0.02580405 -0.010265049 0.17413704 -0.0098195635
-0.17567714 -0.029794296 0.12015237 0.1195996 0.097509295 -0.06791678 0.019686349 -0.12005324
-0.10209075 0.111369826 -0.06605592 -0.14831848 -0.12462238 0.019540263 0.1017817 0.026487429
0.13413194 -0.0579269 0.10025871 -0.20738304 -0.11370573 -0.13862552 -0.122501604 0.051702715
0.078171596 0.0021374812 0.0530664 0.028865622 -0.07931682 0.15521584 -0.0265403 0.11586255
0.1146409 0.017286327 -0.1688645 -0.09033544 0.18668692 0.093417615 0.1506518 -0.052385528
-0.21457319 0.15941972 0.16390164 0.18866657 0.079376854 0.1970257 -0.21312657 -0.07490893
-0.0063855187 0.046631075 -0.2068857 -0.03573448 -0.090790465 0.19704415 -0.20067 0.062617734
-0.06961493 -0.18259601 0.02084382 0.11082678 0.20192933 -0.08507252 0.10008152 0.04699974
-0.17048901 0.07628205 0.010146332 0.082403935 -0.030650165 0.20612194 0.13618885 -0.2031205
-0.09397592 -0.142835 0.16799566 -0.15075149 -0.12586147 0.08871509 0.026114432 -0.13553344
-0.21143575 -0.018531766 0.11267333 -0.11162959 0.15865962 0.13123986 -0.21411116 0.20545794
0.18571322 0.00945163 0.020752221 0.11864284 -0.036501918 0.10910238 -0.1814892 -0.2086812
0.16835521 0.11322695 0.08251501 0.12150086 0.19223624 -0.017787492 0.20075715 -0.20124389
-0.18137038 -0.19346292 -0.103945166 0.08780577 -0.09369561 -0.21597426 -0.21699019 0.15586737
00000000: aacc 74bc 1ec9 913d 1f58 d9bd 85b7 2e3e
00000010: b532 513e 95bc 3bbb ae6b df3d aa66 e53d
00000020: 110c 2d3d 3b5c a7bd 8054 dfbc f796 1b3e
00000030: c960 f339 18b5 493e 27b1 5bbd 2a91 393d
00000040: 5a67 33be 7eb5 16bd 5ab8 1abe 28fc 8c3d
00000050: 1753 51be 8596 013e ee7d 59be 90d1 02be
00000060: f935 0f3e f43f c03d f5ab 1f3c e921 a73d
00000070: 48c8 55bc 1f22 3c3e 7b27 91bd e027 38be
00000080: 7c1d 7fbd c2b7 25be 6e5f 7b3d beb5 9abd
00000090: 7c3a 523e 79c2 7f3d 65d8 c3bd 3da8 f23d
000000a0: 7a6c 11be ec98 463e d2b5 123e 7444 0d3e
000000b0: 8b22 363e a689 b73d 2923 debd c8ef bb39
000000c0: 1ac7 f63d 048f 0bbe c11f 253e d2ec 243e
000000d0: 21ac 373e a784 4ebb 4320 bcbc f68b 19bc
000000e0: 1637 e33d 229d 173e b2e2 5dbe a4ac a1bd
000000f0: 2996 193d 667a 0abd 0be8 c9bd c819 99bd
00000100: ff8c ecbd 2192 5abe 36b4 eb3d f489 32be
00000110: 449f 043e de8f 1c3e f042 593e aabe 2d3c
00000120: 92b1 0f3e 1c62 8b3d 1949 073e c4c1 26be
00000130: 02c0 0dbd 4a3e ba3c 65f7 63bd 3e90 473e
00000140: aee4 2dbe f382 48be c37c 29be c9c5 2c3e
00000150: f5ac 073e 0c55 e43d af53 943d 434e 433e
00000160: 67e4 22be 6e77 c73c bc28 233d 96dd 54be
00000170: b49d 07be 56fd 883d 4a1c dc3c 3698 07be
00000180: cbb6 423e f3d5 ef3d 37b0 c73d 2eaa 3c3e
00000190: 377b 303e 9fbc 0a3e f707 1e3d 652d 403e
000001a0: bd75 90bd dd79 c8bc 444c a83d 8215 413c
000001b0: fdd9 b8bd 959d 553e 018c 0bbe f161 1bbe
000001c0: ad5e 96bd b468 6c3d 327f 923b abf3 ec3d
000001d0: ef56 3e3e dd46 84bc b74f 9bbb 3ba4 17be
000001e0: 0797 01be 5f53 083e f8dc 103e 798f e3bc
000001f0: 8abe 803d 3b02 7bbd f2ed 15bd ccb8 5b3d
00000200: d946 26be fa9f 01be 36d2 6c3c 089a b23c
00000210: 0d5a dd3d 7e99 833c 5288 cdbd 2d55 573e
00000220: 4b22 55bc c26d 0cbe 8366 f7bd 018d e03c
00000230: 0463 d3bc bc2e 28bc fb50 323e 3ce2 20bc
00000240: b5e4 33be 2b13 f4bc 7212 f63d a3f0 f43d
00000250: f4b2 c73d f417 8bbd 4445 a13c 79de f5bd
00000260: f514 d1bd dd15 e43d 5448 87bd cde0 17be
00000270: 053a ffbd e712 a03c ed72 d03d 2afc d83c
00000280: e259 093e c244 6dbd 7054 cd3d 385c 54be
00000290: 8dde e8bd d9f3 0dbe 1fe2 fabd 3ac6 533d
000002a0: 6e18 a03d fc14 0c3b 275c 593d 9977 ec3c
000002b0: db70 a2bd e7f0 1e3e 0b6b d9bc 5849 ed3d
000002c0: d9c8 ea3d 0e9c 8d3c d1ea 2cbe ca01 b9bd
000002d0: db2a 3f3e bc51 bf3d 7744 1a3e 3592 56bd
000002e0: 13b9 5bbe ec3e 233e d5d5 273e cf31 413e
000002f0: 5590 a23d 1bc1 493e da3d 5abe da69 99bd
00000300: 9d3d d1bb 3a00 3f3d d8d9 53be 515e 12bd
00000310: 5af0 b9bd f1c5 493e 707c 4dbe ba3d 803d
00000320: 4692 8ebd 73fa 3abe a9c0 aa3c 27f9 e23d
00000330: 90c6 4e3e 803a aebd 8af7 cc3d cd82 403d
00000340: ac94 2ebe c339 9c3d cd3c 263c 65c3 a83d
00000350: 0e16 fbbc a111 533e 1775 0b3e d2fe 4fbe
00000360: 7276 c0bd 5743 12be 0e07 2c3e 995e 1abe
00000370: d4e1 00be 42b0 b53d efed d53c 47c9 0abe
00000380: 9d82 58be eecf 97bc 46c1 e63d 0e9e e4bd
00000390: ab77 223e be63 063e f53f 5bbe 9163 523e
000003a0: 9b2b 3e3e 02db 1a3c 9000 aa3c 04fb f23d
000003b0: 0983 15bd 1271 df3d 4ed8 39be 86b0 55be
000003c0: 4f65 2c3e 88e3 e73d a1fd a83d 71d5 f83d
000003d0: 94d9 443e 13b7 91bc 4893 4d3e e112 4ebe
000003e0: 28b9 39be 251b 46be 34e1 d4bd 83d3 b33d
000003f0: 7ce3 bfbd 5b28 5dbe ad32 5ebe b29b 1f3e

lin_neigh_2.bias f4 [64]
-0.01311402 -0.020714872 -2.9550269e-05 -0.0030843867 -0.002353542 0.01847966 -0.013345037 -9.629359e-05
0.00024792066 -0.0011517901 0.0 0.0059815864 -0.0046645626 0.008977374 0.0013206432 -0.022710321
0.004230484 0.002935777 0.007711422 0.0050040055 -0.0020230755 0.002739328 -0.011982374 0.0010055425
0.022389868 -0.0054921685 0.009967237 0.009257192 0.0065481216 0.0027061708 0.008014561 0.009166521
0.015093533 -0.0077184485 0.012733198 -0.01457126 0.008356498 -0.0060099913 -0.0021287755 0.007239754
-0.009792977 0.0059318617 -0.00886912 -2.266784e-05 0.0 -0.0008339228 -0.016410269 -0.0016533051
-0.0026643814 -0.0007957851 0.021751842 0.0022077803 0.00061936665 0.005281179 0.017716046 -0.0035788023
-0.0020587042 -0.004911632 0.00640762 0.003416001 0.013013664 -0.004650162 0.0063116527 -0.00034071764
00000000: 30dc 56bc 3cb2 a9bc b8e2 f7b7 6c23 4abb
00000010: e23d 1abb a862 973c 24a5 5abc 3af1 c9b8
00000020: 59fb 8139 aaf7 96ba 0000 0000 2f01 c43b
00000030: 30d9 98bb d615 133c 6f19 ad3a ff0a babc
00000040: df9f 8a3b 2a66 403b 19b0 fc3b a4f8 a33b
00000050: 9395 04bb 4c86 333b b851 44bc 68cc 833a
00000060: f56a b73c a6f7 b3bb 9f4d 233c 7aab 173c
00000070: a091 d63b 035a 313b 814f 033c 2d2f 163c
00000080: de4a 773c 0aeb fcbb e79e 503c 4bbc 6ebc
00000090: b1e9 083c 76ef c4bb ed82 0bbb 753b ed3b
000000a0: b972 20bc 1060 c23b c94f 11bc d126 beb7
000000b0: 0000 0000 9d9b 5aba d46e 86bc b7b3 d8ba
000000c0: e79c 2ebb 3c9c 50ba eb30 b23c 68b0 103b
000000d0: fe5c 223a be0d ad3b 3e21 913c 578a 6abb
000000e0: 53eb 06bb c1f1 a0bb 03f7 d13b fdde 5f3b
000000f0: 4337 553c 6360 98bb fbd1 ce3b 59a2 b2b9

readout.weight f4 [1, 64]
-0.13945031 0.22996572 0.0004999985 0.26814055 0.23288947 -0.29060304 0.14838198 -0.031622417
0.01836672 0.16635773 0.09525427 0.10719285 0.06956658 -0.18565781 -0.027215706 0.1647467
-0.20716853 -0.19534223 -0.07038019 -0.28029153 -0.07620523 0.19929396 -0.17264476 0.3002915
0.24144629 -0.046920393 -0.2518389 -0.121248946 -0.28045967 0.13449878 0.14267972 0.18545051
-0.15658663 0.17074196 -0.18852296 -0.20225607 0.31438443 0.15824358 -0.19469146 0.06623094
0.2416415 0.1398357 0.08773003 -0.038984995 0.07462131 -0.0725193 -0.3002962 0.06251753
-0.08250637 -0.0089846905 -0.1711603 -0.106353976 -0.032059062 0.08995152 0.2236686 0.07040073
0.11992462 -0.15653741 0.14503984 -0.25028157 -0.16569974 -0.06368672 -0.12198275 -0.025700875
00000000: 10cc 0ebe 227c 6b3e 5512 033a b849 893e
00000010: 947a 6e3e ecc9 94be 72f1 173e 8286 01bd
00000020: ce75 963c ae59 2a3e ac14 c33d ed87 db3d
00000030: ec78 8e3d 151d 3ebe 79f3 debc 5cb3 283e
00000040: fd23 54be cb07 48be 7d23 90bd 5f82 8fbe
00000050: 7d11 9cbd b713 4c3e cac9 30be cfbf 993e
00000060: b23d 773e 992f 40bd 07f1 80be 5e51 f8bd
00000070: 6998 8fbe 0cba 093e a21a 123e bde6 3d3e
00000080: 3f58 20be fbd6 2e3e 2a0c 41be 371c 4fbe
00000090: fff6 a03e 9b0a 223e 335d 47be 16a4 873d
000000a0: df70 773e 1731 0f3e cdab b33d bbae 1fbd
000000b0: 0fd3 983d 0085 94bd 6cc0 99be 3109 803d
000000c0: 1af9 a8bd 8634 13bc a544 2fbe 1dd0 d9bd
000000d0: 5d50 03bd 8138 b83d 6209 653e 422e 903d
000000e0: 0a9b f53d 584b 20be 5385 143e e824 80be
000000f0: 31ad 29be 2f6e 82bd 18d2 f9bd a48a d2bc
