saved_data/pge_mlp_distilled.pt (torch, 82255 bytes, 13 tensors)

layers.0.weight f4 [128, 10]
0	0xbe11ef44	-0.14251429
1	0xbbea2500	-0.007145524
2	0xbe6dfb6f	-0.23240446
3	0x3e28527e	0.16437718
4	0xbde1bdd6	-0.110225365
5	0xbe577739	-0.21041574
6	0x3bcb1340	0.006197363
7	0xbe11e03c	-0.14245695
8	0x3e841ef3	0.25804862
9	0xbdd2059e	-0.10254978
10	0xbd8ef9fa	-0.06981273
11	0xbe83ca60	-0.25740337
12	0x3e639c16	0.22227511
13	0xbe64cf58	-0.2234472
14	0xbc3b7c20	-0.011443168
15	0xbdb4bd2e	-0.08825146
16	0x3e24e7a8	0.16103995
17	0xbea1249e	-0.3147325
18	0x3e865fcb	0.2624496
19	0xbdf279e4	-0.11839655
20	0xbd7f3460	-0.062305808
21	0xbe9f4fd8	-0.31115603
22	0x3d03d670	0.032186925
23	0x3e974ee9	0.2955239
24	0x3c55b5e0	0.013043851
25	0x3c2afe20	0.010436565
26	0xbe37f9e5	-0.17966421
27	0xbc131d40	-0.008979142
28	0x3e45d4c6	0.19319448
29	0xbe531c2a	-0.20616212
30	0xbd8f2abe	-0.06990574
31	0xbe002856	-0.12515387
32	0x3e1df3cc	0.15425032
33	0x3dcd683c	0.10029647
34	0xbea0ccfd	-0.31406394
35	0x3d213d00	0.039364815
36	0x3d09c358	0.03363356
37	0x3e27ac6a	0.16374364
38	0xbbf58f40	-0.0074938834
39	0x3df43df8	0.11925882
40	0xbe9de93c	-0.30842006
41	0x3b9fad80	0.0048729777
42	0xbe18bbea	-0.14915434
43	0xbe282a3d	-0.16422363
44	0xbe8d250f	-0.27567336
45	0xbd251448	-0.040302545
46	0xbe40f2ae	-0.18842575
47	0xbe6dfb11	-0.23240305
48	0x3c2d3b80	0.010573268
49	0xbe1d86ae	-0.15383407
50	0x3e7e3fae	0.2482898
51	0xbe5a586c	-0.21322793
52	0x3cabc940	0.020969987
53	0xbe96ba7a	-0.29439145
54	0x3d2e7900	0.042595863
55	0xbe9e1aac	-0.30879724
56	0x3d03e7a0	0.032203317
57	0xbea17735	-0.3153626
58	0x3dc24ccc	0.09487304
59	0x3e215654	0.15755588
60	0x3e990a27	0.29890558
61	0x3e9396ff	0.28826138
62	0xbe5ff48c	-0.21870631
63	0xbe80c068	-0.25146794
64	0x3e83b52b	0.25724158
65	0xbe76d889	-0.24106039
66	0x3e41753a	0.18892375
67	0x3cef9490	0.029245645
68	0x3dfa7e5c	0.122311324
69	0x3d190c08	0.03736499
70	0x3cc4b3d0	0.024011523
71	0x3e9dba65	0.3080627
72	0x3e977b05	0.29586044
73	0xbde5a12a	-0.1121238
74	0xbdb53586	-0.088480994
75	0xbcbf9b70	-0.023389548
76	0xbe177823	-0.14791922
77	0x3e8c59ed	0.27412358
78	0x3d25c720	0.040473104
79	0xbe957972	-0.29194218
80	0x3b413f80	0.0029487312
81	0xbea167f5	-0.31524625
82	0x3d74caf0	0.05976385
83	0x3e91c0c9	0.28467396
84	0x3e68c422	0.22731069
85	0x3e6affee	0.22949192
86	0xbe9b39aa	-0.30317432
87	0x3e4105fa	0.18849936
88	0x3e2369fa	0.15958396
89	0x3e0869aa	0.13321558
90	0x3e982057	0.29712173
91	0xbe5aee85	-0.2138005
92	0xbc5e85e0	-0.013581723
93	0x3e23070c	0.15920657
94	0xbd916c50	-0.07100737
95	0x3e18380e	0.14865133
96	0x3dbf0224	0.0932658
97	0x3e70633e	0.23475358
98	0x3e55171a	0.20809594
99	0xbcd264d0	-0.025682837
100	0x3a833a00	0.0010011792
101	0x3e555652	0.2083371
102	0x3e940b09	0.2891467
103	0x3e837965	0.25678554
104	0xbe9770c0	-0.2957821
105	0x3e9b3973	0.30317268
106	0x3d7bc8a8	0.061470658
107	0x3dee9a50	0.116505265
108	0x3d6eb4c0	0.058277845
109	0x3de87ea8	0.11352283
110	0xbe2e86fb	-0.17043678
111	0xbdefa332	-0.11701049
112	0xbc15a600	-0.009133816
113	0x3d10f4a0	0.035389543
114	0x3dab390c	0.0836049
115	0x3e2b5336	0.16730961
116	0x3e546d6a	0.20744863
117	0xbe14e77a	-0.14541426
118	0xbe5be1ab	-0.21472804
119	0x3d66fe48	0.056394845
120	0x3df35954	0.11882272
121	0x3db2f704	0.08738521
122	0xbacda700	-0.0015690029
123	0x3e2c4052	0.16821411
124	0xbe9d2871	-0.30694917
125	0xbe3ba77e	-0.18325612
126	0xbdaf77dc	-0.08567783
127	0xbc351960	-0.011053413
128	0xbd29e648	-0.04147938
129	0xbe80627e	-0.25075144
130	0x3e3fd566	0.18733749
131	0xbe116034	-0.14196855
132	0x3cf49bd0	0.029859453
133	0x3dfa2058	0.122132
134	0xbd3c4ce8	-0.04597178
135	0xbe802c8e	-0.25033993
136	0x3d8ff1e8	0.07028562
137	0x3e1cf65e	0.15328357
138	0xbe0f087d	-0.13968082
139	0xbe8c5e23	-0.2741557
140	0x3e57f80a	0.21090713
141	0x3e2c8d3a	0.16850749
142	0xbd09c190	-0.03363186
143	0x3e9c208f	0.3049359
144	0x3e3585fa	0.17726889
145	0xbdefebe4	-0.117149144
146	0xbe0bb2dc	-0.13642448
147	0x3e984c9b	0.29745945
148	0x3e20a650	0.15688443
149	0x3e83b03b	0.2572039
150	0xbe938516	-0.28812474
151	0xbd5d1c78	-0.053982228
152	0xbd27c658	-0.04096064
153	0x3dfc90b8	0.123322904
154	0x3e4f2d16	0.20232043
155	0xbde2cf96	-0.1107475
156	0xbd83ed0c	-0.064416975
157	0xbd591410	-0.05299765
158	0xbe014e0f	-0.12627433
159	0x3d13e200	0.036104202
160	0x3d8b5a24	0.06804302
161	0xbe8599c0	-0.26093864
162	0x3e41adc6	0.18913946
163	0xbe84923a	-0.25892812
164	0xbe68cffe	-0.22735593
165	0xbd2f7990	-0.04284054
166	0xbe9c12c9	-0.30483082
167	0x3e09bcfa	0.13450995
168	0x3e253512	0.16133526
169	0xbe82a6d0	-0.25517893
170	0x3decc8b0	0.115617156
171	0xbdb829ce	-0.089923486
172	0xbe6bb6e1	-0.23018982
173	0x3e064bf4	0.13114911
174	0xbe864e66	-0.26231688
175	0x3e9cd157	0.30628464
176	0xbe86416a	-0.26221782
177	0x3dede5a4	0.11616066
178	0x3c930ea0	0.01795131
179	0xbe25dbe4	-0.16197163
180	0xbea0f5ac	-0.31437433
181	0x3d8249c4	0.06361726
182	0xbe012c73	-0.12614612
183	0x3da46ab0	0.080281615
184	0x3e9266b1	0.28593972
185	0x3dd981bc	0.10620448
186	0x3e31dcae	0.17369339
187	0xbe419623	-0.18904929
188	0x3e473d1e	0.19456908
189	0x3e831545	0.25602165
190	0xbe042b5d	-0.12907167
191	0xbe82be3e	-0.25535768
192	0x3e5e7802	0.21725467
193	0x3e7576b2	0.2397106
194	0x3e45ecca	0.19328609
195	0x3d1544d0	0.036442578
196	0x3e9ca0a3	0.30591306
197	0xbe477892	-0.19479588
198	0x3d11fff0	0.03564447
199	0xbd43f748	-0.047843248
200	0x3e2fdbf2	0.17173746
201	0xbe1b2589	-0.15151037
202	0x3e24ef90	0.16107011
203	0x3d84daa8	0.06487018
204	0xbca62750	-0.020282418
205	0x3e721f32	0.23644713
206	0xbe1772f5	-0.14789946
207	0x3e932fe1	0.28747466
208	0x3e507a1e	0.20359084
209	0x3e8f42bb	0.279806
210	0xbe44df26	-0.1922575
211	0xbe83e699	-0.2576187
212	0x3e737356	0.23774466
213	0xbe7e1f58	-0.24816644
214	0x3dc1f08c	0.09469709
215	0x3dfbd93c	0.122972935
216	0xbdc24cca	-0.094873026
217	0xbda49810	-0.08036816
218	0xbd323550	-0.043507874
219	0xbe9b4b5e	-0.30330938
220	0x3cfa4080	0.030548334
221	0x3e824b33	0.25447997
222	0x3e71bd62	0.236074
223	0x3dc115bc	0.09427974
224	0xbc4ee540	-0.0126279
225	0x3d6af350	0.057360947
226	0x3dd73570	0.10508239
227	0x3c8c5c50	0.017133862
228	0xbd9a3e82	-0.07531454
229	0xbde69188	-0.11258227
230	0x3de538ac	0.1119245
231	0x3e3d7e6e	0.1850526
232	0x3cb5b2d0	0.022179991
233	0x3da68358	0.081305206
234	0x3d5c0290	0.05371338
235	0x3e4c1faa	0.19933954
236	0x3d3f1798	0.04665336
237	0x3e3a5a22	0.18198445
238	0xbe3735cc	-0.17891616
239	0xbbe4cc00	-0.0069823265
240	0xbe7bf11d	-0.24603696
241	0x3e73093a	0.23733988
242	0x3e918175	0.2841908
243	0xbd5c0088	-0.053711444
244	0xbe3f1ddf	-0.18663739
245	0xbe9cb112	-0.30603844
246	0x3cb872e0	0.022515714
247	0x3e830ad1	0.2559419
248	0xbe853361	-0.26015761
249	0xbc9cbea0	-0.019133866
250	0xbd7f6a40	-0.062357187
251	0x3c269100	0.010166407
252	0x3e36f746	0.17867765
253	0x3e89595f	0.26825997
254	0x3d9640a4	0.07336548
255	0xbcbe6ad0	-0.023244292

layers.0.bias f4 [128]
0	0xbe27c370	-0.16383147
1	0x3e8d83cf	0.27639624
2	0x3e9da953	0.30793247
3	0xbe3b086e	-0.18264934
4	0xbe7d2767	-0.24722062
5	0x3e9fb5ef	0.31193492
6	0x3e47ddea	0.19518247
7	0xbe8c7d9c	-0.27439582
8	0x3e070a84	0.13187605
9	0xbddc4288	-0.10754877
10	0xbe50d786	-0.20394716
11	0x3e4d953e	0.20076463
12	0x3c2296c0	0.009923637
13	0xbe0fb9dc	-0.14035743
14	0x3d325870	0.04354137
15	0x3e84443b	0.25833306
16	0xbe455ad0	-0.19272923
17	0x3d760540	0.0600636
18	0x3dff05d4	0.124522835
19	0xbc2b69e0	-0.010462254
20	0xbdbeaefe	-0.09310721
21	0xbe497bc3	-0.19676118
22	0xbc5049c0	-0.012712896
23	0xbe2e8e2d	-0.17046423
24	0xbe28e156	-0.16492209
25	0xbe9a4b07	-0.30135366
26	0xbdfedfca	-0.12445028
27	0x3e2906b4	0.16506463
28	0x3e846819	0.2586067
29	0x3e9054d1	0.2818971
30	0xbda1bcde	-0.07897352
31	0xbe8ad8b1	-0.27118447
32	0x3dcf37bc	0.10118052
33	0x3e272eb4	0.1632641
34	0xbe4201c1	-0.18945982
35	0xbea0ec0c	-0.3143009
36	0xbe7f7784	-0.24947935
37	0xbe3ba88b	-0.18326013
38	0x3e955b7d	0.29171363
39	0xbb002b00	-0.001955688
40	0xbc87e1a0	-0.016587079
41	0xbb916300	-0.0044368505
42	0x3dfca030	0.12335241
43	0x3e471276	0.19440636
44	0xbd866710	-0.06562626
45	0xbdf2856e	-0.11841856
46	0xbce432f0	-0.02785632
47	0x3d73af30	0.059493244
48	0x3e13d8ba	0.14438143
49	0x3c980fa0	0.018562138
50	0xbe2dd434	-0.1697548
51	0x3e67998a	0.22617164
52	0xbe8b3152	-0.27186066
53	0x3e8cbafb	0.27486405
54	0x3cf39130	0.029732317
55	0x3e67f146	0.22650632
56	0x3de8518c	0.11343679
57	0x3e514c96	0.20439371
58	0x3e4a0916	0.19730029
59	0x3e87ad4b	0.264994
60	0xbe6f34b0	-0.23359942
61	0xbd531db0	-0.051541984
62	0xbe95632a	-0.2917722
63	0xbe0cf2af	-0.13764451
64	0x3cde1b50	0.027112633
65	0xbe247367	-0.16059648
66	0xbe9e84cd	-0.30960694
67	0xbe7dec4b	-0.2479717
68	0x3c81ced0	0.015845686
69	0xbe93eebb	-0.28893074
70	0x3e389730	0.18026423
71	0xbe82469a	-0.2544449
72	0x3d11edd0	0.035627186
73	0x3e2b1382	0.1670666
74	0xbd1b2998	-0.037881464
75	0xbe827b87	-0.2548487
76	0xbc064e00	-0.008197308
77	0x3e9da065	0.30786434
78	0x3c80e8b0	0.015735954
79	0xbe5b8978	-0.21439159
80	0x3da66748	0.08125168
81	0x3e5a08be	0.21292397
82	0x3e80c0c1	0.2514706
83	0xbc812510	-0.015764743
84	0xbd835258	-0.0641219
85	0xbe10f87b	-0.14157288
86	0xbe22f2d9	-0.15912952
87	0x3dbde2ec	0.092717975
88	0xbe624936	-0.2209824
89	0xbe977cdd	-0.2958745
90	0xbde270b4	-0.11056653
91	0x3e97ffa7	0.29687235
92	0x3e8aa165	0.2707626
93	0xbcbccc80	-0.023046732
94	0x3e746daa	0.23869959
95	0x3e2b2446	0.16713056
96	0xbe1774ef	-0.147907
97	0x3de0dfb0	0.10980165
98	0x3e0b0290	0.13575196
99	0x3e9a2337	0.30104992
100	0x3e87df11	0.26537374
101	0x3d0eca08	0.03486064
102	0xbd92e88e	-0.071732625
103	0xbe263535	-0.16231234
104	0xbd9a73ae	-0.075415954
105	0x3e77ee32	0.24211958
106	0x3d57a390	0.05264622
107	0x3dbb6a04	0.0915108
108	0xbe9608f8	-0.29303718
109	0x3e062fd4	0.13104182
110	0xbddeecbc	-0.10884997
111	0xbe85958a	-0.26090652
112	0xbe3c2e60	-0.18377066
113	0xbe6fed41	-0.23430349
114	0xbba8d5c0	-0.005152434
115	0x3e194bb8	0.1497029
116	0x3e7e9dce	0.24864885
117	0xbe7fe9e5	-0.24991567
118	0xbe694b56	-0.22782645
119	0xbdbb760e	-0.091533765
120	0x3dc873b8	0.097876966
121	0xbe40b3f7	-0.18818651
122	0xbd96c6ec	-0.0736216
123	0x3e6a47f6	0.22879013
124	0xbe0095a6	-0.12557086
125	0xbdfcb95a	-0.123400405
126	0xbe9286e5	-0.2861854
127	0xbe7d24a5	-0.2472101

layers.1.weight f4 [128, 128]
0	0xbc0d7e00	-0.008635998
1	0xbc1285d8	-0.008943044
2	0x3b03b9e0	0.0020099804
3	0x3cc78138	0.024353608
4	0xbd652602	-0.05594445
5	0xbd9f6350	-0.07782614
6	0x3d8713e9	0.065955944
7	0xbd9d2c50	-0.076744676
8	0x3d0e0996	0.03467711
9	0x3d8cab17	0.0686857
10	0x3db13af3	0.08653822
11	0xbd30e6bb	-0.04318879
12	0x3bb674f0	0.0055681393
13	0x3cd58d74	0.026068427
14	0x39a96a00	0.00032313168
15	0xbda2c0cc	-0.07946929
16	0xbd80aefe	-0.06283377
17	0xbc4a4228	-0.012344874
18	0xbcab39c0	-0.02090156
19	0xbd771dd4	-0.06033118
20	0x3bab6ca0	0.005231455
21	0xbd00ef07	-0.031477954
22	0x3cfbf4a4	0.030756302
23	0xbcc47810	-0.023983032
24	0x3d7aae9e	0.061201684
25	0xbdae1ffc	-0.08502194
26	0x3db0e4f5	0.0863742
27	0xbd994f7a	-0.07485862
28	0x3d207b12	0.03917987
29	0x3b5ed520	0.0034001544
30	0xbcfae468	-0.03062649
31	0xbcd36568	-0.02580519
32	0x3c73c268	0.014877893
33	0x3c12a000	0.00894928
34	0xbd26d589	-0.040730987
35	0xbc97c304	-0.018525608
36	0xbc8329bc	-0.016011111
37	0xbce654a4	-0.028116532
38	0xbd1532c2	-0.03642536
39	0x3c8deb3c	0.017324083
40	0xbd76f148	-0.060288697
41	0x3db08333	0.08618774
42	0x3d8500c7	0.06494289
43	0xbd5d2a40	-0.05399537
44	0xbb1a7780	-0.0023569763
45	0xbd210226	-0.03930869
46	0xbc04ef78	-0.008113734
47	0xbda2fb37	-0.07958072
48	0xbd7a77cd	-0.061149407
49	0x3d934981	0.07191754
50	0xbd90f5b8	-0.07078117
51	0xbc74f748	-0.014951535
52	0x3d8ee677	0.069775514
53	0x3bb333c0	0.0054688156
54	0x3d8d69a9	0.06904919
55	0xbda27fba	-0.07934518
56	0xbd425036	-0.047439776
57	0xbd0b23b2	-0.03396959
58	0xbcdfaca4	-0.027304001
59	0xbd7e00c6	-0.062012456
60	0x3dae7895	0.08519093
61	0x3d515f62	0.051116355
62	0x3d854735	0.06507722
63	0xbd296a81	-0.041361336
64	0x3cec13a0	0.028817952
65	0x3bec3a30	0.007209085
66	0x3c1e1f50	0.00965102
67	0xbcca3d78	-0.024687514
68	0xbc84c6b4	-0.01620803
69	0xbd8db19a	-0.069186404
70	0xbc32a2e8	-0.010903098
71	0x3d6d7bea	0.0579795
72	0xbda105e6	-0.07862453
73	0x3d84718f	0.06466972
74	0xbc4e7c88	-0.012602933
75	0x3c296c00	0.010340691
76	0x3cef2ac8	0.029195204
77	0xbd2f2399	-0.042758558
78	0x3cbfbb80	0.023404837
79	0xbc19b4e8	-0.00938151
80	0x3ceb2734	0.028705217
81	0x3d64e096	0.055878244
82	0xbd4c8b58	-0.049937576
83	0xbcedc18a	-0.02902295
84	0x3d6400be	0.05566477
85	0x3ba1dde0	0.0049397796
86	0x3c330bb0	0.0109280795
87	0xbd2038fa	-0.039116837
88	0xbd904d13	-0.07045951
89	0xbd926366	-0.07147865
90	0xbd615864	-0.055015936
91	0xbd9e399a	-0.077258304
92	0x3dac1253	0.084019326
93	0x3da1fe2f	0.0790981
94	0xbd7b91f6	-0.061418496
95	0xbc287aa0	-0.010283142
96	0xbd93dd63	-0.072199605
97	0xbd21ceec	-0.039503977
98	0x3ba4ceb0	0.005029522
99	0xbb653440	-0.003497377
100	0x3c549100	0.012974024
101	0x3da014cf	0.07816469
102	0x3da59df9	0.080867715
103	0xbd59b08b	-0.05314688
104	0x3cb9248c	0.022600435
105	0x3c40b180	0.011761069
106	0x3add87c0	0.0016901419
107	0xba763900	-0.0009392649
108	0xbd9ae269	-0.075627156
109	0xbcbc5368	-0.02298899
110	0x3b27dc40	0.0025613457
111	0xbd983d54	-0.074335724
112	0x3d9578d9	0.072984405
113	0x3ad1bf80	0.0016002506
114	0xbc8e9d40	-0.017408967
115	0x3d81c961	0.06337238
116	0xbd5e2c36	-0.05424138
117	0x3d85d32f	0.06534421
118	0x3d828457	0.06372898
119	0x3da063e7	0.07831555
120	0xbcf63594	-0.030054845
121	0x3b3df220	0.002898343
122	0xbcbbe310	-0.02293542
123	0xbd2c0b87	-0.04200318
124	0x3d4b9e6e	0.049711637
125	0xbbe98440	-0.007126361
126	0x3d34f136	0.04417535
127	0xbd606f25	-0.054793496
128	0xbd02bd05	-0.031918544
129	0xbc8e375c	-0.017360382
130	0x3d0fb12c	0.035081074
131	0xbc45fb58	-0.012083851
132	0xbd97acae	-0.07405983
133	0xbda1441e	-0.078743204
134	0xbd8b8535	-0.068125166
135	0xbd6a6cc2	-0.057232626
136	0x3bffd1b0	0.007806979
137	0x3d941601	0.072307594
138	0x3b77f960	0.0037837848
139	0xbdb39527	-0.08768683
140	0x3d536f3a	0.051619746
141	0xbd9640ad	-0.07336555
142	0x3d40524a	0.046953477
143	0x3db383e5	0.08765391
144	0x3c9c1734	0.019054033
145	0x3d5adc16	0.053432547
146	0x3d6f2c12	0.058391638
147	0x3bfdcda0	0.0077454597
148	0xbc2b6d50	-0.010463074
149	0x3c30a038	0.010780387
150	0x3db1bd8f	0.086787336
151	0xbcfba096	-0.030716222
152	0xbcbdbc54	-0.02316109
153	0xbd8c6fba	-0.06857248
154	0x3d3d4cba	0.04621575
155	0xbcfaea66	-0.030629348
156	0x3d3c8372	0.046023794
157	0x3d4955c2	0.04915405
158	0xbcb64934	-0.022251703
159	0xbd5d52eb	-0.054034155
160	0x3b030040	0.0019989163
161	0x3d8b097f	0.067889206
162	0xbccde570	-0.025133818
163	0xbdaf2b1d	-0.08553145
164	0x3d1b87da	0.037971355
165	0x3cf98e9c	0.03046351
166	0xbcb4eadc	-0.022084646
167	0x3d59d4ee	0.05318158
168	0xbdab3614	-0.08359924
169	0xbda6954e	-0.08133946
170	0xbcb268bc	-0.021778457
171	0xbd9291fb	-0.0715675
172	0x3d4d58ca	0.050133504
173	0xbc72f718	-0.01482942
174	0xbd72e848	-0.059303552
175	0x3c9f5044	0.019447453
176	0xbd82f9be	-0.06395291
177	0xbd883550	-0.066507936
178	0x3b6ac220	0.0035821274
179	0xbd8b4e6d	-0.06802068
180	0xbda8749a	-0.08225365
181	0xbd3e6531	-0.046483222
182	0x3d3219d6	0.04348167
183	0x3cd34d94	0.025793828
184	0x3c9d2994	0.019184865
185	0x3c8486d0	0.016177565
186	0xbd7b73c6	-0.061389707
187	0xbd87d5a5	-0.06632546
188	0xbcc071c4	-0.023491748
189	0xbd2f44c4	-0.04279019
190	0xbd97204e	-0.073792085
191	0xbcf5564e	-0.02994838
192	0xbd8d7e8b	-0.06908902
193	0xbab32380	-0.0013667196
194	0xbd2d96c7	-0.04238012
195	0xbd61ffb2	-0.05517549
196	0xbbde5510	-0.0067850426
197	0x3d5c5aea	0.05379764
198	0xbd9ce366	-0.0766056
199	0x3d53f4ce	0.051747136
200	0x3cc46590	0.02397421
201	0xbd7b1068	-0.061294943
202	0xbc8a8d78	-0.01691316
203	0xbd911097	-0.070832424
204	0x3daf49e9	0.08559019
205	0xbc02f808	-0.007993706
206	0x3d0ebc8a	0.034847774
207	0x3d96d697	0.073651485
208	0x3d62c41e	0.055362813
209	0xbc715798	-0.014730357
210	0x3bdb3740	0.006689936
211	0x3dabff07	0.08398252
212	0xbafa2540	-0.0019084588
213	0x3c312df8	0.010814182
214	0xbd5e8c6f	-0.054333147
215	0x39e8ad00	0.00044379383
216	0x3d32c39a	0.04364357
217	0xbc6c5040	-0.01442343
218	0xbda20c9d	-0.07912562
219	0x3d9d4ddd	0.07680867
220	0x3da72499	0.08161277
221	0xbce02c68	-0.027364925
222	0xbcc63778	-0.024196371
223	0xbc28e928	-0.010309495
224	0xbca13c30	-0.01968202
225	0x3db083e3	0.086189054
226	0xbcb36f54	-0.021903671
227	0x3d97e46b	0.07416614
228	0x3a7ded00	0.00096865
229	0x3c9ddf28	0.019271448
230	0xbd9dd5a8	-0.07706767
231	0xbcffedb0	-0.031241268
232	0x3d3cd0a2	0.046097405
233	0x3c854b9c	0.016271405
234	0xbd86eebb	-0.06588503
235	0x3db0f893	0.08641162
236	0xbd946235	-0.07245294
237	0xbd9e30c2	-0.077241436
238	0x3d15f98e	0.036614947
239	0xbb2172a0	-0.0024634972
240	0xbda3a4ce	-0.079904184
241	0x3db1451b	0.08655759
242	0x3d9029f7	0.07039254
243	0x3db27269	0.08713228
244	0xbc2534b8	-0.01008337
245	0xbdaf8458	-0.085701644
246	0x3cff81fc	0.031189911
247	0x3d89fcff	0.06737708
248	0xbc84c54c	-0.01620736
249	0xbda4e70f	-0.080518834
250	0xbd90d574	-0.07071963
251	0xbd2b390a	-0.041802444
252	0x3d459bf6	0.04824444
253	0xbd1c8292	-0.03821046
254	0x3d284aae	0.041086845
255	0x3d84385b	0.064560615

layers.1.bias f4 [128]
0	0x3c4e95e0	0.012608975
1	0x3c610a28	0.013735332
2	0xbd2456cf	-0.04012185
3	0x3b063ca0	0.0020482913
4	0x3da137fd	0.07872007
5	0x3ba3cc80	0.0049987435
6	0xbce05e48	-0.027388707
7	0xbd780e8e	-0.060560755
8	0xbda44fe4	-0.080230504
9	0xbd05ff21	-0.032714013
10	0x3d8bd8d7	0.06828468
11	0x3d42640a	0.047458686
12	0xbd9c5fdf	-0.076354735
13	0xbd90549b	-0.07047387
14	0xbd5009a6	-0.05079045
15	0xbdafb599	-0.08579559
16	0xbd92a140	-0.07159662
17	0x3d592e3e	0.053022616
18	0xbd874127	-0.06604224
19	0x3d35a5ce	0.044347577
20	0xbc889190	-0.016670972
21	0xbd8cdb35	-0.06877748
22	0xbd6e7c5a	-0.05822406
23	0xbd814244	-0.06311467
24	0xbce07ce4	-0.027403302
25	0x3d420a22	0.047372945
26	0xbc6d9290	-0.014500275
27	0x3d5a10e6	0.05323877
28	0x3c002060	0.007820219
29	0x3c3bc520	0.0114605725
30	0xbb2e1a00	-0.002656579
31	0x3d337696	0.043814264
32	0xbd676f6d	-0.05650275
33	0x3da49c03	0.080375694
34	0x3d64741e	0.0557748
35	0xbda12729	-0.07868797
36	0x3b7577c0	0.003745541
37	0xbd8c24a3	-0.068429254
38	0x3d1fbe22	0.038999684
39	0x3d97d637	0.07413905
40	0x3c8f1ec8	0.017470732
41	0xbd796d50	-0.060895264
42	0xbd266269	-0.040621195
43	0x3d979cdf	0.07402968
44	0x3d330252	0.043703385
45	0xbd94399f	-0.07237553
46	0x3d989281	0.074498184
47	0x3d8323b7	0.064032964
48	0x3d775f8a	0.060393848
49	0x3ac34e80	0.0014900714
50	0x3ca0d6ac	0.019633614
51	0xbd5dc27f	-0.054140564
52	0xbcb23780	-0.02175498
53	0x3bed4bc0	0.007241696
54	0x3da2e2ab	0.0795339
55	0xbd40383c	-0.04692863
56	0xbca75bdc	-0.020429544
57	0xbb00fb40	-0.0019681007
58	0xbd36d43f	-0.044636007
59	0xbda75cb4	-0.081719786
60	0x3d1b08fe	0.037850372
61	0xbd9ad742	-0.075605884
62	0xbd9b5c8d	-0.07586012
63	0xbda00e0b	-0.078151785
64	0xbd53fb40	-0.051753283
65	0x3cd7fd14	0.026365794
66	0xbd32337b	-0.043506127
67	0x3d423ef6	0.047423325
68	0xbd40ca43	-0.04706789
69	0xbceddb04	-0.029035099
70	0xbd728dbe	-0.059217207
71	0x3d92f2b5	0.07175199
72	0xbd8717a7	-0.06596308
73	0x3d29f622	0.041494496
74	0xbc6a1e88	-0.014289506
75	0xbd1d07dc	-0.038337573
76	0xbd71e872	-0.059059568
77	0x3d7eebae	0.06223648
78	0x3ccf20d4	0.025284208
79	0x3c16ac00	0.009196281
80	0xbd262d74	-0.04057069
81	0x3d397b3e	0.04528355
82	0xbd6e63f2	-0.058200784
83	0xbd139bf6	-0.036037408
84	0x3d5f3736	0.054496013
85	0x3cbe17cc	0.023204707
86	0xbcd18574	-0.02557633
87	0x3daf1603	0.0854912
88	0x3d8c50c1	0.0685134
89	0x3ce1a6e4	0.0275454
90	0x3da79283	0.08182242
91	0xbd0aa90c	-0.033852622
92	0x3bbe8250	0.0058138743
93	0x3da8e6fb	0.08247181
94	0xbc9ef3f0	-0.019403428
95	0xbc267890	-0.01016058
96	0xbbec3530	-0.007208489
97	0xbb8c7c40	-0.0042872727
98	0xbd1f3a4f	-0.038873967
99	0x3d1de57a	0.038548924
100	0xbb8c0f30	-0.0042742714
101	0x3d651d7e	0.05593633
102	0xbd85ed74	-0.06539431
103	0xbc25ad48	-0.010112114
104	0xbcb1dba0	-0.02171117
105	0x3b094660	0.0020946488
106	0x3c6e1448	0.014531203
107	0x3c891648	0.016734257
108	0xbd1d6a34	-0.03843136
109	0xbdaab775	-0.08335773
110	0x3d9112b3	0.07083645
111	0xbd20fcca	-0.03930358
112	0xbd6fac27	-0.058513787
113	0x3a383500	0.00070269406
114	0x3d855917	0.06511133
115	0x3d371612	0.044698782
116	0xbc247a68	-0.01003895
117	0x3cad0160	0.02111882
118	0x3d344192	0.044007845
119	0xbdadf475	-0.08493892
120	0x3dafeef3	0.08590498
121	0xbdb01857	-0.085983925
122	0x3ca2e704	0.019885547
123	0x3d48677e	0.048926823
124	0xbdac31b2	-0.08407916
125	0x3db4d643	0.0882993
126	0x3c341d28	0.0109932795
127	0xbd7d7881	-0.0618825

layers.2.weight f4 [1, 128]
0	0xbb2c2d60	-0.0026272163
1	0x3d393256	0.04521402
2	0xbd788e0e	-0.06068235
3	0xbd4f8856	-0.05066713
4	0x3d9c5e79	0.07635207
5	0xbc9d043c	-0.019167058
6	0xbd849cdd	-0.06475232
7	0x3c531360	0.012883037
8	0x3d44a016	0.048004232
9	0xbcadd2ac	-0.02121862
10	0x3da7c759	0.081923194
11	0xbcb155f4	-0.021647431
12	0x3d715eea	0.058928408
13	0xbd2e02ad	-0.04248302
14	0x39e8d300	0.00044407696
15	0x3b85ecf0	0.004087083
16	0xbc924854	-0.017856754
17	0xbdacaee5	-0.08431796
18	0xbca307ac	-0.01990112
19	0xbd99aaf1	-0.075033076
20	0xbca4d464	-0.020120807
21	0xbda2f50a	-0.07956894
22	0xbcf51108	-0.029915348
23	0x3d49e672	0.049292035
24	0x3c0295e0	0.007970303
25	0xbd117f9a	-0.03552208
26	0x3c04c3f8	0.008103363
27	0xbdb2b0aa	-0.08725102
28	0x3d90bd23	0.07067325
29	0xb85ac000	-5.2154064e-05
30	0x3c013238	0.007885508
31	0x3da40335	0.08008424
32	0x3daba141	0.08380366
33	0x3d907069	0.070526905
34	0xbc1060a8	-0.008812107
35	0xbb768400	-0.00376153
36	0x3d68c4ea	0.056828417
37	0xbc6f2a70	-0.01459752
38	0x3c9b22ac	0.018937431
39	0xbda4b79b	-0.080428325
40	0xbc5fccb8	-0.013659649
41	0xbb8ae7b0	-0.004239045
42	0x3b478300	0.0030443072
43	0xbcfa2b3c	-0.030538194
44	0xbd71eba3	-0.05906261
45	0x3af46e00	0.0018648505
46	0x3cdb3284	0.026757486
47	0x3cdcb07c	0.026939623
48	0xbd925ec9	-0.07146985
49	0xbd456f4c	-0.048201844
50	0xbb21b280	-0.0024673045
51	0xbc190148	-0.009338684
52	0x3d64c42e	0.055851154
53	0x3d47565e	0.04866635
54	0x3c76bb58	0.015059315
55	0x3dae7e39	0.08520169
56	0xbd28d2f6	-0.041216813
57	0xbc9464bc	-0.01811444
58	0x3c3cde08	0.011527546
59	0xbb0ad5e0	-0.0021184608
60	0xbd8392fa	-0.06424518
61	0x3d94bbf1	0.072624095
62	0xbd108b19	-0.035288904
63	0xbda603e7	-0.08106213
64	0x3d8230f1	0.06356991
65	0x3db247d1	0.08705104
66	0x3d59888e	0.053108744
67	0x3da7c5a5	0.081919946
68	0xbda98f56	-0.08279292
69	0xbc62e7b0	-0.013849184
70	0xbcc0cd88	-0.023535505
71	0xbd9330bb	-0.07187029
72	0xbb943480	-0.00452286
73	0x3d7faf66	0.062423132
74	0x3ce69e8c	0.028151773
75	0xbd5c6226	-0.05380454
76	0xbcb838e8	-0.022488073
77	0x3d7a9306	0.06117537
78	0x3d0829d8	0.03324303
79	0x3d1dc67a	0.03851936
80	0x3da71abb	0.08159395
81	0xbda203b1	-0.0791086
82	0xbd14a918	-0.036294073
83	0x3dadcdcb	0.084865175
84	0xbcd068ec	-0.025440656
85	0x3d759956	0.059960686
86	0x3d636fee	0.055526666
87	0x3d8fe16f	0.0702542
88	0xbd935604	-0.071941406
89	0x3d8540c9	0.065064974
90	0x3d7b13de	0.061298244
91	0x3d91346b	0.07090076
92	0x3d2861fe	0.041109078
93	0x3c994c40	0.018713117
94	0x3d04f844	0.032463327
95	0xbdb316ba	-0.08744569
96	0xbdad6eb6	-0.08468382
97	0x3d4a8af2	0.049448915
98	0x3829f800	4.0523708e-05
99	0x3c6da770	0.014505252
100	0x3d26e9c6	0.040750287
101	0x3c086f50	0.00832732
102	0xbd9c7eb1	-0.07641352
103	0xbd3e519d	-0.04646455
104	0xbd998f37	-0.07498019
105	0x3ca50f38	0.020148858
106	0xbd6ff858	-0.05858645
107	0xbd3a6de0	-0.04551494
108	0x3d9a7745	0.0754228
109	0xbc8f66d8	-0.017505094
110	0xba7f0f00	-0.0009729713
111	0xbdae1709	-0.08500487
112	0xbcd1e894	-0.025623597
113	0x3d050788	0.032477885
114	0xbbb896e0	-0.00563322
115	0x3d345da6	0.044034623
116	0x3ba5cc00	0.005059719
117	0x3d7849f2	0.060617395
118	0xbdace1ad	-0.08441482
119	0x3d88a825	0.06672696
120	0x3b7c3260	0.0038482174
121	0xbc379bf0	-0.011206612
122	0xbda00cb9	-0.07814927
123	0x3bc7ab40	0.0060934126
124	0xbc43f670	-0.011960611
125	0xbc2da940	-0.010599434
126	0x3d898da5	0.0671647
127	0x3d0517b8	0.032493323

bns.0.weight f4 [128]
0	0x3f800000	1.0
1	0x3f800000	1.0
2	0x3f800000	1.0
3	0x3f800000	1.0
4	0x3f800000	1.0
5	0x3f800000	1.0
6	0x3f800000	1.0
7	0x3f800000	1.0
8	0x3f800000	1.0
9	0x3f800000	1.0
10	0x3f800000	1.0
11	0x3f800000	1.0
12	0x3f800000	1.0
13	0x3f800000	1.0
14	0x3f800000	1.0
15	0x3f800000	1.0
16	0x3f800000	1.0
17	0x3f800000	1.0
18	0x3f800000	1.0
19	0x3f800000	1.0
20	0x3f800000	1.0
21	0x3f800000	1.0
22	0x3f800000	1.0
23	0x3f800000	1.0
24	0x3f800000	1.0
25	0x3f800000	1.0
26	0x3f800000	1.0
27	0x3f800000	1.0
28	0x3f800000	1.0
29	0x3f800000	1.0
30	0x3f800000	1.0
31	0x3f800000	1.0
32	0x3f800000	1.0
33	0x3f800000	1.0
34	0x3f800000	1.0
35	0x3f800000	1.0
36	0x3f800000	1.0
37	0x3f800000	1.0
38	0x3f800000	1.0
39	0x3f800000	1.0
40	0x3f800000	1.0
41	0x3f800000	1.0
42	0x3f800000	1.0
43	0x3f800000	1.0
44	0x3f800000	1.0
45	0x3f800000	1.0
46	0x3f800000	1.0
47	0x3f800000	1.0
48	0x3f800000	1.0
49	0x3f800000	1.0
50	0x3f800000	1.0
51	0x3f800000	1.0
52	0x3f800000	1.0
53	0x3f800000	1.0
54	0x3f800000	1.0
55	0x3f800000	1.0
56	0x3f800000	1.0
57	0x3f800000	1.0
58	0x3f800000	1.0
59	0x3f800000	1.0
60	0x3f800000	1.0
61	0x3f800000	1.0
62	0x3f800000	1.0
63	0x3f800000	1.0
64	0x3f800000	1.0
65	0x3f800000	1.0
66	0x3f800000	1.0
67	0x3f800000	1.0
68	0x3f800000	1.0
69	0x3f800000	1.0
70	0x3f800000	1.0
71	0x3f800000	1.0
72	0x3f800000	1.0
73	0x3f800000	1.0
74	0x3f800000	1.0
75	0x3f800000	1.0
76	0x3f800000	1.0
77	0x3f800000	1.0
78	0x3f800000	1.0
79	0x3f800000	1.0
80	0x3f800000	1.0
81	0x3f800000	1.0
82	0x3f800000	1.0
83	0x3f800000	1.0
84	0x3f800000	1.0
85	0x3f800000	1.0
86	0x3f800000	1.0
87	0x3f800000	1.0
88	0x3f800000	1.0
89	0x3f800000	1.0
90	0x3f800000	1.0
91	0x3f800000	1.0
92	0x3f800000	1.0
93	0x3f800000	1.0
94	0x3f800000	1.0
95	0x3f800000	1.0
96	0x3f800000	1.0
97	0x3f800000	1.0
98	0x3f800000	1.0
99	0x3f800000	1.0
100	0x3f800000	1.0
101	0x3f800000	1.0
102	0x3f800000	1.0
103	0x3f800000	1.0
104	0x3f800000	1.0
105	0x3f800000	1.0
106	0x3f800000	1.0
107	0x3f800000	1.0
108	0x3f800000	1.0
109	0x3f800000	1.0
110	0x3f800000	1.0
111	0x3f800000	1.0
112	0x3f800000	1.0
113	0x3f800000	1.0
114	0x3f800000	1.0
115	0x3f800000	1.0
116	0x3f800000	1.0
117	0x3f800000	1.0
118	0x3f800000	1.0
119	0x3f800000	1.0
120	0x3f800000	1.0
121	0x3f800000	1.0
122	0x3f800000	1.0
123	0x3f800000	1.0
124	0x3f800000	1.0
125	0x3f800000	1.0
126	0x3f800000	1.0
127	0x3f800000	1.0

bns.0.bias f4 [128]
0	0x00000000	0.0
1	0x00000000	0.0
2	0x00000000	0.0
3	0x00000000	0.0
4	0x00000000	0.0
5	0x00000000	0.0
6	0x00000000	0.0
7	0x00000000	0.0
8	0x00000000	0.0
9	0x00000000	0.0
10	0x00000000	0.0
11	0x00000000	0.0
12	0x00000000	0.0
13	0x00000000	0.0
14	0x00000000	0.0
15	0x00000000	0.0
16	0x00000000	0.0
17	0x00000000	0.0
18	0x00000000	0.0
19	0x00000000	0.0
20	0x00000000	0.0
21	0x00000000	0.0
22	0x00000000	0.0
23	0x00000000	0.0
24	0x00000000	0.0
25	0x00000000	0.0
26	0x00000000	0.0
27	0x00000000	0.0
28	0x00000000	0.0
29	0x00000000	0.0
30	0x00000000	0.0
31	0x00000000	0.0
32	0x00000000	0.0
33	0x00000000	0.0
34	0x00000000	0.0
35	0x00000000	0.0
36	0x00000000	0.0
37	0x00000000	0.0
38	0x00000000	0.0
39	0x00000000	0.0
40	0x00000000	0.0
41	0x00000000	0.0
42	0x00000000	0.0
43	0x00000000	0.0
44	0x00000000	0.0
45	0x00000000	0.0
46	0x00000000	0.0
47	0x00000000	0.0
48	0x00000000	0.0
49	0x00000000	0.0
50	0x00000000	0.0
51	0x00000000	0.0
52	0x00000000	0.0
53	0x00000000	0.0
54	0x00000000	0.0
55	0x00000000	0.0
56	0x00000000	0.0
57	0x00000000	0.0
58	0x00000000	0.0
59	0x00000000	0.0
60	0x00000000	0.0
61	0x00000000	0.0
62	0x00000000	0.0
63	0x00000000	0.0
64	0x00000000	0.0
65	0x00000000	0.0
66	0x00000000	0.0
67	0x00000000	0.0
68	0x00000000	0.0
69	0x00000000	0.0
70	0x00000000	0.0
71	0x00000000	0.0
72	0x00000000	0.0
73	0x00000000	0.0
74	0x00000000	0.0
75	0x00000000	0.0
76	0x00000000	0.0
77	0x00000000	0.0
78	0x00000000	0.0
79	0x00000000	0.0
80	0x00000000	0.0
81	0x00000000	0.0
82	0x00000000	0.0
83	0x00000000	0.0
84	0x00000000	0.0
85	0x00000000	0.0
86	0x00000000	0.0
87	0x00000000	0.0
88	0x00000000	0.0
89	0x00000000	0.0
90	0x00000000	0.0
91	0x00000000	0.0
92	0x00000000	0.0
93	0x00000000	0.0
94	0x00000000	0.0
95	0x00000000	0.0
96	0x00000000	0.0
97	0x00000000	0.0
98	0x00000000	0.0
99	0x00000000	0.0
100	0x00000000	0.0
101	0x00000000	0.0
102	0x00000000	0.0
103	0x00000000	0.0
104	0x00000000	0.0
105	0x00000000	0.0
106	0x00000000	0.0
107	0x00000000	0.0
108	0x00000000	0.0
109	0x00000000	0.0
110	0x00000000	0.0
111	0x00000000	0.0
112	0x00000000	0.0
113	0x00000000	0.0
114	0x00000000	0.0
115	0x00000000	0.0
116	0x00000000	0.0
117	0x00000000	0.0
118	0x00000000	0.0
119	0x00000000	0.0
120	0x00000000	0.0
121	0x00000000	0.0
122	0x00000000	0.0
123	0x00000000	0.0
124	0x00000000	0.0
125	0x00000000	0.0
126	0x00000000	0.0
127	0x00000000	0.0

bns.0.running_mean f4 [128]
0	0xbe2a7ff5	-0.16650374
1	0x3e8e1311	0.27748922
2	0x3e9c7c17	0.30563423
3	0xbe3a1ec5	-0.181758
4	0xbe774a0c	-0.2414934
5	0x3ea079ac	0.31342828
6	0x3e455bd2	0.19273308
7	0xbe8ae206	-0.27125567
8	0x3e016f3e	0.12640092
9	0xbde49ebc	-0.11163089
10	0xbe54b751	-0.20773055
11	0x3e4e4116	0.20142016
12	0x3c485ff1	0.012229905
13	0xbe0cd722	-0.13753942
14	0x3d116c48	0.035503656
15	0x3e843ecf	0.2582917
16	0xbe3ed7b7	-0.18636976
17	0x3d7a3334	0.061083987
18	0x3df09f98	0.1174919
19	0xbc6b0b02	-0.014345886
20	0xbdc78930	-0.09742963
21	0xbe433339	-0.19062509
22	0xbc5be4ad	-0.01342122
23	0xbe2f4af9	-0.17118444
24	0xbe22dded	-0.1590497
25	0xbe9ad18d	-0.30238
26	0xbdfbb9d1	-0.12291301
27	0x3e2b912e	0.167546
28	0x3e8432c6	0.25819987
29	0x3e928f36	0.28624886
30	0xbda43cb5	-0.080193914
31	0xbe8b3784	-0.27190793
32	0x3dd24e8b	0.10268887
33	0x3e2d2985	0.1691037
34	0xbe489355	-0.19587453
35	0xbea15619	-0.31511
36	0xbe7af17a	-0.24506178
37	0xbe3868c1	-0.1800871
38	0x3e97a0eb	0.29614958
39	0xbb2eac15	-0.0026652862
40	0xbc80ff64	-0.01574678
41	0xbc374c57	-0.011187634
42	0x3df2ed1a	0.1186163
43	0x3e46efae	0.19427368
44	0xbd8e590b	-0.06950577
45	0xbdf3481b	-0.118789874
46	0xbce396fc	-0.027781956
47	0x3d646b18	0.055766195
48	0x3e0f637f	0.14002798
49	0x3cb275f5	0.021784762
50	0xbe2c6c50	-0.16838193
51	0x3e6864cf	0.22694705
52	0xbe8ce4cb	-0.27518305
53	0x3e8d2756	0.27569073
54	0x3d03cf5d	0.03218018
55	0x3e670fa1	0.22564556
56	0x3df0eb59	0.11763639
57	0x3e4d59bc	0.20053762
58	0x3e4c1822	0.19931081
59	0x3e89b895	0.26898637
60	0xbe70809c	-0.2348656
61	0xbd3b7d5d	-0.045773853
62	0xbe947879	-0.28998163
63	0xbe12382f	-0.14279245
64	0x3ce52649	0.027972357
65	0xbe2916d0	-0.16512609
66	0xbe9eaaec	-0.30989778
67	0xbe80683f	-0.25079533
68	0x3c7290c8	0.014805026
69	0xbe911145	-0.28333488
70	0x3e374131	0.17895962
71	0xbe82a83d	-0.2551898
72	0x3d178f72	0.037002034
73	0x3e24304e	0.16034052
74	0xbd179a7a	-0.037012555
75	0xbe84cd01	-0.25937656
76	0xbc3be52e	-0.011468215
77	0x3e9d3524	0.30704606
78	0x3c229293	0.009922641
79	0xbe5cbfac	-0.21557492
80	0x3daf031a	0.085455135
81	0x3e5c35e5	0.21504934
82	0x3e8287ef	0.25494334
83	0xbc04c9c7	-0.008104748
84	0xbd8fe7ba	-0.0702662
85	0xbe12d796	-0.14340052
86	0xbe221ecc	-0.1583206
87	0x3dbe5d2d	0.092951156
88	0xbe64d225	-0.22345789
89	0xbe954b58	-0.29159045
90	0xbddde14c	-0.108339876
91	0x3e9ab864	0.30218804
92	0x3e8a0b0d	0.26961556
93	0xbcdf4f9a	-0.027259637
94	0x3e6effc3	0.23339753
95	0x3e2d0ab2	0.16898611
96	0xbe1c2074	-0.15246755
97	0x3ddf35da	0.10898943
98	0x3e0611cd	0.13092728
99	0x3e983ac9	0.2973235
100	0x3e883d6a	0.26609355
101	0x3d1433a4	0.03618206
102	0xbd9f1279	-0.07767195
103	0xbe28e526	-0.16493663
104	0xbda69803	-0.08134463
105	0x3e72ed02	0.23723224
106	0x3d6fa38b	0.058505576
107	0x3dcf4e4e	0.10122357
108	0xbe97930e	-0.2960438
109	0x3e04a44d	0.12953301
110	0xbde4fcb1	-0.111810096
111	0xbe840bd5	-0.25790277
112	0xbe3f28dc	-0.1866793
113	0xbe721e96	-0.2364448
114	0xbb50859e	-0.0031817923
115	0x3e1a94b7	0.15095793
116	0x3e7f1f17	0.24914204
117	0xbe826fe0	-0.2547598
118	0xbe6b3710	-0.22970223
119	0xbdc1c764	-0.09461859
120	0x3dc17cc7	0.094476275
121	0xbe3e419e	-0.18579718
122	0xbd9fc3b2	-0.07800998
123	0x3e693279	0.2277316
124	0xbe028f6e	-0.12750027
125	0xbe03c2f6	-0.1286734
126	0xbe93c9d0	-0.28864908
127	0xbe7da5a6	-0.24770221

bns.0.running_var f4 [128]
0	0x3baf6380	0.0053524375
1	0x3bf2029e	0.007385566
2	0x3b97899f	0.00462456
3	0x3b530de9	0.0032204336
4	0x3bc907b8	0.0061349533
5	0x3c13400c	0.008987438
6	0x3bf95504	0.0076090116
7	0x3bcde48f	0.00628335
8	0x3c0c4cc4	0.008563224
9	0x3b9ed5a8	0.004847247
10	0x3be8ecfa	0.007108328
11	0x3b4ca456	0.0031225882
12	0x3b84656e	0.0040404117
13	0x3b894d5e	0.004190131
14	0x3bec14a0	0.007204607
15	0x3b55b8c9	0.0032611361
16	0x3bf0f12e	0.0073529696
17	0x3bc89f6b	0.0061225197
18	0x3be1b49d	0.006887986
19	0x3bd35e53	0.0064504533
20	0x3bf2c091	0.0074082096
21	0x3bb9c0d5	0.0056687393
22	0x3b35dc20	0.0027749613
23	0x3b4b100d	0.0030984909
24	0x3be1cdea	0.006891002
25	0x3b7f584e	0.0038962546
26	0x3be5b7c2	0.007010431
27	0x3b9fbea0	0.004875019
28	0x3bcef1ce	0.0063154465
29	0x3bc4ac75	0.006002004
30	0x3bfb174a	0.0076626884
31	0x3bf6b107	0.0075284275
32	0x3bd01ea1	0.0063513075
33	0x3bdf6b2d	0.0068181963
34	0x3bd6aba0	0.006551221
35	0x3bc6505b	0.0060520596
36	0x3c07afef	0.008281692
37	0x3be37084	0.006940903
38	0x3bdf1c2f	0.0068087797
39	0x3ba1eb45	0.0049413764
40	0x3c05f8b2	0.008176969
41	0x3c090db0	0.00836508
42	0x3bb2035e	0.0054325303
43	0x3c0f873d	0.008760271
44	0x3b9cddf7	0.0047872025
45	0x3bbe7f03	0.005813481
46	0x3b8b20f5	0.004245872
47	0x3bc0c7ba	0.0058831843
48	0x3beedb96	0.0072893603
49	0x3ba4812d	0.0050202818
50	0x3b9e856f	0.004837684
51	0x3bb2fca3	0.0054622456
52	0x3b904f91	0.0044040163
53	0x3b80bc6a	0.0039287107
54	0x3b7cae75	0.0038556133
55	0x3bafc20a	0.0053637074
56	0x3ba5b8d9	0.005057436
57	0x3bd9abc9	0.006642793
58	0x3bc51e6c	0.0060155895
59	0x3c0a75c0	0.008450925
60	0x3ba18104	0.00492871
61	0x3b8c752d	0.0042864294
62	0x3bb1e0a1	0.005428389
63	0x3b9261f7	0.0044672447
64	0x3bef02d6	0.0072940392
65	0x3b9e9a24	0.0048401523
66	0x3bdad65d	0.006678386
67	0x3b64658a	0.003485056
68	0x3bf98fbb	0.007616011
69	0x3b876c81	0.0041328077
70	0x3c032067	0.008003331
71	0x3bc0cc8a	0.005883758
72	0x3bb59f31	0.0055426587
73	0x3bc6dbdb	0.0060686893
74	0x3bbfe0e9	0.005855669
75	0x3bbae6f3	0.005703801
76	0x3b8d1869	0.0043058884
77	0x3b94d54e	0.0045420295
78	0x3b860c15	0.0040907958
79	0x3bc3b7bd	0.005972831
80	0x3bc8f96d	0.0061332495
81	0x3c180ad7	0.009279928
82	0x3b995d3c	0.004680304
83	0x3bfcdc01	0.007716656
84	0x3bc87037	0.0061168927
85	0x3bb0c94e	0.005395091
86	0x3b96d8a7	0.0046034637
87	0x3baef8fa	0.005339739
88	0x3bca8cd3	0.0061813383
89	0x3bbabeab	0.005698999
90	0x3bd0ed84	0.0063759703
91	0x3bcb8e20	0.006212011
92	0x3bc5d067	0.0060368064
93	0x3bbcd87c	0.0057631116
94	0x3beb3ea7	0.0071790996
95	0x3ba5a272	0.0050547654
96	0x3ba85f56	0.005138318
97	0x3bff9159	0.007799309
98	0x3bf470a5	0.0074597173
99	0x3bbf31b7	0.005834784
100	0x3bd797e8	0.006579388
101	0x3b4ffe3e	0.0031737234
102	0x3ba0d802	0.0049085626
103	0x3b9c6564	0.004772829
104	0x3bef09e0	0.0072948784
105	0x3bd8205e	0.0065956553
106	0x3c0326df	0.008004873
107	0x3c15edf3	0.00915097
108	0x3ba65524	0.0050760675
109	0x3bcd2a47	0.0062611434
110	0x3bcc60d8	0.0062371306
111	0x3bdbbb0d	0.006705648
112	0x3b8db0ab	0.004324039
113	0x3bb86077	0.005626734
114	0x3b912d25	0.0044304305
115	0x3be0d5bd	0.006861417
116	0x3b8bde68	0.0042684563
117	0x3b908b46	0.004411134
118	0x3bb614ac	0.0055566635
119	0x3bc3fde2	0.005981193
120	0x3bef9a85	0.0073121213
121	0x3bcf7060	0.006330535
122	0x3b62ffa3	0.0034637235
123	0x3bc426c6	0.0059860675
124	0x3bd94c41	0.0066314046
125	0x3c0e0936	0.008669188
126	0x3ba5b209	0.005056624
127	0x3ba6a6ec	0.0050858166

bns.1.weight f4 [128]
0	0x3f800000	1.0
1	0x3f800000	1.0
2	0x3f800000	1.0
3	0x3f800000	1.0
4	0x3f800000	1.0
5	0x3f800000	1.0
6	0x3f800000	1.0
7	0x3f800000	1.0
8	0x3f800000	1.0
9	0x3f800000	1.0
10	0x3f800000	1.0
11	0x3f800000	1.0
12	0x3f800000	1.0
13	0x3f800000	1.0
14	0x3f800000	1.0
15	0x3f800000	1.0
16	0x3f800000	1.0
17	0x3f800000	1.0
18	0x3f800000	1.0
19	0x3f800000	1.0
20	0x3f800000	1.0
21	0x3f800000	1.0
22	0x3f800000	1.0
23	0x3f800000	1.0
24	0x3f800000	1.0
25	0x3f800000	1.0
26	0x3f800000	1.0
27	0x3f800000	1.0
28	0x3f800000	1.0
29	0x3f800000	1.0
30	0x3f800000	1.0
31	0x3f800000	1.0
32	0x3f800000	1.0
33	0x3f800000	1.0
34	0x3f800000	1.0
35	0x3f800000	1.0
36	0x3f800000	1.0
37	0x3f800000	1.0
38	0x3f800000	1.0
39	0x3f800000	1.0
40	0x3f800000	1.0
41	0x3f800000	1.0
42	0x3f800000	1.0
43	0x3f800000	1.0
44	0x3f800000	1.0
45	0x3f800000	1.0
46	0x3f800000	1.0
47	0x3f800000	1.0
48	0x3f800000	1.0
49	0x3f800000	1.0
50	0x3f800000	1.0
51	0x3f800000	1.0
52	0x3f800000	1.0
53	0x3f800000	1.0
54	0x3f800000	1.0
55	0x3f800000	1.0
56	0x3f800000	1.0
57	0x3f800000	1.0
58	0x3f800000	1.0
59	0x3f800000	1.0
60	0x3f800000	1.0
61	0x3f800000	1.0
62	0x3f800000	1.0
63	0x3f800000	1.0
64	0x3f800000	1.0
65	0x3f800000	1.0
66	0x3f800000	1.0
67	0x3f800000	1.0
68	0x3f800000	1.0
69	0x3f800000	1.0
70	0x3f800000	1.0
71	0x3f800000	1.0
72	0x3f800000	1.0
73	0x3f800000	1.0
74	0x3f800000	1.0
75	0x3f800000	1.0
76	0x3f800000	1.0
77	0x3f800000	1.0
78	0x3f800000	1.0
79	0x3f800000	1.0
80	0x3f800000	1.0
81	0x3f800000	1.0
82	0x3f800000	1.0
83	0x3f800000	1.0
84	0x3f800000	1.0
85	0x3f800000	1.0
86	0x3f800000	1.0
87	0x3f800000	1.0
88	0x3f800000	1.0
89	0x3f800000	1.0
90	0x3f800000	1.0
91	0x3f800000	1.0
92	0x3f800000	1.0
93	0x3f800000	1.0
94	0x3f800000	1.0
95	0x3f800000	1.0
96	0x3f800000	1.0
97	0x3f800000	1.0
98	0x3f800000	1.0
99	0x3f800000	1.0
100	0x3f800000	1.0
101	0x3f800000	1.0
102	0x3f800000	1.0
103	0x3f800000	1.0
104	0x3f800000	1.0
105	0x3f800000	1.0
106	0x3f800000	1.0
107	0x3f800000	1.0
108	0x3f800000	1.0
109	0x3f800000	1.0
110	0x3f800000	1.0
111	0x3f800000	1.0
112	0x3f800000	1.0
113	0x3f800000	1.0
114	0x3f800000	1.0
115	0x3f800000	1.0
116	0x3f800000	1.0
117	0x3f800000	1.0
118	0x3f800000	1.0
119	0x3f800000	1.0
120	0x3f800000	1.0
121	0x3f800000	1.0
122	0x3f800000	1.0
123	0x3f800000	1.0
124	0x3f800000	1.0
125	0x3f800000	1.0
126	0x3f800000	1.0
127	0x3f800000	1.0

bns.1.bias f4 [128]
0	0x00000000	0.0
1	0x00000000	0.0
2	0x00000000	0.0
3	0x00000000	0.0
4	0x00000000	0.0
5	0x00000000	0.0
6	0x00000000	0.0
7	0x00000000	0.0
8	0x00000000	0.0
9	0x00000000	0.0
10	0x00000000	0.0
11	0x00000000	0.0
12	0x00000000	0.0
13	0x00000000	0.0
14	0x00000000	0.0
15	0x00000000	0.0
16	0x00000000	0.0
17	0x00000000	0.0
18	0x00000000	0.0
19	0x00000000	0.0
20	0x00000000	0.0
21	0x00000000	0.0
22	0x00000000	0.0
23	0x00000000	0.0
24	0x00000000	0.0
25	0x00000000	0.0
26	0x00000000	0.0
27	0x00000000	0.0
28	0x00000000	0.0
29	0x00000000	0.0
30	0x00000000	0.0
31	0x00000000	0.0
32	0x00000000	0.0
33	0x00000000	0.0
34	0x00000000	0.0
35	0x00000000	0.0
36	0x00000000	0.0
37	0x00000000	0.0
38	0x00000000	0.0
39	0x00000000	0.0
40	0x00000000	0.0
41	0x00000000	0.0
42	0x00000000	0.0
43	0x00000000	0.0
44	0x00000000	0.0
45	0x00000000	0.0
46	0x00000000	0.0
47	0x00000000	0.0
48	0x00000000	0.0
49	0x00000000	0.0
50	0x00000000	0.0
51	0x00000000	0.0
52	0x00000000	0.0
53	0x00000000	0.0
54	0x00000000	0.0
55	0x00000000	0.0
56	0x00000000	0.0
57	0x00000000	0.0
58	0x00000000	0.0
59	0x00000000	0.0
60	0x00000000	0.0
61	0x00000000	0.0
62	0x00000000	0.0
63	0x00000000	0.0
64	0x00000000	0.0
65	0x00000000	0.0
66	0x00000000	0.0
67	0x00000000	0.0
68	0x00000000	0.0
69	0x00000000	0.0
70	0x00000000	0.0
71	0x00000000	0.0
72	0x00000000	0.0
73	0x00000000	0.0
74	0x00000000	0.0
75	0x00000000	0.0
76	0x00000000	0.0
77	0x00000000	0.0
78	0x00000000	0.0
79	0x00000000	0.0
80	0x00000000	0.0
81	0x00000000	0.0
82	0x00000000	0.0
83	0x00000000	0.0
84	0x00000000	0.0
85	0x00000000	0.0
86	0x00000000	0.0
87	0x00000000	0.0
88	0x00000000	0.0
89	0x00000000	0.0
90	0x00000000	0.0
91	0x00000000	0.0
92	0x00000000	0.0
93	0x00000000	0.0
94	0x00000000	0.0
95	0x00000000	0.0
96	0x00000000	0.0
97	0x00000000	0.0
98	0x00000000	0.0
99	0x00000000	0.0
100	0x00000000	0.0
101	0x00000000	0.0
102	0x00000000	0.0
103	0x00000000	0.0
104	0x00000000	0.0
105	0x00000000	0.0
106	0x00000000	0.0
107	0x00000000	0.0
108	0x00000000	0.0
109	0x00000000	0.0
110	0x00000000	0.0
111	0x00000000	0.0
112	0x00000000	0.0
113	0x00000000	0.0
114	0x00000000	0.0
115	0x00000000	0.0
116	0x00000000	0.0
117	0x00000000	0.0
118	0x00000000	0.0
119	0x00000000	0.0
120	0x00000000	0.0
121	0x00000000	0.0
122	0x00000000	0.0
123	0x00000000	0.0
124	0x00000000	0.0
125	0x00000000	0.0
126	0x00000000	0.0
127	0x00000000	0.0

bns.1.running_mean f4 [128]
0	0xbe52d86c	-0.20590371
1	0xbe81ac58	-0.253268
2	0xbd5aae55	-0.053388912
3	0x3e8fb5e2	0.28068453
4	0x3e278bf4	0.16361982
5	0xbe73f713	-0.2382472
6	0xbce60d99	-0.028082656
7	0x3cff35d3	0.031153595
8	0xbe6db436	-0.23213276
9	0x3d1f3c07	0.038875606
10	0xbd4b20bf	-0.049591776
11	0x3eee147c	0.46500003
12	0xbdf450fa	-0.119295076
13	0x3e560786	0.20901307
14	0xbe7d0720	-0.24709749
15	0xbe9a38f0	-0.30121565
16	0x3d50c1ea	0.05096618
17	0x3ea1ed05	0.31626144
18	0x3c22092a	0.00988988
19	0x3e4f771a	0.20260277
20	0x3d916b82	0.071005836
21	0xbe96dfd0	-0.2946763
22	0xbd2ad92d	-0.04171102
23	0x3e784dc7	0.2424842
24	0x3dd31a09	0.103077
25	0xbc3a70ec	-0.011379462
26	0xbe5eb823	-0.2174993
27	0xba5e2bd6	-0.000847516
28	0x3e0cbed1	0.13744666
29	0x3d42ae3c	0.047529444
30	0x3f0f69d8	0.5602088
31	0x3f0cee7e	0.5505141
32	0x3d596cbd	0.053082217
33	0x3e1c6df7	0.15276323
34	0xbdeb7578	-0.11497015
35	0xbe9523b9	-0.29128817
36	0xbe53a5e9	-0.20668758
37	0x3e2d296d	0.16910334
38	0xbe8b6f57	-0.27233383
39	0xbc8f6238	-0.017502889
40	0x3eee28e0	0.4651556
41	0xbf1a0984	-0.6017077
42	0xbde9a949	-0.11409242
43	0xbd38a2f7	-0.04507729
44	0xbe70b318	-0.23505819
45	0xbe3e5f75	-0.18591101
46	0x3e2a6c64	0.1664291
47	0x3d34cd6a	0.04414121
48	0xbe5f7b3a	-0.21824351
49	0xbdd933dd	-0.10605595
50	0x3d706952	0.05869419
51	0xbd04735e	-0.032336585
52	0xbdbee106	-0.093202636
53	0xbe42f2bc	-0.19037908
54	0xbe0d24c9	-0.13783564
55	0xbd9d4ff5	-0.07681266
56	0x3e08ea36	0.13370594
57	0xbd2c1d0b	-0.042019885
58	0xbdc1eee4	-0.09469393
59	0x3e33888e	0.1753256
60	0x3ead2443	0.33816728
61	0xbe12009e	-0.14258048
62	0xbdc3b819	-0.09556598
63	0x3de72bdc	0.112876624
64	0xbe7a4fe6	-0.24444541
65	0x3e3b39b7	0.18283735
66	0xbd7ce60a	-0.06174282
67	0xbe0f4c9d	-0.1399407
68	0xbe390c3b	-0.18071072
69	0xbea75c42	-0.32687575
70	0xbeaa3a32	-0.33247524
71	0x3db5fe66	0.08886413
72	0xbd80c411	-0.06287397
73	0xbe98fccc	-0.2988037
74	0x3e4e8c43	0.20170693
75	0xbda1acf1	-0.07894314
76	0x3d6771af	0.0565049
77	0x3bd5d696	0.006525825
78	0xbe582bf4	-0.21110517
79	0x3d9df358	0.0771243
80	0xbe52372c	-0.20528859
81	0x3e5dab3f	0.21647356
82	0x3e6c4dcc	0.23076552
83	0x3dfb2bee	0.12264238
84	0x3b1a7cd0	0.002357293
85	0x3d73f3b2	0.059558578
86	0xbd579e13	-0.052640986
87	0x3d89790c	0.06712541
88	0xbec0f6fe	-0.3768844
89	0x3e99b27c	0.30018985
90	0x3eb63ac8	0.35591722
91	0xbe8224e7	-0.2541878
92	0xbeac461e	-0.33647245
93	0x3c13fcbe	0.009032426
94	0x3dd45546	0.10367827
95	0x3e25d497	0.16194378
96	0xbe42b8fe	-0.19015881
97	0xbf0cd3fa	-0.5501095
98	0xbdcfde8b	-0.101498686
99	0xbe74fb78	-0.23924053
100	0x3e7f7dde	0.24950358
101	0x3d858aec	0.06520638
102	0x3db8346d	0.089943744
103	0xbd6417fd	-0.05568694
104	0x3d0ff221	0.03514302
105	0x3e0aa8d1	0.13540961
106	0x3c6c8d7c	0.014438029
107	0xbcab979f	-0.020946322
108	0xbe8e776e	-0.27825493
109	0x3e6d5538	0.2317704
110	0xbde4e9a7	-0.11177378
111	0xbf04b804	-0.51843286
112	0xbe0c49af	-0.13699983
113	0x3eb5c88b	0.35504565
114	0x3e2ecba7	0.17069875
115	0xbe08b561	-0.1335044
116	0xbf461b7b	-0.7738568
117	0x3db21588	0.08695513
118	0xbc9bce2d	-0.01901921
119	0x3e3a9df2	0.18224314
120	0x3e10f0a3	0.14154296
121	0xbee8b29e	-0.45448774
122	0xbe413351	-0.18867232
123	0x3e0f5e9e	0.14000937
124	0xbbf0c733	-0.007347965
125	0x3eb973f2	0.36221272
126	0x3e2e052b	0.16994159
127	0x3e1d9977	0.15390573

bns.1.running_var f4 [128]
0	0x3e077444	0.13227946
1	0x3d8b11f2	0.06790532
2	0x3e030a2f	0.12796853
3	0x3d8e81a8	0.06958324
4	0x3e559556	0.20857748
5	0x3e596cc9	0.21232904
6	0x3decb1de	0.11557363
7	0x3e133eab	0.14379375
8	0x3da38fa0	0.07986379
9	0x3dd587a0	0.10426259
10	0x3e11e039	0.1424569
11	0x3dec929c	0.11551401
12	0x3d8dac57	0.06917637
13	0x3e05427c	0.13013643
14	0x3e7133e1	0.23554946
15	0x3d952a32	0.07283439
16	0x3dc719ba	0.09721704
17	0x3d8a10c9	0.06741483
18	0x3da0539a	0.07828446
19	0x3e036ab0	0.12833667
20	0x3def0297	0.11670416
21	0x3dfc4a45	0.12318853
22	0x3e0d41c7	0.13794623
23	0x3e0b0f05	0.13579948
24	0x3dd512bd	0.10403965
25	0x3d311c45	0.04323985
26	0x3dc01ecd	0.09380875
27	0x3e4497c8	0.19198525
28	0x3e3049e1	0.17215683
29	0x3dd18959	0.10231275
30	0x3df722b6	0.120671675
31	0x3def83e0	0.11695075
32	0x3d91280d	0.07087717
33	0x3dad05df	0.084483854
34	0x3dfb4d4b	0.12270602
35	0x3da176f5	0.078840174
36	0x3da6338a	0.08115299
37	0x3dbd3bd8	0.0923993
38	0x3dc800c8	0.09765774
39	0x3e18cc10	0.14921594
40	0x3dbc5bd6	0.09197204
41	0x3e3999a6	0.18125018
42	0x3d9dd572	0.07706727
43	0x3e1541f0	0.14575934
44	0x3e072e10	0.13201165
45	0x3db07431	0.08615912
46	0x3dd60bff	0.10451507
47	0x3da079d1	0.07835735
48	0x3df647a5	0.12025384
49	0x3df82706	0.12116818
50	0x3dad7e91	0.08471406
51	0x3da85273	0.08218851
52	0x3da933d9	0.08261842
53	0x3e016e69	0.12639774
54	0x3e261ee6	0.16222724
55	0x3e1a13ed	0.15046664
56	0x3e66247a	0.22474852
57	0x3e018e71	0.12651993
58	0x3e1bfa9a	0.15232316
59	0x3e023314	0.12714797
60	0x3dda7d35	0.106684126
61	0x3d9b5fa3	0.07586601
62	0x3dbebe61	0.09313656
63	0x3e01dd40	0.12682056
64	0x3daff8b4	0.08592358
65	0x3e282535	0.16420443
66	0x3d8e1ec9	0.069394656
67	0x3dd6392f	0.10460126
68	0x3dc2d62e	0.09513508
69	0x3d878824	0.06617764
70	0x3dd18be3	0.102317594
71	0x3dd95b29	0.106130905
72	0x3e034e60	0.12822866
73	0x3dd77435	0.105202116
74	0x3dbfb6d6	0.09361045
75	0x3e438f15	0.1909755
76	0x3d6c88f1	0.057747785
77	0x3e0a4588	0.13503087
78	0x3d5eeeb6	0.05442687
79	0x3d8c9af5	0.06865493
80	0x3d89ac0a	0.06722267
81	0x3ddc8133	0.1076683
82	0x3d58d33d	0.052935828
83	0x3d9cb669	0.076519795
84	0x3dde7b5c	0.10863373
85	0x3ddcdfed	0.10784898
86	0x3de7998d	0.11308584
87	0x3dd7736b	0.10520061
88	0x3e8c8c3e	0.27450746
89	0x3ddd66d0	0.108106256
90	0x3e28c67d	0.16481967
91	0x3e01f254	0.12690097
92	0x3d90b0a5	0.07064942
93	0x3dd529d1	0.104083665
94	0x3dc13e1e	0.09435676
95	0x3dac2579	0.08405585
96	0x3e10c9f3	0.14139538
97	0x3e7846d2	0.24245766
98	0x3dd8c83c	0.10585067
99	0x3da16c23	0.078819536
100	0x3dbf2f0f	0.093351476
101	0x3dd6a19c	0.10480043
102	0x3dcb42e1	0.099248655
103	0x3d4791bb	0.048722964
104	0x3de26821	0.11055017
105	0x3de3a8e7	0.111162
106	0x3e0707fc	0.1318664
107	0x3e337ed2	0.17528847
108	0x3da87fb2	0.08227481
109	0x3dcf3bcb	0.101188265
110	0x3db1883e	0.08668564
111	0x3de2dcce	0.110772714
112	0x3dd8f700	0.105939865
113	0x3de366ca	0.1110359
114	0x3daf3f5a	0.08557005
115	0x3dda7a56	0.10667865
116	0x3e1f1edc	0.15539116
117	0x3e0dc336	0.13843998
118	0x3d3cb7c0	0.046073675
119	0x3dfc00cc	0.123048395
120	0x3d85625e	0.06512903
121	0x3df51698	0.119672
122	0x3de23426	0.11045103
123	0x3e27e235	0.16394885
124	0x3dd60094	0.10449329
125	0x3d8f6134	0.07000962
126	0x3e1d2239	0.15345086
127	0x3e17a6d6	0.14809737
