saved_data/pge_mlp_distilled.pt (torch, 82255 bytes, 13 tensors)

layers.0.weight f4 [128, 10]
0.21836945 0.20144846 -0.1383127 0.18848093 -0.24811462 0.17210987 -0.26118702 -0.21052514
0.10926683 0.19371392 0.12772584 0.24693061 -0.26877725 0.17199244 -0.21269597 0.18135472
0.10748024 -0.18263197 0.044309806 -0.12996441 -0.25965095 0.27208292 0.124177314 0.24228239
0.24301454 -0.3032922 -0.28431636 -0.27582023 -0.025177114 -0.16808029 0.10981698 -0.19325699
0.10434616 -0.13278376 0.28122494 -0.29465798 -0.050254066 -0.06907342 0.26756346 -0.0070615313
-0.09026163 -0.08006919 -0.022069689 0.19772099 -0.048671946 0.18376787 0.018477853 -0.2819609
-0.0021028677 0.27039692 0.11746565 -0.0018046822 0.01080834 0.031469505 0.07192307 0.0017562412
0.13783044 -0.28366333 0.03999882 0.10086863 0.21307883 0.18379742 -0.26481602 0.17449728
-0.16558711 0.14428562 0.18077424 -0.034138173 0.082408115 0.099011846 -0.2310798 0.071073785
-0.10700492 0.1642136 0.061577275 -0.2827425 -0.19111593 -0.13391434 -0.13720286 0.00588236
0.22133128 -0.16633834 -0.2778652 0.050001606 0.270273 0.14638384 -0.28216556 0.0024079897
-0.15307273 -0.1363835 -0.15112168 -0.041532874 -0.11827629 -0.0071424674 0.05288017 0.16987234
-0.041087404 -0.21728678 -0.17162617 -0.23180291 0.023003563 0.19667338 -0.26891512 0.12787771
-0.16742526 -0.28942385 -0.25313315 -0.04886341 0.22877009 0.1257842 -0.16448098 -0.14846021
-0.017033406 0.041910827 0.1661279 -0.0125328405 -0.14158784 0.19164452 -0.17160268 -0.09975988
-0.088890426 -0.27958512 0.27965438 0.07677037 -0.15592031 -0.014837728 -0.0070994548 0.2925365
-0.084354356 -0.012020497 -0.27643353 -0.22222188 -0.16336496 -0.12140807 0.102191575 -0.14244297
0.1004535 -0.3162275 0.14119402 -0.16567218 -0.31281382 -0.1123539 -0.09412568 -0.18720277
0.26747298 0.09114816 -0.17522354 -0.03458617 -0.231482 0.21053626 0.26605693 0.026292954
0.29379678 -0.15732145 0.12907551 -0.1601155 -0.002238201 -0.109862074 0.05800214 -0.18686584
-0.08828818 0.07419256 -0.30219927 0.3047914 0.015875911 -0.2735333 -0.17980558 0.27817777
0.21054685 -0.22420526 0.25899768 -0.22835244 0.21721248 0.046702527 0.11417498 -0.12999807
-0.11977046 -0.01142552 -0.083266824 0.228775 -0.06485652 -0.22772188 -0.29273835 -0.025197847
0.1643483 0.3097 0.14859094 0.08956619 0.065097034 0.12622108 -0.23019472 0.13171288
-0.28522113 -0.04309644 -0.03959082 0.1897508 -0.15714408 -0.229044 0.26612496 -0.2796362
0.05357806 0.24183872 0.18975763 0.2794537 -0.0920685 -0.1152973 0.20161816 0.19910195
0.11068726 0.055836506 -0.046810567 -0.25817168 -0.1211866 0.10044781 -0.033947766 0.05999987
0.012186327 -0.17150581 -0.17832878 0.05248356 -0.16486317 -0.014566345 0.14690056 0.09256995
0.040864952 -0.2700238 0.1829325 0.11475457 0.25002843 0.0014598651 -0.21483156 -0.19913453
0.26972044 0.25001845 0.014262354 0.22677734 0.07814022 0.27701283 -0.29898992 -0.19164377
-0.16163635 -0.028908806 -0.21160962 0.15650666 0.20249306 0.059949882 0.19559713 -0.27264208
0.09836029 0.121498846 0.23518033 -0.18101785 -0.021103017 -0.23156154 0.016936222 0.23777167
00000000: 3e9c 5f3e 8148 4e3e d8a1 0dbe 2501 413e
00000010: c211 7ebe 923d 303e 4eba 85be e793 57be
00000020: 4ac7 df3d f15c 463e 90ca 023e 61db 7c3e
00000030: 2c9d 89be c91e 303e f9cc 59be 0db5 393e
00000040: 9a1e dc3d e003 3bbe 337e 353d 6415 05be
00000050: f8f0 84be 744e 8b3e ad50 fe3d e018 783e
00000060: ced8 783e 1e49 9bbe ea91 91be 4f38 8dbe
00000070: 3c40 cebc 3d1d 2cbe bae7 e03d 29e5 45be
00000080: 71b3 d53d 77f8 07be b7fc 8f3e 69dd 96be
00000090: 35d7 4dbd 5d76 8dbd 14fe 883e 6b64 e7bb
000000a0: 17db b8bd 51fb a3bd 7ecb b4bc 5f77 4a3e
000000b0: 3c5c 47bd a52d 3c3e de5e 973c 2e5d 90be
000000c0: 44d0 09bb 7771 8a3e d591 f03d 168b ecba
000000d0: 7715 313c 2be6 003d 674c 933d ad31 e63a
000000e0: 6c23 0d3e 523c 91be cdd5 233d 3694 ce3d
000000f0: 5631 5a3e 6435 3c3e f795 87be 6aaf 323e
00000100: ab8f 29be 9cbf 133e e21c 393e 78d4 0bbd
00000110: 96c5 a83d b9c6 ca3d 2fa0 6cbe 228f 913d
00000120: 6525 dbbd 9c27 283e 7438 7c3d a0c3 90be
00000130: e5b3 43be d720 09be e87e 0cbe d0c0 c03b
00000140: aba4 623e 9954 2abe 5944 8ebe 7cce 4c3d
00000150: 3961 8a3e a5e5 153e 0178 90be 5dcf 1d3b
00000160: 19bf 1cbe 1ea8 0bbe a4bf 1abe 601e 2abd
00000170: d73a f2bd 5c0b eabb e198 583d 04f3 2d3e
00000180: 444b 28bd 6d80 5ebe c5be 2fbe be5d 6dbe
00000190: f871 bc3c bf64 493e 3eaf 89be 60f2 023e
000001a0: 8771 2bbe 5d2f 94be ab9a 81be 0025 48bd
000001b0: b542 6a3e 93cd 003e b46d 28be f405 18be
000001c0: a489 8bbc b0aa 2b3d 6f1d 2a3e 8b56 4dbc
000001d0: 67fc 10be 763e 443e 9db8 2fbe e84e ccbd
000001e0: 2f0c b6bd c825 8fbe dc2e 8f3e c939 9d3d
000001f0: 93a9 1fbe f119 73bc 8ba2 e8bb 58c7 953e
00000200: fac1 acbd 9ef1 44bc b288 8dbe 228e 63be
00000210: 2549 27be cba4 f8bd d149 d13d 92dc 11be
00000220: 91ba cd3d 92e8 a1be 2a95 103e f8a5 29be
00000230: 2229 a0be cd19 e6bd f7c4 c0bd 15b2 3fbe
00000240: 38f2 883e e3ab ba3d cd6d 33be 3aaa 0dbd
00000250: 9e09 6dbe d196 573e 9d38 883e 5264 d73c
00000260: 886c 963e e018 21be 5f2c 043e 51f5 23be
00000270: c8ae 12bb 5eff e0bd a793 6d3d c259 3fbe
00000280: 6fd0 b4bd 45f2 973d ddb9 9abe 9e0d 9c3e
00000290: 330e 823c 8f0c 8cbe f41e 38be 516d 8e3e
000002a0: 9899 573e 1096 65be 589b 843e 39d5 69be
000002b0: f36c 5e3e 264b 3f3d 92d4 e93d 371e 05be
000002c0: 374a f5bd 1b32 3bbc cc87 aabd fe43 6a3e
000002d0: 7fd3 84bd ed2f 69be cde1 95be b76b cebc
000002e0: ec4a 283e 0091 9e3e 3928 183e 7b6e b73d
000002f0: 9851 853d 1940 013e 2ab8 6bbe bedf 063e
00000300: 8108 92be e585 30bd fc29 22bd 094e 423e
00000310: 61ea 20be 838a 6abe 8841 883e 7a2c 8fbe
00000320: ab74 5b3d 92a4 773e d34f 423e 8e14 8f3e
00000330: 698e bcbd fe20 ecbd fe74 4e3e 62e1 4b3e
00000340: 01b0 e23d d2b4 643d 70bc 3fbd 142f 84be
00000350: ae30 f8bd 95b7 cd3d d00c 0bbd 6cc2 753d
00000360: 29a9 473c 389f 2fbe d29b 36be 00f9 563d
00000370: e4d1 28be aea7 6ebc 1a6d 163e 5095 bd3d
00000380: 0262 273d 8f40 8abe a852 3b3e 7204 eb3d
00000390: ba03 803e f258 bf3a cefc 5bbe ece9 4bbe
000003a0: cc18 8a3e 6b02 803e a6ac 693c 5238 683e
000003b0: fb07 a03d a0d4 8d3e 3515 99be 443e 44be
000003c0: 0084 25be 29d2 ecbc 31b0 58be 4843 203e
000003d0: 575a 4f3e 028e 753d 9d4a 483e be97 8bbe
000003e0: 1f71 c93d 63d4 f83d 1dd3 703e be5c 39be
000003f0: 3ce0 acbc 781e 6dbe d5bd 8a3c 6b7a 733e

layers.0.bias f4 [128]
0.2424446 -0.0026790707 0.14835541 0.17329583 -0.2937905 0.117636345 0.09357541 -0.065858066
-0.18840934 0.16915266 -0.31095803 -0.11098232 0.11233486 -0.065131076 -0.06321763 0.17866908
-0.19136791 0.1424113 -0.065860555 -0.17317338 0.1292856 0.0031981247 -0.074008256 0.23758632
0.07865995 -0.2789395 0.15521948 -0.14976382 0.22191337 -0.12004479 -0.16350165 0.2039698
0.21476138 -0.1270673 -0.13770853 -0.1544459 -0.2573079 -0.1511622 -0.005260468 0.11580248
0.050464604 -0.043702126 -0.10537093 -0.24756807 0.066471286 -0.09672498 0.20669985 0.02505848
-0.06912073 -0.19549693 0.01290544 -0.20402545 -0.27705893 -0.04867108 -0.1538 -0.1945113
0.07043007 -0.037026428 0.18399228 0.191407 0.21815088 0.18038152 0.19069049 -0.11045686
-0.20276067 0.14958611 0.007300042 0.3052427 0.096955046 0.2228739 0.094259694 -0.23222034
0.21125247 -0.056441773 -0.2707779 -0.10549375 -0.22249629 0.11319391 -0.15410617 -0.26689607
0.10236732 -0.29834035 0.030066075 -0.061604604 0.20039754 0.020711567 0.055086706 0.08885239
0.03978323 -0.25249726 -0.12193026 -0.15619226 -0.13287261 -0.02649682 0.15231563 -0.11186843
-0.14600913 0.0052190386 0.12323002 0.023428977 0.20880203 0.12372073 -0.1745389 0.14714235
-0.18094574 -0.033768777 0.0062343017 -0.11135379 -0.02615385 0.1933886 0.013849154 0.1602866
-0.30047813 0.31133658 0.05853186 -0.13748272 0.30898672 -0.022291726 0.09574719 -0.04626735
-0.037502732 -0.0090022255 0.27936912 0.0013227601 -0.25884643 0.039802004 -0.050980944 0.03750522
00000000: 6643 783e 5993 2fbb 7bea 173e 7674 313e
00000010: b56b 96be 53eb f03d 77a4 bf3d 98e0 86bd
00000020: 61ee 40be 5b36 2d3e e435 9fbe b34a e3bd
00000030: d20f e63d 7163 85bd 3f78 81bd 07f5 363e
00000040: f3f5 43be 45d4 113e e6e1 86bd 5d54 31be
00000050: 7263 043e a197 513b a491 97bd d449 733e
00000060: 7818 a13d 28d1 8ebe dbf1 1e3e b05b 19be
00000070: 423d 633e 0bda f5bd fa6c 27be 76dd 503e
00000080: 68ea 5b3e ee1d 02be 7703 0dbe 1127 1ebe
00000090: dcbd 83be 44ca 1abe 0160 acbb da29 ed3d
000000a0: f9b3 4e3d 0001 33bd b7cc d7bd 7c82 7dbe
000000b0: 1922 883d bf17 c6bd 20a9 533e 7147 cd3c
000000c0: 2b8f 8dbd 5930 48be 5771 533c 0cec 50be
000000d0: abda 8dbe 545b 47bd bf7d 1dbe f82d 47be
000000e0: a43d 903d 06a9 17bd 7968 3c3e 3200 443e
000000f0: f262 5f3e efb5 383e 5e44 433e 3537 e2bd
00000100: 7ea0 4fbe 1a2d 193e 3135 ef3b c548 9c3e
00000110: 5e90 c63d 0e39 643e 3a0b c13d 2bcb 6dbe
00000120: 9152 583e 7d2f 67bd 67a3 8abe 1b0d d8bd
00000130: 11d6 63be 35d2 e73d 02ce 1dbe 9aa6 88be
00000140: f5a5 d13d 11c0 98be 214d f63c 1c55 7cbd
00000150: 0335 4d3e 4eab a93c 99a2 613d 3ef8 b53d
00000160: bdf3 223d 5247 81be 92b6 f9bd ddf0 1fbe
00000170: c20f 08be dc0f d9bc a1f8 1b3e 471b e5bd
00000180: 6b83 15be 7804 ab3b 0560 fc3d 20ee bf3c
00000190: 33d0 553e 4b61 fd3d 53ba 32be 7cac 163e
000001a0: d749 39be 2151 0abd 1d49 cc3b 750d e4bd
000001b0: 9940 d6bc a907 463e 90e7 623c 2c22 243e
000001c0: 45d8 99be 8267 9f3e 1bbf 6f3d 45c8 0cbe
000001d0: 8233 9e3e 239d b6bc 1a17 c43d d582 3dbd
000001e0: 779c 19bd 127e 13bc 7809 8f3e 7760 ad3a
000001f0: 8587 84be 6d07 233d 65d1 50bd 139f 193d

layers.1.weight f4 [128, 128]
-0.011279297 -0.0073034693 0.022368375 -0.08242793 -0.046766333 -0.05034889 0.023621116 0.08076297
0.02991952 -0.024151502 -0.0870428 -0.010540116 0.013838369 0.083409004 0.04005708 0.029329602
0.027166499 -0.08275713 -0.08605351 -0.019536065 -0.013257081 -0.04730676 -0.0047561666 0.07247812
0.061351795 0.063795164 0.0009862678 0.0045178365 0.06307458 -0.08635077 -0.044649146 0.048965428
-0.052841894 0.046796985 -0.08418795 0.03472972 -0.06147398 0.04258094 -0.07362793 -0.075002916
0.062958635 -0.05727961 -0.01751072 0.007568973 0.073017456 -0.03244358 -0.06533759 -0.040634092
-0.080945045 0.045885473 -0.046000175 -0.03052851 0.03172412 0.07812707 0.07847381 0.0759382
-0.025716921 0.05050242 -0.08731489 0.011861398 0.06455787 0.05938161 0.022606168 0.07086733
-0.07582407 -0.023946743 0.044490088 -0.06424391 0.045331284 0.049626227 0.08262321 0.042528972
-0.019537825 -0.0033008885 0.053007446 -0.003908646 0.063257664 -0.042613752 -0.06680574 0.07202829
0.054187253 -0.075265795 -0.06619983 -0.05793118 0.025539936 0.062775314 -0.0420252 -0.086150624
-0.027949924 -0.010099997 0.0023228603 -0.03877861 0.06975323 0.04563317 -0.078049675 -0.040436223
0.05003051 -0.07534041 0.020023346 0.038496666 0.031740464 0.032793798 -0.06221464 0.014236278
-0.081957124 0.026325352 0.08387714 -0.05617588 -0.04696323 -0.011995668 -0.06784789 0.04105931
-0.012320925 0.053932056 0.08120505 0.020503588 -0.028424403 -0.0017557323 -0.056823824 0.070756115
-0.058203407 0.05930132 0.08494365 0.008534041 0.040755264 0.084197275 -0.0083931545 0.061582033
-0.0018459054 -0.081798404 0.07054662 -0.04273803 -0.084821746 0.06648147 0.06440682 0.022325743
0.061298534 0.005647593 -0.009986822 0.0100297695 0.07397145 -0.021084424 -0.01639702 0.07202138
0.056708448 0.057087 0.00065478287 0.020246882 0.047612797 -0.04850961 -0.07218017 -0.063078076
0.034475975 0.027202925 0.043903634 0.04212927 0.006915402 0.04631692 0.030890489 -0.06993513
0.018099047 -0.010165472 -0.026816659 0.06124386 0.067519575 0.08745494 0.016400076 -0.03200149
-0.0036980382 -0.075977944 0.0702556 -0.0112062255 -0.0662652 0.08385188 0.028219707 0.026990157
-0.020597596 0.004092343 0.078769624 -0.053733647 -0.07103025 -0.00064630085 0.08200619 0.08570195
0.06238252 -0.07912155 0.08639419 -0.08116221 0.012473106 -0.057376537 -0.05208889 0.07834288
0.05540256 0.04292331 -0.08499897 -0.04355451 0.022898603 -0.0015012391 -0.01945704 0.06615835
-0.046723973 0.056750603 0.010581672 0.06817996 0.01588148 0.06806815 0.071232095 -0.003297875
-0.025551748 -0.07260611 0.0043230653 0.067534536 -0.028739747 0.048701063 -0.07819415 -0.08085663
0.08831484 -0.015262891 -0.001332146 0.012475783 -0.053161293 -0.054263454 0.075947195 -0.055154122
0.068411365 -0.017503006 0.0073731802 0.038718604 -0.01614847 -0.042469293 0.06665758 0.004308567
-0.079439424 0.031118061 0.02193871 -0.04906244 0.07071126 0.08617266 -0.018512497 -0.04277803
-0.07409651 0.0596694 -0.071227774 -0.062023208 -0.059053414 -0.034736432 -0.017165832 -0.03538329
0.02906864 0.05564466 -0.034650903 -0.054159585 0.07197011 0.05959051 -0.005771231 0.0666612
00000000: cdcc 38bc f151 efbb e23d b73c f9cf a8bd
00000010: 0e8e 3fbd a33a 4ebd 1281 c13c 0e67 a53d
00000020: c819 f53c 5fd9 c5bc 7f43 b2bd 73b0 2cbc
00000030: 54ba 623c 57d2 aa3d e512 243d a244 f03c
00000040: 478c de3c 927c a9bd d33c b0bd 190a a0bc
00000050: 3a34 59bc bcc4 41bd 9ed9 9bbb 696f 943d
00000060: 054c 7b3d 0aa7 823d a845 813a 5c0a 943b
00000070: 3f2d 813d acd8 b0bd 06e2 36bd f98f 483d
00000080: be70 58bd 32ae 3f3d bb6a acbd c040 0e3d
00000090: 24cc 7bbd 5a69 2e3d 3dca 96bd 219b 99bd
000000a0: 75f0 803d 069e 6abd a472 8fbc 2605 f83b
000000b0: 2d8a 953d 8fe3 04bd b7cf 85bd ef6f 26bd
000000c0: 84c6 a5bd 68f2 3b3d ae6a 3cbd ed16 fabc
000000d0: 27f1 013d 1601 a03d e0b6 a03d 7d85 9b3d
000000e0: 4bac d2bc a0db 4e3d 26d2 b2bd 4f56 423c
000000f0: eb36 843d 223a 733d 9230 b93c e422 913d
00000100: a649 9bbd f62b c4bc 3d3b 363d 5092 83bd
00000110: 4cad 393d df44 4b3d 5c36 a93d dc32 2e3d
00000120: ca0d a0bc b853 58bb 561e 593d 1914 80bb
00000130: 3c8d 813d c28b 2ebd 73d1 88bd 9183 933d
00000140: 74f3 5d3d f424 9abd c793 87bd 3f49 6dbd
00000150: 2139 d13c 5890 803d 9e22 2cbd bd6f b0bd
00000160: 3df7 e4bc 757a 25bc 213b 183b 52d6 1ebd
00000170: c8da 8e3d d9e9 3a3d 82d8 9fbd 74a0 25bd
00000180: cbec 4c3d 134c 9abd 0008 a43c aeae 1d3d
00000190: 4a02 023d ca52 063d c7d4 7ebd 473f 693c
000001a0: 23d9 a7bd 44a8 d73c c7c7 ab3d ae18 66bd
000001b0: 845c 40bd 7a89 44bc d6f3 8abd cf2d 283d
000001c0: b4dd 49bc dce7 5c3d d54e a63d 24f7 a73c
000001d0: 4bda e8bc 9a20 e6ba 19c0 68bd 95e8 903d
000001e0: b266 6ebd f1e5 723d f0f6 ad3d 5dd2 0b3c
000001f0: feee 263d 9f6f ac3d 7183 09bc 713d 7c3d
00000200: 4ff2 f1ba ec85 a7bd bf7a 903d 130e 2fbd
00000210: 06b7 adbd 7027 883d b9e7 833d 7ae4 b63c
00000220: 2c14 7b3d 720f b93b c49f 23bc e753 243c
00000230: 587e 973d 3eb9 acbc 0b53 86bc f27f 933d
00000240: 1e47 683d 0fd4 693d bca5 2b3a cadc a53c
00000250: a305 433d 03b2 46bd 32d3 93bd 142f 81bd
00000260: ae36 0d3d abd8 de3c 4cd4 333d be8f 2c3d
00000270: 999a e23b d0b6 3d3d 0d0e fd3c 263a 8fbd
00000280: 7444 943c 148d 26bc 9cae dbbc d7da 7a3d
00000290: b447 8a3d 931b b33d 7459 863c ff13 03bd
000002a0: c95a 72bb 539a 9bbd 2be2 8f3d 519a 37bc
000002b0: 0db6 87bd 89ba ab3d 042d e73c 761a dd3c
000002c0: 4abc a8bc 1019 863b f851 a13d d017 5cbd
000002d0: 4f78 91bd 846c 29ba ddf2 a73d 8184 af3d
000002e0: d084 7f3d 7b0a a2bd 70ef b03d 5f38 a6bd
000002f0: 005c 4c3c a903 6bbd 295b 55bd 3b72 a03d
00000300: cbed 623d 5ad0 2f3d f113 aebd 3766 32bd
00000310: da95 bb3c 3ac5 c4ba 5f64 9fbc 077e 873d
00000320: a361 3fbd 5273 683d c05e 2d3c efa1 8b3d
00000330: e119 823c 5067 8b3d 22e2 913d 2921 58bb
00000340: e651 d1bc 83b2 94bd 80a8 8d3b 8c4f 8a3d
00000350: 9e6f ebbc c47a 473d 4124 a0bd 2998 a5bd
00000360: 69de b43d 3411 7abc 679b aeba 3a67 4c3c
00000370: a8bf 59bd 5b43 5ebd 348a 9b3d 4ae9 61bd
00000380: 421b 8c3d 7762 8fbc b89a f13b 6697 1e3d
00000390: cc49 84bc 48f4 2dbd c583 883d e12e 8d3b
000003a0: 23b1 a2bd 4eeb fe3c cfb8 b33c b2f5 48bd
000003b0: 11d1 903d 4b7b b03d 85a7 97bc 0438 2fbd
000003c0: e9bf 97bd e767 743d dedf 91bd 0c0c 7ebd
000003d0: fee1 71bd ca47 0ebd 5c9f 8cbc 12ee 10bd
000003e0: 5b21 ee3c a8eb 633d 1bee 0dbd 71d6 5dbd
000003f0: 1165 933d 2e15 743d 981c bdbb ab85 883d

layers.1.bias f4 [128]
0.058330763 0.062636234 -0.067446716 0.01898236 0.07589593 -0.026202315 -0.011838955 -0.0026798758
-0.05206791 -0.01855867 0.053279158 0.03337884 0.036773313 -0.07817656 -0.033192854 -0.017482376
0.075154975 0.08792039 0.0128734065 -0.033441763 -0.053012494 -0.025960393 -0.025415624 -0.0004628356
-0.026851146 -0.035120264 0.050294854 0.0563852 -0.008890772 0.046229888 0.06432505 0.06616299
-0.06432139 0.07399239 0.045683518 0.04464469 0.027170977 0.05607912 0.083207384 -0.074017555
-0.021541875 -0.026780013 0.06621566 0.065767355 -0.08080793 0.02645935 0.021992762 -0.08707008
0.07341599 0.027011482 0.08629115 -0.087438665 0.08066739 -0.026666543 -0.06581029 0.015101268
0.07057984 -0.041737 0.061173823 -0.042622168 -0.0011020242 0.061813198 0.043265026 -0.043208506
-0.0488616 -0.05372922 0.077138804 0.0066263485 0.058907755 0.06867353 -0.022778254 -0.012222027
0.04791142 0.056119274 0.086743236 0.023777703 0.010853709 0.010789192 -0.03820107 0.02836997
0.04105948 -0.061431043 -0.05051284 -0.061340988 0.020869086 0.044857208 0.040661022 0.05203138
-0.004170789 -0.027913531 0.08637955 -0.058211107 0.02587062 -0.02877734 -0.048879713 -0.063645944
0.04074416 0.0021224204 -0.024594435 0.026632994 -0.06772196 -0.030850375 0.071634755 0.026504993
-0.013414604 0.06601362 -0.04714857 0.06949952 -0.014465978 -0.053486403 -0.020163726 0.03213747
-0.056610383 -0.0852402 0.07586754 0.009186685 0.050582834 0.050197497 -0.07202946 0.046765625
0.013866071 0.0591674 0.022409532 -0.031916764 -0.08628347 0.020912886 0.07598021 -0.06910481
00000000: 3dec 6e3d 6d47 803d 8121 8abd e580 9b3c
00000010: 536f 9b3d 3da6 d6bc 2df8 41bc dba0 2fbb
00000020: 2945 55bd 5a08 98bc 3f3b 5a3d 40b8 083d
00000030: 9d9f 163d 081b a0bd 3bf5 07bd 3337 8fbc
00000040: daea 993d 9b0f b43d fbea 523c 3bfa 08bd
00000050: a123 59bd e4aa d4bc 6d34 d0bc bea8 f2b9
00000060: eff6 dbbc 44da 0fbd fa01 4e3d 2bf4 663d
00000070: 9aaa 11bc 8d5b 3d3d dabc 833d 7680 873d
00000080: efba 83bd 5289 973d a41e 3b3d 5add 363d
00000090: ab95 de3c 38b3 653d a268 aa3d 8496 97bd
000000a0: 9678 b0bc c261 dbbc 139c 873d 09b1 863d
000000b0: a17e a5bd 47c1 d83c 2a2a b43c cc51 b2bd
000000c0: 1f5b 963d 2f47 dd3c 6ab9 b03d 0b13 b3bd
000000d0: f234 a53d cb73 dabc 8cc7 86bd 4f6b 773c
000000e0: 2a8c 903d 6bf4 2abd 6791 7a3d 9594 2ebd
000000f0: cc71 90ba d62f 7d3d ab36 313d 67fb 30bd
00000100: 1a23 48bd 2c13 5cbd f3fa 9d3d d721 d93b
00000110: 4249 713d b5a4 8c3d 7699 babc e63e 48bc
00000120: c43e 443d 53dd 653d 70a6 b13d 75c9 c23c
00000130: c1d3 313c 27c5 303c ba78 1cbd 2468 e83c
00000140: fc2d 283d 1e9f 7bbd 8de6 4ebd b040 7bbd
00000150: a5f5 aa3c 31bc 373d 2c8c 263d db1e 553d
00000160: 1dab 88bb ebaa e4bc c3e7 b03d c56e 6ebd
00000170: 9fee d33c 75be ebbc 1836 48bd ce58 82bd
00000180: 59e3 263d 4e18 0b3b 457a c9bc 702d da3c
00000190: d0b1 8abd edb9 fcbc 3eb5 923d 0021 d93c
000001a0: edc8 5bbc 2632 873d dc1e 41bd c455 8e3d
000001b0: b602 6dbc 8f14 5bbd 662e a5bc 94a2 033d
000001c0: 4ae0 67bd 6a92 aebd 7160 9b3d c083 163c
000001d0: f22f 4f3d e49b 4d3d 2e84 93bd 508d 3f3d
000001e0: 842e 633c 8459 723d 3294 b73c 27bb 02bd
000001f0: 63b5 b0bd 8051 ab3c 839b 9b3d d386 8dbd

layers.2.weight f4 [1, 128]
0.08409678 0.05729766 0.024127036 -0.027013812 0.0018525226 -0.08303772 0.065529585 -0.0596772
0.06630685 -0.049275376 -0.009743234 -0.016518677 -0.03390479 0.086967975 0.008645035 -0.016495055
-0.054395027 0.061450526 -0.010437109 -0.054208517 0.04598747 -0.045301307 0.05487271 -0.0702079
-0.023954287 0.047999002 0.02800167 0.08130222 0.021040391 0.041282974 -0.008467839 -0.033964302
0.07107612 -0.045851186 0.017452715 -0.07502739 0.0441947 0.054875765 -0.061114203 0.0795065
0.037344404 0.06379336 -0.050514273 0.068829186 -0.009510047 -0.007900596 0.0029204395 -0.08027148
0.078981474 -0.05313641 -0.05770521 -0.0587367 0.05176265 0.06927987 -0.06098962 0.014051116
0.023471327 -0.05874184 -0.05326252 0.055331573 -0.08590268 0.055385575 -0.072314866 -0.055985976
-0.031029668 -0.02057764 0.0024493851 -0.056764513 0.040581357 -0.06904023 -0.025333565 0.07050741
-0.03995317 -0.0809134 0.040177546 -0.07707063 0.060273554 0.053620506 -0.0776092 -0.047342394
-0.026238194 -0.0790699 -0.06886109 0.023010155 -0.041320074 0.05463204 -0.058373753 0.035503175
0.06638126 -0.063670434 -0.06571957 -0.08699107 -0.014069924 -0.040121734 -0.053382743 0.0058907387
-0.009567956 -0.08524592 0.033252325 0.076725796 0.009850909 -0.00468006 -0.030096747 0.072451994
-0.06987837 -0.07853514 0.040712263 -0.08026542 0.023038764 0.054278195 0.011326259 0.02098991
-0.06533934 0.022405202 -0.07178138 0.03195613 0.08239711 -0.006121303 0.0053824894 0.055229038
0.04241294 -0.086673066 0.033591576 0.0019394293 -0.035930462 0.046335403 0.087136246 0.0444949
00000000: ef3a ac3d f3b0 6a3d 10a6 c53c 124c ddbc
00000010: 58d0 f23a ae0f aabd 6034 863d 1470 74bd
00000020: e3cb 873d fad4 49bd 16a2 1fbc 2d52 87bc
00000030: c0df 0abd 441c b23d e8a3 0d3c a320 87bc
00000040: 52cd 5ebd 8cb3 7b3d 6800 2bbc c009 5ebd
00000050: 5b5d 3c3d dd8d 39bd 35c2 603d 29c9 8fbd
00000060: c83b c4bc 9a9a 443d c263 e53c c781 a63d
00000070: e65c ac3c 5618 293d b1bc 0abc 271e 0bbd
00000080: 5b90 913d 74ce 3bbd fff8 8e3c f6a7 99bd
00000090: 8005 353d 69c5 603d e352 7abd 4ed4 a23d
000000a0: 72f6 183d 18a6 823d 0ee8 4ebd 51f6 8c3d
000000b0: 07d0 1bbc 8071 01bc d864 3f3b 6065 a4bd
000000c0: 0ac1 a13d 90a5 59bd 4c5c 6cbd e595 70bd
000000d0: 1305 543d 9be2 8d3d 40d0 79bd a736 663c
000000e0: f146 c03c 499b 70bd cd29 5abd 5ca3 623d
000000f0: bfed afbd fcdb 623d d119 94bd 8d51 65bd
00000100: ee31 febc 7092 a8bc dd85 203b e881 68bd
00000110: a338 263d f764 8dbd 5688 cfbc 3066 903d
00000120: efa5 23bd edb5 a5bd 3691 243d 35d7 9dbd
00000130: 67e1 763d 2da1 5b3d 92f1 9ebd 19ea 41bd
00000140: 7bf1 d6bc 66ef a1bd 0b07 8dbd cb7f bc3c
00000150: 3d3f 29bd d9c5 5f3d 5119 6fbd c76b 113d
00000160: e6f2 873d a565 82bd fb97 86bd 6028 b2bd
00000170: 8a85 66bc b056 24bd dda7 5abd 1907 c13b
00000180: ebc2 1cbc 6a95 aebd 9733 083d 6a22 9d3d
00000190: b565 213c 305b 99bb 748d f6bc b661 943d
000001a0: 641c 8fbd 08d7 a0bd e7c1 263d 3262 a4bd
000001b0: cabb bc3c d052 5e3d c691 393c 08f3 ab3c
000001c0: a2d0 85bd 1d8b b73c 1e02 93bd 6ee4 023d
000001d0: d1bf a83d 3695 c8bb 985f b03b d837 623d
000001e0: 31b9 2d3d a681 b1bd 5297 093d 7334 fe3a
000001f0: d22b 13bd 31ca 3d3d 7d74 b23d 4940 363d

bns.0.weight f4 [128]
1.0 1.0 1.0 1.0 1.0 1.0 1.0 1.0
1.0 1.0 1.0 1.0 1.0 1.0 1.0 1.0
1.0 1.0 1.0 1.0 1.0 1.0 1.0 1.0
1.0 1.0 1.0 1.0 1.0 1.0 1.0 1.0
1.0 1.0 1.0 1.0 1.0 1.0 1.0 1.0
1.0 1.0 1.0 1.0 1.0 1.0 1.0 1.0
1.0 1.0 1.0 1.0 1.0 1.0 1.0 1.0
1.0 1.0 1.0 1.0 1.0 1.0 1.0 1.0
1.0 1.0 1.0 1.0 1.0 1.0 1.0 1.0
1.0 1.0 1.0 1.0 1.0 1.0 1.0 1.0
1.0 1.0 1.0 1.0 1.0 1.0 1.0 1.0
1.0 1.0 1.0 1.0 1.0 1.0 1.0 1.0
1.0 1.0 1.0 1.0 1.0 1.0 1.0 1.0
1.0 1.0 1.0 1.0 1.0 1.0 1.0 1.0
1.0 1.0 1.0 1.0 1.0 1.0 1.0 1.0
1.0 1.0 1.0 1.0 1.0 1.0 1.0 1.0
00000000: 0000 803f 0000 803f 0000 803f 0000 803f
00000010: 0000 803f 0000 803f 0000 803f 0000 803f
00000020: 0000 803f 0000 803f 0000 803f 0000 803f
00000030: 0000 803f 0000 803f 0000 803f 0000 803f
00000040: 0000 803f 0000 803f 0000 803f 0000 803f
00000050: 0000 803f 0000 803f 0000 803f 0000 803f
00000060: 0000 803f 0000 803f 0000 803f 0000 803f
00000070: 0000 803f 0000 803f 0000 803f 0000 803f
00000080: 0000 803f 0000 803f 0000 803f 0000 803f
00000090: 0000 803f 0000 803f 0000 803f 0000 803f
000000a0: 0000 803f 0000 803f 0000 803f 0000 803f
000000b0: 0000 803f 0000 803f 0000 803f 0000 803f
000000c0: 0000 803f 0000 803f 0000 803f 0000 803f
000000d0: 0000 803f 0000 803f 0000 803f 0000 803f
000000e0: 0000 803f 0000 803f 0000 803f 0000 803f
000000f0: 0000 803f 0000 803f 0000 803f 0000 803f
00000100: 0000 803f 0000 803f 0000 803f 0000 803f
00000110: 0000 803f 0000 803f 0000 803f 0000 803f
00000120: 0000 803f 0000 803f 0000 803f 0000 803f
00000130: 0000 803f 0000 803f 0000 803f 0000 803f
00000140: 0000 803f 0000 803f 0000 803f 0000 803f
00000150: 0000 803f 0000 803f 0000 803f 0000 803f
00000160: 0000 803f 0000 803f 0000 803f 0000 803f
00000170: 0000 803f 0000 803f 0000 803f 0000 803f
00000180: 0000 803f 0000 803f 0000 803f 0000 803f
00000190: 0000 803f 0000 803f 0000 803f 0000 803f
000001a0: 0000 803f 0000 803f 0000 803f 0000 803f
000001b0: 0000 803f 0000 803f 0000 803f 0000 803f
000001c0: 0000 803f 0000 803f 0000 803f 0000 803f
000001d0: 0000 803f 0000 803f 0000 803f 0000 803f
000001e0: 0000 803f 0000 803f 0000 803f 0000 803f
000001f0: 0000 803f 0000 803f 0000 803f 0000 803f

bns.0.bias f4 [128]
0.0 0.0 0.0 0.0 0.0 0.0 0.0 0.0
0.0 0.0 0.0 0.0 0.0 0.0 0.0 0.0
0.0 0.0 0.0 0.0 0.0 0.0 0.0 0.0
0.0 0.0 0.0 0.0 0.0 0.0 0.0 0.0
0.0 0.0 0.0 0.0 0.0 0.0 0.0 0.0
0.0 0.0 0.0 0.0 0.0 0.0 0.0 0.0
0.0 0.0 0.0 0.0 0.0 0.0 0.0 0.0
0.0 0.0 0.0 0.0 0.0 0.0 0.0 0.0
0.0 0.0 0.0 0.0 0.0 0.0 0.0 0.0
0.0 0.0 0.0 0.0 0.0 0.0 0.0 0.0
0.0 0.0 0.0 0.0 0.0 0.0 0.0 0.0
0.0 0.0 0.0 0.0 0.0 0.0 0.0 0.0
0.0 0.0 0.0 0.0 0.0 0.0 0.0 0.0
0.0 0.0 0.0 0.0 0.0 0.0 0.0 0.0
0.0 0.0 0.0 0.0 0.0 0.0 0.0 0.0
0.0 0.0 0.0 0.0 0.0 0.0 0.0 0.0
00000000: 0000 0000 0000 0000 0000 0000 0000 0000
00000010: 0000 0000 0000 0000 0000 0000 0000 0000
00000020: 0000 0000 0000 0000 0000 0000 0000 0000
00000030: 0000 0000 0000 0000 0000 0000 0000 0000
00000040: 0000 0000 0000 0000 0000 0000 0000 0000
00000050: 0000 0000 0000 0000 0000 0000 0000 0000
00000060: 0000 0000 0000 0000 0000 0000 0000 0000
00000070: 0000 0000 0000 0000 0000 0000 0000 0000
00000080: 0000 0000 0000 0000 0000 0000 0000 0000
00000090: 0000 0000 0000 0000 0000 0000 0000 0000
000000a0: 0000 0000 0000 0000 0000 0000 0000 0000
000000b0: 0000 0000 0000 0000 0000 0000 0000 0000
000000c0: 0000 0000 0000 0000 0000 0000 0000 0000
000000d0: 0000 0000 0000 0000 0000 0000 0000 0000
000000e0: 0000 0000 0000 0000 0000 0000 0000 0000
000000f0: 0000 0000 0000 0000 0000 0000 0000 0000
00000100: 0000 0000 0000 0000 0000 0000 0000 0000
00000110: 0000 0000 0000 0000 0000 0000 0000 0000
00000120: 0000 0000 0000 0000 0000 0000 0000 0000
00000130: 0000 0000 0000 0000 0000 0000 0000 0000
00000140: 0000 0000 0000 0000 0000 0000 0000 0000
00000150: 0000 0000 0000 0000 0000 0000 0000 0000
00000160: 0000 0000 0000 0000 0000 0000 0000 0000
00000170: 0000 0000 0000 0000 0000 0000 0000 0000
00000180: 0000 0000 0000 0000 0000 0000 0000 0000
00000190: 0000 0000 0000 0000 0000 0000 0000 0000
000001a0: 0000 0000 0000 0000 0000 0000 0000 0000
000001b0: 0000 0000 0000 0000 0000 0000 0000 0000
000001c0: 0000 0000 0000 0000 0000 0000 0000 0000
000001d0: 0000 0000 0000 0000 0000 0000 0000 0000
000001e0: 0000 0000 0000 0000 0000 0000 0000 0000
000001f0: 0000 0000 0000 0000 0000 0000 0000 0000

bns.0.running_mean f4 [128]
0.22020477 -0.016461348 0.14041902 0.16305807 -0.3120241 0.10209705 0.06787675 -0.06087756
-0.18430427 0.18390363 -0.3247391 -0.09678414 0.12671897 -0.05786034 -0.047025617 0.18409686
-0.20581199 0.13796422 -0.08009406 -0.1757487 0.102406174 0.009920786 -0.09006049 0.24925096
0.049729243 -0.28842068 0.12992615 -0.12955858 0.21415864 -0.12905009 -0.18923447 0.20396976
0.18262993 -0.13887751 -0.14873813 -0.14844444 -0.25396326 -0.12952478 0.016521366 0.14883447
0.059020486 -0.04382787 -0.094362214 -0.2279096 0.053757045 -0.112674624 0.18548274 0.040087305
-0.06128077 -0.21230264 0.02952808 -0.21193585 -0.2883015 -0.052343 -0.18184085 -0.22124825
0.07843571 -0.04773507 0.18451096 0.18717867 0.2108203 0.15206751 0.19193922 -0.10070605
-0.20113279 0.14182304 0.029590016 0.3244931 0.094500564 0.21441697 0.06667893 -0.20611651
0.21094917 -0.04632741 -0.26748422 -0.09764529 -0.2021462 0.13822554 -0.16646588 -0.23682792
0.09778383 -0.2885482 0.02563891 -0.07519759 0.21502411 0.025988353 0.031419758 0.072922125
0.025707735 -0.23715076 -0.11116028 -0.16423447 -0.15590411 -0.008421402 0.12632418 -0.13768774
-0.13459541 0.014234927 0.12804544 0.0029710268 0.20692877 0.13103244 -0.1563703 0.13114046
-0.19365837 -0.021935226 0.020568972 -0.09831064 -0.012376099 0.19200762 -0.011595459 0.14090139
-0.27890143 0.30507225 0.049517438 -0.13385014 0.32603177 -0.02436295 0.11390591 -0.06813849
-0.020472331 -0.03600663 0.2570358 0.010951861 -0.2589284 0.053197913 -0.05461543 0.05159443
00000000: 5c7d 613e f3d9 86bc 01ca 0f3e b2f8 263e
00000010: 9fc1 9fbe 4218 d13d f702 8b3d c05a 79bd
00000020: 42ba 3cbe 3c51 3c3e 3444 a6be c336 c6bd
00000030: 9ec2 013e f7fe 6cbd ef9d 40bd e383 3c3e
00000040: 61c0 52be 7e46 0d3e 5b08 a4bd 78f7 33be
00000050: 54ba d13d cb8a 223c a271 b8bd a53b 7f3e
00000060: e4b0 4b3d e0ab 93be 5c0b 053e 01ab 04be
00000070: 674c 5b3e b525 04be aec6 41be 73dd 503e
00000080: 5703 3b3e e835 0ebe cf4e 18be d201 18be
00000090: 7907 82be 25a2 04be d157 873c 1068 183e
000000a0: 77bf 713d da84 33bd fa40 c1bd 2261 69be
000000b0: 5930 5c3d f4c1 e6bd 30ef 3d3e 9632 243d
000000c0: 8b01 7bbd dd65 59be dfe4 f13c b605 59be
000000d0: 419c 93be 9d65 56bd 7d34 3abe e78e 62be
000000e0: e7a2 a03d d985 43bd 71f0 3c3e c4ab 3f3e
000000f0: 47e1 573e 96b7 1b3e b78b 443e f93e cebd
00000100: c1f5 4dbe 0f3a 113e c366 f23c f623 a63e
00000110: 8389 c13d 1f90 5b3e f68e 883d 3510 53be
00000120: 0f03 583e cfc1 3dbd b1f3 88be 41fa c7bd
00000130: 6aff 4ebe ff8a 0d3e 0876 2abe 0583 72be
00000140: e342 c83d 97bc 93be b108 d23c 3201 9abd
00000150: 482f 5c3e 87e5 d43c 01b2 003d 3258 953d
00000160: 0799 d23c a6d7 72be 00a8 e3bd 152d 28be
00000170: 54a5 1fbe ecf9 09bc 205b 013e 04fe 0cbe
00000180: 61d3 09be 9c39 693c 581e 033e 8fb5 423b
00000190: 23e5 533e 5e2d 063e 891f 20be af49 063e
000001a0: 614e 46be 81b1 b3bc 4380 a83c 1757 c9bd
000001b0: 1fc5 4abc a59d 443e e1fa 3dbc 7448 103e
000001c0: 2bcc 8ebe 6e32 9c3e ccd2 4a3d 0310 09be
000001d0: a3ed a63e cf94 c7bc 8047 e93d 318c 8bbd
000001e0: 97b5 a7bc b07b 13bd 329a 833e 6f6f 333c
000001f0: 4392 84be 0ee6 593d 6eb4 5fbd ae54 533d

bns.0.running_var f4 [128]
0.16616732 0.14208807 0.2686706 0.17658527 0.10951609 0.06729057 0.11460806 0.12773395
0.17398743 0.104217395 0.1823793 0.08579621 0.12974703 0.1795033 0.16362211 0.15620743
0.2257941 0.14323325 0.14458337 0.18709709 0.13899589 0.07402109 0.12807904 0.2422372
0.13897766 0.17682868 0.20193204 0.1514072 0.122231536 0.1403818 0.18981463 0.19267245
0.13917127 0.09377364 0.11883407 0.15677494 0.09396389 0.08043057 0.17655885 0.22746669
0.15745875 0.15416513 0.09441344 0.15387441 0.1664804 0.13046803 0.16770081 0.19516067
0.08275884 0.18085697 0.10653437 0.19029169 0.15463807 0.16258562 0.13453862 0.15604134
0.16500707 0.12742373 0.16309637 0.10796996 0.08721072 0.0987679 0.19654308 0.18140098
0.13016516 0.26380947 0.2852481 0.15706284 0.14741175 0.1870116 0.14698355 0.21368009
0.17680757 0.18164447 0.16195986 0.12032914 0.18890369 0.23732138 0.06859701 0.15242624
0.11663731 0.10118711 0.20001273 0.10685861 0.22072996 0.12873471 0.14199768 0.19912292
0.12462369 0.18750598 0.081991054 0.14019556 0.14148365 0.17607975 0.27167913 0.12574056
0.18503562 0.09041591 0.15029167 0.18363692 0.09595995 0.17448175 0.14821364 0.10755676
0.11868207 0.17544217 0.14739212 0.13462563 0.12261521 0.13622902 0.20634164 0.16673169
0.21180055 0.11189691 0.170582 0.20602636 0.19727452 0.13110277 0.14873496 0.11204605
0.09192483 0.3317173 0.14093365 0.19979832 0.14515592 0.12362606 0.18329312 0.1168904
00000000: c427 2a3e 897f 113e 318f 893e c5d2 343e
00000010: f949 e03d a3cf 893d a1b7 ea3d b0cc 023e
00000020: c329 323e ee6f d53d a4c1 3a3e ecb5 af3d
00000030: 68dc 043e b7cf 373e 8e8c 273e d7f4 1f3e
00000040: 9236 673e bdab 123e aa0d 143e 6196 3f3e
00000050: f054 0e3e 5f98 973d 2727 033e 070d 783e
00000060: 2950 0e3e 9412 353e 46c7 4e3e 7d0a 1b3e
00000070: 8754 fa3d 3fc0 0f3e c45e 423e ed4b 453e
00000080: ea82 0e3e 650c c03d 475f f33d 9c89 203e
00000090: 2470 c03d c8b8 a43d d8cb 343e 07ed 683e
000000a0: de3c 213e 77dd 1d3e d55b c13d 4191 1d3e
000000b0: d779 2a3e 6999 053e c3b9 2b3e 33d8 473e
000000c0: 777d a93d 9232 393e b12e da3d d3db 423e
000000d0: 7159 1e3e d87c 263e 7ec4 093e 4dc9 1f3e
000000e0: 9df7 283e 5e7b 023e bc02 273e 5b1f dd3d
000000f0: 899b b23d d346 ca3d 9742 493e 2ec1 393e
00000100: 044a 053e 0912 873e 0a0c 923e 15d5 203e
00000110: 1bf3 163e f87f 3f3e db82 163e f4ce 5a3e
00000120: 0b0d 353e 0201 3a3e ced8 253e 206f f63d
00000130: f86f 413e 6004 733e 977c 8c3d a015 1c3e
00000140: 8bdf ee3d 303b cf3d 23d0 4c3e b0d8 da3d
00000150: 0907 623e 08d3 033e d767 113e e1e6 4b3e
00000160: b53a ff3d 9101 403e edea a73d 6d8f 0f3e
00000170: 17e1 103e 404e 343e 8719 8b3e 22c2 003e
00000180: fa79 3d3e fa2b b93d 0fe6 193e 510b 3c3e
00000190: a686 c43d 58ab 323e 51c5 173e b846 dc3d
000001a0: 960f f33d 1da7 333e f6ed 163e 4ddb 093e
000001b0: af1d fb3d 9f7f 0b3e 394b 533e b6bb 2a3e
000001c0: 3ee2 583e 352a e53d 0cad 2e3e 93f8 523e
000001d0: 5502 4a3e ce3f 063e fa4d 183e 6678 e53d
000001e0: 1643 bc3d dad6 a93e e950 103e ee97 4c3e
000001f0: c1a3 143e a92f fd3d 31b1 3b3e 3c64 ef3d

bns.1.weight f4 [128]
1.0 1.0 1.0 1.0 1.0 1.0 1.0 1.0
1.0 1.0 1.0 1.0 1.0 1.0 1.0 1.0
1.0 1.0 1.0 1.0 1.0 1.0 1.0 1.0
1.0 1.0 1.0 1.0 1.0 1.0 1.0 1.0
1.0 1.0 1.0 1.0 1.0 1.0 1.0 1.0
1.0 1.0 1.0 1.0 1.0 1.0 1.0 1.0
1.0 1.0 1.0 1.0 1.0 1.0 1.0 1.0
1.0 1.0 1.0 1.0 1.0 1.0 1.0 1.0
1.0 1.0 1.0 1.0 1.0 1.0 1.0 1.0
1.0 1.0 1.0 1.0 1.0 1.0 1.0 1.0
1.0 1.0 1.0 1.0 1.0 1.0 1.0 1.0
1.0 1.0 1.0 1.0 1.0 1.0 1.0 1.0
1.0 1.0 1.0 1.0 1.0 1.0 1.0 1.0
1.0 1.0 1.0 1.0 1.0 1.0 1.0 1.0
1.0 1.0 1.0 1.0 1.0 1.0 1.0 1.0
1.0 1.0 1.0 1.0 1.0 1.0 1.0 1.0
00000000: 0000 803f 0000 803f 0000 803f 0000 803f
00000010: 0000 803f 0000 803f 0000 803f 0000 803f
00000020: 0000 803f 0000 803f 0000 803f 0000 803f
00000030: 0000 803f 0000 803f 0000 803f 0000 803f
00000040: 0000 803f 0000 803f 0000 803f 0000 803f
00000050: 0000 803f 0000 803f 0000 803f 0000 803f
00000060: 0000 803f 0000 803f 0000 803f 0000 803f
00000070: 0000 803f 0000 803f 0000 803f 0000 803f
00000080: 0000 803f 0000 803f 0000 803f 0000 803f
00000090: 0000 803f 0000 803f 0000 803f 0000 803f
000000a0: 0000 803f 0000 803f 0000 803f 0000 803f
000000b0: 0000 803f 0000 803f 0000 803f 0000 803f
000000c0: 0000 803f 0000 803f 0000 803f 0000 803f
000000d0: 0000 803f 0000 803f 0000 803f 0000 803f
000000e0: 0000 803f 0000 803f 0000 803f 0000 803f
000000f0: 0000 803f 0000 803f 0000 803f 0000 803f
00000100: 0000 803f 0000 803f 0000 803f 0000 803f
00000110: 0000 803f 0000 803f 0000 803f 0000 803f
00000120: 0000 803f 0000 803f 0000 803f 0000 803f
00000130: 0000 803f 0000 803f 0000 803f 0000 803f
00000140: 0000 803f 0000 803f 0000 803f 0000 803f
00000150: 0000 803f 0000 803f 0000 803f 0000 803f
00000160: 0000 803f 0000 803f 0000 803f 0000 803f
00000170: 0000 803f 0000 803f 0000 803f 0000 803f
00000180: 0000 803f 0000 803f 0000 803f 0000 803f
00000190: 0000 803f 0000 803f 0000 803f 0000 803f
000001a0: 0000 803f 0000 803f 0000 803f 0000 803f
000001b0: 0000 803f 0000 803f 0000 803f 0000 803f
000001c0: 0000 803f 0000 803f 0000 803f 0000 803f
000001d0: 0000 803f 0000 803f 0000 803f 0000 803f
000001e0: 0000 803f 0000 803f 0000 803f 0000 803f
000001f0: 0000 803f 0000 803f 0000 803f 0000 803f

bns.1.bias f4 [128]
0.0 0.0 0.0 0.0 0.0 0.0 0.0 0.0
0.0 0.0 0.0 0.0 0.0 0.0 0.0 0.0
0.0 0.0 0.0 0.0 0.0 0.0 0.0 0.0
0.0 0.0 0.0 0.0 0.0 0.0 0.0 0.0
0.0 0.0 0.0 0.0 0.0 0.0 0.0 0.0
0.0 0.0 0.0 0.0 0.0 0.0 0.0 0.0
0.0 0.0 0.0 0.0 0.0 0.0 0.0 0.0
0.0 0.0 0.0 0.0 0.0 0.0 0.0 0.0
0.0 0.0 0.0 0.0 0.0 0.0 0.0 0.0
0.0 0.0 0.0 0.0 0.0 0.0 0.0 0.0
0.0 0.0 0.0 0.0 0.0 0.0 0.0 0.0
0.0 0.0 0.0 0.0 0.0 0.0 0.0 0.0
0.0 0.0 0.0 0.0 0.0 0.0 0.0 0.0
0.0 0.0 0.0 0.0 0.0 0.0 0.0 0.0
0.0 0.0 0.0 0.0 0.0 0.0 0.0 0.0
0.0 0.0 0.0 0.0 0.0 0.0 0.0 0.0
00000000: 0000 0000 0000 0000 0000 0000 0000 0000
00000010: 0000 0000 0000 0000 0000 0000 0000 0000
00000020: 0000 0000 0000 0000 0000 0000 0000 0000
00000030: 0000 0000 0000 0000 0000 0000 0000 0000
00000040: 0000 0000 0000 0000 0000 0000 0000 0000
00000050: 0000 0000 0000 0000 0000 0000 0000 0000
00000060: 0000 0000 0000 0000 0000 0000 0000 0000
00000070: 0000 0000 0000 0000 0000 0000 0000 0000
00000080: 0000 0000 0000 0000 0000 0000 0000 0000
00000090: 0000 0000 0000 0000 0000 0000 0000 0000
000000a0: 0000 0000 0000 0000 0000 0000 0000 0000
000000b0: 0000 0000 0000 0000 0000 0000 0000 0000
000000c0: 0000 0000 0000 0000 0000 0000 0000 0000
000000d0: 0000 0000 0000 0000 0000 0000 0000 0000
000000e0: 0000 0000 0000 0000 0000 0000 0000 0000
000000f0: 0000 0000 0000 0000 0000 0000 0000 0000
00000100: 0000 0000 0000 0000 0000 0000 0000 0000
00000110: 0000 0000 0000 0000 0000 0000 0000 0000
00000120: 0000 0000 0000 0000 0000 0000 0000 0000
00000130: 0000 0000 0000 0000 0000 0000 0000 0000
00000140: 0000 0000 0000 0000 0000 0000 0000 0000
00000150: 0000 0000 0000 0000 0000 0000 0000 0000
00000160: 0000 0000 0000 0000 0000 0000 0000 0000
00000170: 0000 0000 0000 0000 0000 0000 0000 0000
00000180: 0000 0000 0000 0000 0000 0000 0000 0000
00000190: 0000 0000 0000 0000 0000 0000 0000 0000
000001a0: 0000 0000 0000 0000 0000 0000 0000 0000
000001b0: 0000 0000 0000 0000 0000 0000 0000 0000
000001c0: 0000 0000 0000 0000 0000 0000 0000 0000
000001d0: 0000 0000 0000 0000 0000 0000 0000 0000
000001e0: 0000 0000 0000 0000 0000 0000 0000 0000
000001f0: 0000 0000 0000 0000 0000 0000 0000 0000

bns.1.running_mean f4 [128]
0.1422971 0.37803343 0.01898701 0.2398153 -0.07627655 -0.06035866 0.22841851 0.22871545
-0.02494324 -0.109424815 0.4457412 0.13535659 -0.15162915 -0.051525515 -0.08334726 -0.20947772
0.35336846 -0.25250873 -0.10976336 -0.18521488 0.11120138 -0.2518519 0.31468225 -0.13260876
-0.27582878 -0.1712895 -0.16015145 -0.028501246 0.023475291 0.07078105 0.40874478 0.02888426
0.21227191 -0.10090958 -0.12297795 -0.045860384 -0.012358298 -0.16978073 0.14907941 -0.3501843
-0.019499646 0.1642493 0.15133876 0.35036075 -0.40904987 0.0072618676 0.03228637 0.2720919
0.36527482 0.1724289 0.32526776 0.0033222078 -0.4730143 -0.30063948 -0.29875085 0.06511768
-0.060705934 -0.4286231 0.02468637 -0.15087469 0.12537271 -0.14487778 -0.16323906 -0.2548851
0.38373223 -0.0022828104 0.01516836 0.38400528 0.048999842 -0.0018535522 0.07352389 -0.07002256
0.4640993 0.01967375 0.061090045 -0.25230116 -0.22809651 -0.07198622 0.0006967393 -0.09740397
-0.16419601 -0.068753295 -0.25334743 -0.033527892 0.18955882 0.13825613 -0.11787693 -0.348156
0.13437964 -0.23615634 -0.42298374 -0.25581807 -0.27271485 -0.022650935 0.0042015165 -0.14387977
-0.41885108 -0.08081741 -0.1238882 0.20049326 0.18691799 -0.31200546 -0.25210547 0.22671004
-0.08780713 0.22137022 -0.28772244 0.017364336 0.13937426 -0.060479566 -0.07114668 0.14607102
0.070129015 -0.34859222 0.10533121 -0.011794836 0.28054765 -0.37172917 0.24837144 0.089511506
-0.11395167 -0.06689747 0.030057747 -0.42332542 -0.06084151 -0.011341887 0.1663477 -0.0060502267
00000000: 55b6 113e 998d c13e a58a 9b3c 2492 753e
00000010: e136 9cbd a43a 77bd 8be6 693e 6234 6a3e
00000020: c455 ccbc 1e1a e0bd 3138 e43e eb9a 0a3e
00000030: ac44 1bbe 6b0c 53bd f8b1 aabd 5481 56be
00000040: b6ec b43e d348 81be 9dcb e0bd f8a8 3dbe
00000050: 8dbd e33d bbf2 80be 081e a13e 97ca 07be
00000060: 6e39 8dbe 8466 2fbe befe 23be 727b e9bc
00000070: 414f c03c a8f5 903d ff46 d13e af9e ec3c
00000080: cf5d 593e afa9 cebd dddb fbbd 19d8 3bbd
00000090: 757a 4abc 00db 2dbe 46a8 183e 5b4b b3be
000000a0: b9bd 9fbc f830 283e 8cf8 1a3e 7c62 b33e
000000b0: fc6e d1be f6f4 ed3b b63e 043d a14f 8b3e
000000c0: 4d05 bb3e 3491 303e 7f89 a63e 66b9 593b
000000d0: ee2e f2be 6bed 99be dff5 98be 6b5c 853d
000000e0: c9a6 78bd 7d74 dbbe 123b ca3c e57e 1abe
000000f0: b461 003e d75a 14be 2428 27be 4d80 82be
00000100: 8d78 c43e 349b 15bb b784 783c 579c c43e
00000110: 0fb4 483d e4f2 f2ba b193 963d fd67 8fbd
00000120: 6c9e ed3e d82a a13c 8e39 7a3d 9e2d 81be
00000130: 2292 69be 836d 93bd 62a5 363a bc7b c7bd
00000140: 0023 28be 87ce 8cbd c1b6 81be 8b54 09bd
00000150: b51b 423e 0493 0d3e 7669 f1bd 8141 b2be
00000160: d19a 093e f8d2 71be 5391 d8be 96fa 82be
00000170: 48a1 8bbe 748e b9bc e0ac 893b 3855 13be
00000180: a673 d6be 9983 a5bd 19b9 fdbd 1b4e 4d3e
00000190: 6e67 3f3e 2ebf 9fbe f813 81be ad26 683e
000001a0: 39d4 b3bd e0ae 623e 5b50 93be a73f 8e3c
000001b0: 20b8 0e3e 6cb9 77bd 5ab5 91bd a493 153e
000001c0: cd9f 8f3d ae7a b2be e4b7 d73d 213f 41bc
000001d0: f1a3 8f3e 4953 bebe 1555 7e3e cf51 b73d
000001e0: 7e5f e9bd 8a01 89bd aa3b f63c 1cbe d8be
000001f0: f234 79bd 52d3 39bc 0d57 2a3e fb40 c6bb

bns.1.running_var f4 [128]
0.07716221 0.12394054 0.14030804 0.09206227 0.15937941 0.11359996 0.10898112 0.106001645
0.1630706 0.15755506 0.1390501 0.14026852 0.07335031 0.11383893 0.09869784 0.09507004
0.115679555 0.15394953 0.1153154 0.10593805 0.10190254 0.055183645 0.119449615 0.16466896
0.10600492 0.063782275 0.121237785 0.12815355 0.10203988 0.10073879 0.12287865 0.17681788
0.15941796 0.12277427 0.15091497 0.11600442 0.101267844 0.14977172 0.08976391 0.087789804
0.051664278 0.18584302 0.06782724 0.08216668 0.09725934 0.17864 0.086452454 0.05706153
0.20128721 0.10892012 0.06601001 0.12150072 0.1530918 0.15717338 0.2000875 0.15978178
0.12750426 0.098634675 0.100201316 0.08632492 0.108888865 0.0984136 0.098037876 0.09766261
0.08145782 0.08825429 0.10252869 0.09654209 0.087448336 0.10289502 0.14065537 0.1925533
0.22962713 0.12812124 0.13355385 0.085188605 0.17467384 0.10356764 0.15735196 0.10001291
0.104050994 0.06542919 0.13552688 0.13040689 0.14162344 0.10323846 0.108836874 0.14831863
0.14932542 0.08628111 0.23767775 0.23740935 0.14825109 0.104958236 0.07094816 0.22279762
0.1519222 0.058592435 0.18619385 0.10305362 0.14995885 0.14844644 0.06496396 0.1449614
0.18522352 0.10611491 0.19073483 0.14559935 0.17729057 0.099807866 0.09993426 0.13717379
0.0999028 0.09831038 0.14701034 0.10152678 0.13505018 0.110234365 0.11381602 0.09457931
0.107326075 0.13494705 0.14739123 0.105069645 0.096710585 0.10643685 0.07922677 0.092780486
00000000: 3907 9e3d 8ad4 fd3d e9ac 0f3e 258b bc3d
00000010: 5b34 233e 19a7 e83d 7e31 df3d 6417 d93d
00000020: fbfb 263e 1d56 213e 2663 0e3e 8da2 0f3e
00000030: b038 963d 6324 e93d 1822 ca3d 15b4 c23d
00000040: 67e9 ec3d f2a4 1d3e 7b2a ec3d 0cf6 d83d
00000050: 47b2 d03d 3f08 623d 00a2 f43d fb9e 283e
00000060: 1c19 d93d 48a0 823d 844b f83d af3a 033e
00000070: 49fa d03d 2450 ce3d cda7 fb3d bf0f 353e
00000080: 763e 233e 1471 fb3d 7489 1a3e ba93 ed3d
00000090: 8465 cf3d c25d 193e 24d6 b73d 24cb b33d
000000a0: ec9d 533d a24d 3e3e 02e9 8a3d 0147 a83d
000000b0: e82f c73d 67ed 363e fc0d b13d 5ab9 693d
000000c0: 3c1e 4e3e 8311 df3d 4230 873d 5fd5 f83d
000000d0: 19c4 1c3e 0ff2 203e bde3 4c3e d69d 233e
000000e0: 7a90 023e fa00 ca3d 5936 cd3d 1fcb b03d
000000f0: 2001 df3d 128d c93d 15c8 c83d 5603 c83d
00000100: 5cd3 a63d aabe b43d 90fa d13d dcb7 c53d
00000110: 1d18 b33d a0ba d23d f607 103e b12c 453e
00000120: 6023 6b3e 3732 033e 57c2 083e 5d77 ae3d
00000130: b3dd 323e 451b d43d df20 213e 92d3 cc3d
00000140: b018 d53d bdff 853d 8fc7 0a3e 6289 053e
00000150: bc05 113e b06e d33d dee5 de3d d7e0 173e
00000160: c3e8 183e 27b4 b03d cc61 733e 701b 733e
00000170: 22cf 173e 58f4 d63d 454d 913d 0f25 643e
00000180: 7e91 1b3e 9ffe 6f3d 9aa9 3e3e c70d d33d
00000190: d08e 193e 5802 183e d30b 853d c370 143e
000001a0: 3cab 3d3e c652 d93d fe4f 433e ff17 153e
000001b0: a98b 353e 1168 cc3d 55aa cc3d 4977 0c3e
000001c0: d799 cc3d f456 c93d e189 163e 46ed cf3d
000001d0: 984a 0a3e 8ec2 e13d 6018 e93d ccb2 c13d
000001e0: c6cd db3d 8f2f 0a3e baed 163e c12e d73d
000001f0: 3310 c63d 90fb d93d a541 a23d b203 be3d
