saved_data/pge_mlp.pt (torch, 81523 bytes, 13 tensors)

layers.0.weight f4 [128, 10]
0	0xbfa8cbea	-1.318723
1	0x404cf194	3.2022448
2	0xc0d99527	-6.799457
3	0x40618986	3.5240188
4	0x408baa3c	4.3645306
5	0xc0e49b49	-7.1439557
6	0x40df0e03	6.9704604
7	0xc0d5747d	-6.6704698
8	0x403a0951	2.9068186
9	0x40edf6b7	7.4363666
10	0xbf9319f7	-1.1492299
11	0x3d256dfe	0.0403881
12	0xbd177ed8	-0.036986202
13	0xbd629b8c	-0.055324122
14	0xbd4c0002	-0.049804695
15	0x3eda2105	0.42603317
16	0x3db0345a	0.08603735
17	0x3e76cfea	0.2410275
18	0xbf4e4cb9	-0.8058582
19	0xc228986e	-42.148857
20	0xc00e55e5	-2.2239926
21	0x4093a67d	4.6140733
22	0xbfe07eea	-1.7538731
23	0x40854518	4.1646843
24	0x4152f0f0	13.183823
25	0xc0b2fb1b	-5.5931525
26	0x40c91d49	6.284825
27	0xbf7f806e	-0.99805343
28	0xbf134e7a	-0.5754162
29	0x419727f6	18.894512
30	0x4010bae1	2.2614062
31	0xc08d3e74	-4.4138737
32	0xbd96ba28	-0.07359725
33	0x3fb31e24	1.3993573
34	0xc198883a	-19.066517
35	0x403693af	2.852764
36	0xc08ea11d	-4.457167
37	0x3e8b4cb3	0.27206954
38	0xbe78d4b0	-0.24299884
39	0xc17152f5	-15.082753
40	0xc10f40ef	-8.953353
41	0xc0c9567b	-6.2918067
42	0x40c5ead5	6.184916
43	0xc0b640df	-5.695419
44	0xc0d67b6a	-6.702565
45	0x40bb6865	5.8564935
46	0x40b8f40b	5.7797904
47	0xc09a96bd	-4.8309007
48	0x40ba8d1a	5.8297243
49	0xc0d59094	-6.6738987
50	0x40bb6d1b	5.8570685
51	0x40c70923	6.2198653
52	0x40c57c52	6.171426
53	0x40c2b256	6.0842695
54	0x40c23e35	6.0700936
55	0x3fd990f3	1.699736
56	0xc0a4a3b7	-5.1449847
57	0xc0ac6877	-5.387752
58	0x40b8fb78	5.780697
59	0x40f13522	7.537736
60	0xc128962b	-10.536662
61	0xc0d20c3f	-6.563995
62	0x4042f1a8	3.0459995
63	0x41119904	9.099857
64	0xc0796ab6	-3.897138
65	0x405d0f3d	3.454055
66	0x40dcdabb	6.9017005
67	0xc019ab7e	-2.401092
68	0xc0e774e3	-7.2330184
69	0xc07bcb3e	-3.93428
70	0xbf73e577	-0.9527201
71	0x4056cfb0	3.3564262
72	0xc0e27ed3	-7.0779815
73	0xc10e65fa	-8.899897
74	0x40ba9a57	5.8313403
75	0xc0ac8e34	-5.392359
76	0xc117755f	-9.466155
77	0xc0eb95aa	-7.3620195
78	0x4088f242	4.2795725
79	0xc0634f3e	-3.5517116
80	0x3fbce8c1	1.4758531
81	0xc09d1920	-4.909317
82	0xc03d27cb	-2.9555538
83	0xc12b0fc5	-10.69135
84	0x40daf550	6.8424454
85	0xc05e6ec9	-3.4755118
86	0xc0383203	-2.8780525
87	0xc036f0aa	-2.858439
88	0x401245b8	2.2855053
89	0x413ad314	11.676533
90	0x410980e3	8.5939665
91	0xc0a09c5b	-5.0190864
92	0xc0a46c70	-5.138237
93	0xbe3a46d8	-0.18191087
94	0x40d55a39	6.6672635
95	0x411620cc	9.383007
96	0xc034139a	-2.8136964
97	0x40aa1330	5.314842
98	0xbe7e66d4	-0.24843913
99	0x4094e3e8	4.6528206
100	0x400a8116	2.1641288
101	0x402d6e82	2.7098699
102	0xbeb7bcb7	-0.35886165
103	0x3f020e9d	0.5080355
104	0x40da135f	6.8148646
105	0xc07e626e	-3.9747577
106	0xbfc99887	-1.5749673
107	0xbeae9651	-0.34099057
108	0x3fa8d676	1.3190448
109	0x4193d428	18.478592
110	0x40ca21b5	6.3166146
111	0xc0b898df	-5.768661
112	0xc0c41a0c	-6.1281796
113	0xc0b9c948	-5.8058205
114	0xc0c239de	-6.069564
115	0x40bb28d9	5.8487363
116	0xc0c076cf	-6.014503
117	0xc078fe03	-3.8905036
118	0xc0bc9de2	-5.894273
119	0xc0bf7858	-5.9834404
120	0xc058bb9c	-3.3864508
121	0x4043b188	3.0577106
122	0xc0998f44	-4.7987385
123	0x410c8421	8.782258
124	0x40907538	4.514309
125	0xc10813ae	-8.504805
126	0xc0119f26	-2.2753386
127	0xc0c50be0	-6.1576996
128	0x406fab3f	3.744827
129	0x41173556	9.450521
130	0x408cc600	4.39917
131	0x41006472	8.024523
132	0x400d2e59	2.2059538
133	0x40dda11f	6.925918
134	0xc054ef68	-3.3271122
135	0x404f50f1	3.2393153
136	0x411261c2	9.148867
137	0x40f1c570	7.5553513
138	0x40a335e2	5.1003275
139	0x410734b4	8.450367
140	0xc03166bb	-2.7718952
141	0xc00a5448	-2.1613941
142	0xbe3485aa	-0.17629114
143	0x3e9fefe4	0.3123771
144	0xc1b4172b	-22.511312
145	0x3f59f2d9	0.8513618
146	0x3ee5a36e	0.4485125
147	0xbea8ed8b	-0.3299373
148	0x4010065b	2.250388
149	0xc135ae05	-11.354985
150	0x40bba623	5.8640304
151	0xc0c65b8c	-6.198675
152	0xc1021dc9	-8.132272
153	0xc0a93f3c	-5.288969
154	0xc0b24d06	-5.5719023
155	0x40c15fb6	6.0429335
156	0xc0b97f74	-5.7968082
157	0x40c2df6d	6.0897737
158	0xc0c13f69	-6.0389905
159	0x4131352e	11.075483
160	0x3f7155b6	0.9427141
161	0xc02e327d	-2.7218316
162	0xbfd59eaa	-1.6689045
163	0x40cd0c6c	6.4077663
164	0xc05d7484	-3.4602365
165	0x40edd1c5	7.4318566
166	0x40daccbc	6.837492
167	0x40f6a216	7.707286
168	0xc0e72d0d	-7.2242494
169	0xc0fb2715	-7.8485208
170	0xc0b8714f	-5.7638316
171	0xbfbddf80	-1.4833832
172	0x40adae60	5.427536
173	0xc0c2c443	-6.0864577
174	0xc13a620f	-11.64894
175	0xc0fa02c1	-7.812836
176	0xc073544b	-3.8020198
177	0x406d6545	3.709306
178	0x40c06742	6.0126047
179	0x40dd78db	6.921003
180	0xc0dabe31	-6.8357167
181	0x40f017c9	7.5029035
182	0xc0d0a71a	-6.520398
183	0x41027c88	8.155403
184	0xc080c00b	-4.0234427
185	0x3fa02483	1.2511142
186	0x40eb8c63	7.360887
187	0xc0ffea74	-7.99737
188	0xbfdcb40b	-1.7242445
189	0x40c50f2e	6.158103
190	0xc0c4027c	-6.1253033
191	0x40c5b320	6.178116
192	0x40d174aa	6.545491
193	0x40c6fe25	6.2185235
194	0x40c1daa2	6.0579386
195	0x40b545a9	5.6647534
196	0x40b82119	5.7540402
197	0x40bd628d	5.91828
198	0x40b5e9cd	5.68479
199	0x40b8365d	5.756636
200	0x3f95d164	1.1704526
201	0xc08d0f61	-4.4081273
202	0xbcf0ddf3	-0.029402709
203	0xbf810d20	-1.008213
204	0xc162a13a	-14.164362
205	0x404bcc51	3.1843455
206	0xc089b1d5	-4.302958
207	0x3f30e91a	0.69105685
208	0x3f1499f0	0.5804739
209	0xc13f05d0	-11.938919
210	0x40a882ef	5.265983
211	0xc0d04671	-6.508599
212	0x41010c61	8.065522
213	0xc0ddfde9	-6.937245
214	0xbe2b1214	-0.16706115
215	0x40e5b944	7.1788654
216	0xbed61077	-0.41809437
217	0x40614cab	3.5203044
218	0xc0f2862f	-7.57888
219	0x404686ca	3.1019769
220	0xc0eaa7a6	-7.332965
221	0xc10858bd	-8.521665
222	0x409e8078	4.953182
223	0x4113e0cf	9.242385
224	0xc0f67a4f	-7.7024302
225	0x41345e9a	11.273096
226	0xc0052be4	-2.0808039
227	0x410b0e28	8.690956
228	0xc083046a	-4.094289
229	0xbfdfd7dd	-1.7487751
230	0xc0aa55b0	-5.32296
231	0x403b77dd	2.9291909
232	0xc0bc18d5	-5.8780313
233	0x41211f89	10.070199
234	0x408b8c28	4.360859
235	0x412e62a7	10.899085
236	0xbfde3fe0	-1.7363243
237	0x3dbbe121	0.09173799
238	0x40d46421	6.637223
239	0x41004644	8.017155
240	0xbf8185e1	-1.0118982
241	0xbfffd368	-1.9986391
242	0xbf4cf382	-0.80059063
243	0xbf825272	-1.018141
244	0x40e986f3	7.2977233
245	0x3fc29c90	1.5204029
246	0x3f37ff1c	0.7187364
247	0x3f890e1e	1.0707433
248	0xbfeb60c7	-1.8388909
249	0x41794c04	15.5810585
250	0xc09fd133	-4.994287
251	0xc0d98907	-6.797977
252	0xc0c3807a	-6.109433
253	0x40b98c03	5.7983413
254	0xc0d65fcb	-6.6991935
255	0xc0c331a1	-6.099808

layers.0.bias f4 [128]
0	0x3ecfaa18	0.4055946
1	0xbe2e5925	-0.17026193
2	0xbda47c7d	-0.08031557
3	0x3e3931c8	0.18085396
4	0xbe8f1759	-0.279475
5	0xbd42714b	-0.047471326
6	0x3ca0cce7	0.019628955
7	0x3f80d6d3	1.0065559
8	0x3f835324	1.0259748
9	0xbd698196	-0.05700835
10	0xbe9903c9	-0.298857
11	0xbf29ae5b	-0.6628167
12	0x3f5cb8af	0.86219305
13	0x3f07f2e1	0.5310498
14	0xbf301bff	-0.6879272
15	0x3cbd7711	0.023128064
16	0xbf1b4739	-0.6065555
17	0x3e635c0b	0.2220308
18	0x3f2633ff	0.6492309
19	0xbd017485	-0.031605262
20	0x3fa6d280	1.303299
21	0x3f178f08	0.59202623
22	0xbec08d4b	-0.37607798
23	0xbe9dd1ac	-0.3082403
24	0x3f81cd3c	1.0140758
25	0xbdedaa18	-0.116047084
26	0x3dc82507	0.097726874
27	0x3e90daa3	0.28291807
28	0xbe1e8c0e	-0.15483114
29	0xbd1eceff	-0.038771626
30	0x3cb45bf8	0.02201651
31	0x40127852	2.2885938
32	0xbf117403	-0.56817645
33	0x3e643f2a	0.2228972
34	0x3f7173d3	0.9431736
35	0x3aea91f3	0.001789628
36	0xbe07e958	-0.13272607
37	0xbeae1273	-0.3399845
38	0xbefc1a6a	-0.49238902
39	0xbded4e3f	-0.1158719
40	0xbea18cf7	-0.3155286
41	0x3efdab87	0.49544927
42	0x3e664277	0.22486292
43	0x3f24d8ce	0.6439332
44	0xbf5c2892	-0.85999405
45	0x3e70c15a	0.23511258
46	0x3f3db8bf	0.74110025
47	0x3fe35c19	1.7762481
48	0xbdf4af79	-0.11947531
49	0x3dc24259	0.09485311
50	0xbeec454f	-0.46146628
51	0x3f4a0339	0.7891117
52	0xbffda1ac	-1.9814963
53	0xbfc4c8b5	-1.5373751
54	0x3f135593	0.5755245
55	0x3fbf2a6e	1.4934824
56	0xbd06350e	-0.03276544
57	0x3e2340ca	0.15942684
58	0x3f46d4c7	0.7766842
59	0xbe87dba2	-0.26534754
60	0x3f1bd396	0.6086973
61	0xbdf79420	-0.120887995
62	0xbf007d4a	-0.50191176
63	0x3e631e26	0.2217947
64	0xbeb5c0b9	-0.35498598
65	0x3e8d1557	0.27555344
66	0x3e535902	0.20639423
67	0x3e989d43	0.2980748
68	0x3fbebb91	1.4900991
69	0x3e64db1e	0.22349212
70	0xbdf52a71	-0.11970986
71	0x3c610b87	0.0137356585
72	0xbed21ffc	-0.41040027
73	0x3e076b68	0.13224566
74	0xbdbfcdef	-0.093654506
75	0x3e76a0ce	0.2408478
76	0xbe5d922d	-0.21637793
77	0xbf94f92c	-1.1638541
78	0x3e8078c3	0.25092134
79	0x3e83fc91	0.2577863
80	0x3cc3e4b1	0.02391276
81	0xbef554b5	-0.4791619
82	0x3f2e9e64	0.68210435
83	0x3f4d2dfc	0.8014829
84	0x3e7c8e8f	0.24663757
85	0xbda6b358	-0.08139676
86	0x3c6b8ab2	0.014376329
87	0xbec0b046	-0.37634486
88	0x3d58a74b	0.052893918
89	0x3e985bbe	0.29757494
90	0x3f0bf569	0.5467134
91	0x3eb1fac5	0.34761634
92	0x3f446266	0.76712644
93	0xbe9143fa	-0.28372175
94	0x3e8a8de3	0.27061376
95	0xbdbdafc9	-0.09262044
96	0xbf1f3b70	-0.6220007
97	0xbeb4a612	-0.35282952
98	0xbf1a3ef0	-0.60252285
99	0xbe6b29d3	-0.22965173
100	0x3e12c57b	0.14333145
101	0xbf9e42a0	-1.2364082
102	0x3fa32d09	1.2748119
103	0xbe439fbd	-0.19103904
104	0x3e3dc8e6	0.18533668
105	0xbec3aead	-0.38219205
106	0xbda8d79d	-0.0824425
107	0x3f013f9a	0.50487673
108	0xbea9896f	-0.33112666
109	0x3e3216ed	0.17391558
110	0x3e1d00ec	0.15332383
111	0xbf3b42bd	-0.7314871
112	0x3fa087fb	1.2541498
113	0x3f2f8d57	0.6857504
114	0x3f05b9e9	0.522368
115	0x403384ff	2.8049924
116	0xbf2321d3	-0.63723487
117	0xbc75b60f	-0.014997019
118	0xbee38752	-0.4443918
119	0x3eb5d149	0.35511234
120	0x3f4eb713	0.807481
121	0xbe67197b	-0.22568314
122	0xbe9aec64	-0.30258477
123	0x3edc3e73	0.43016395
124	0xbef7d595	-0.48405138
125	0x3e7ed0b6	0.24884304
126	0x3e259b01	0.1617241
127	0xbe165bed	-0.14683504

layers.1.weight f4 [128, 128]
0	0xbfbfcfe1	-1.4985315
1	0x4102a05d	8.164151
2	0x414cac25	12.792027
3	0x409588d0	4.6729507
4	0x40c08079	6.0156827
5	0x40c1e7d9	6.0595517
6	0xc059f7b0	-3.4057426
7	0x40197f09	2.3983786
8	0xc0e440e6	-7.132922
9	0xc08acc09	-4.3374066
10	0xc0f3955a	-7.6119814
11	0xc0c14e57	-6.040813
12	0x3fd1463f	1.6349562
13	0xc0e96c8e	-7.2945013
14	0x410d019d	8.812894
15	0xc0c0cd78	-6.0250816
16	0xc070a3ad	-3.75999
17	0x40be5d49	5.9488873
18	0xbfab2ab3	-1.3372406
19	0x40c089be	6.016814
20	0x40f37c43	7.6089187
21	0xc04ed4f4	-3.2317476
22	0x400a2f78	2.1591473
23	0x3f925beb	1.1434301
24	0xc0eb2624	-7.348406
25	0x40c186e1	6.0477147
26	0xc0bf76db	-5.9832587
27	0xc0ed2d58	-7.411785
28	0xc0016e72	-2.022366
29	0x40bce89d	5.903395
30	0xc0c1f467	-6.0610843
31	0xc0dea22a	-6.9572954
32	0xc0f3a817	-7.614269
33	0x408d64c6	4.4185514
34	0x40f94e7b	7.79083
35	0xc0bdf65b	-5.9363227
36	0xc0dd3a71	-6.913384
37	0xc0bf4615	-5.977305
38	0x40d5bba9	6.6791577
39	0x40b78f3f	5.736236
40	0x403529fd	2.8306878
41	0xbe83ceea	-0.257438
42	0xc0e34c0a	-7.103032
43	0xc0bf3378	-5.975033
44	0xc058bb95	-3.386449
45	0xc0bf734d	-5.982825
46	0x40a61d57	5.1910815
47	0x40f53e9f	7.663894
48	0xc0702f8d	-3.7529023
49	0x40c1dcec	6.058218
50	0xc0fbbd8f	-7.8668895
51	0xc0fb10ce	-7.8458014
52	0x40fb0998	7.844921
53	0x40e05b35	7.0111337
54	0xc11446f6	-9.267324
55	0x40e0e0f7	7.0274615
56	0xc0c03414	-6.006357
57	0x411e7d93	9.905658
58	0xc0f38d07	-7.6109653
59	0xc0c02702	-6.0047617
60	0xc02276ef	-2.5385091
61	0x40e62a77	7.1926837
62	0xc0014f9a	-2.0204835
63	0xbf87c2c8	-1.0606318
64	0xc015c9c6	-2.3404403
65	0x407b564c	3.9271421
66	0x40e9cb65	7.3060784
67	0xc0bd5865	-5.9170403
68	0xbf827865	-1.0192991
69	0x40c10c68	6.0327644
70	0x4103a4fa	8.2277775
71	0xc0c24ae7	-6.0716434
72	0x40e1fed5	7.0623574
73	0xc0c0b8e5	-6.02257
74	0x410e454f	8.891921
75	0xc0bd56e9	-5.916859
76	0x40c39222	6.1115885
77	0x40d37dd9	6.6091123
78	0xbf6dbbba	-0.92864573
79	0x40f091aa	7.5177813
80	0xc10500ea	-8.312723
81	0xc0c21d06	-6.066043
82	0xbdab0125	-0.08349828
83	0x40c21dc4	6.0661335
84	0xc0be3678	-5.944149
85	0x40e42faf	7.1308208
86	0xc0d8e6bf	-6.7781672
87	0xc086ce3b	-4.2126746
88	0xc0cb1fdd	-6.3476396
89	0xc0bf6c37	-5.98196
90	0xbfb4ba56	-1.4119365
91	0x407585b3	3.8362854
92	0x40c07905	6.014773
93	0xc0e8e3bc	-7.2777996
94	0x40c1ba66	6.0540037
95	0xc09f9127	-4.986469
96	0x4109b18d	8.605847
97	0x405b8e6c	3.4305677
98	0x40864c65	4.1968255
99	0xc0e7a6bc	-7.2391033
100	0x40e9de62	7.3083963
101	0xc014ef3f	-2.3271024
102	0xc0f22c97	-7.567943
103	0x40c2558a	6.072942
104	0xc0bf4431	-5.977074
105	0x4097bcdb	4.7418036
106	0xc0cf6e6d	-6.4822297
107	0xc0c5b3e4	-6.1782093
108	0xc0dfb4cb	-6.9908195
109	0xc0ec6c2a	-7.3882036
110	0xc0c0f7e3	-6.0302596
111	0x40a86615	5.262461
112	0xc02f5d89	-2.740084
113	0x3f732ea7	0.9499306
114	0xc0c0d4a1	-6.0259557
115	0x408f2f89	4.4745526
116	0x40d2cf47	6.5878024
117	0xc0ae02b3	-5.4378295
118	0x40e631b9	7.1935697
119	0xc0c280a0	-6.0782013
120	0x4021ec61	2.5300524
121	0xc0be1cdf	-5.9410243
122	0xc0bf2c6b	-5.974172
123	0xbffa317e	-1.9546354
124	0xc0bd5da0	-5.917679
125	0xbfb8ecfa	-1.444732
126	0x4181250d	16.143091
127	0xc0bf1543	-5.9713454
128	0x40bf5ad6	5.9798384
129	0xc0ca79db	-6.327375
130	0xc0bb9dc5	-5.863009
131	0xc0cc7370	-6.3890915
132	0xc0c16754	-6.0438633
133	0xc0c22074	-6.0664616
134	0xc0adf217	-5.435802
135	0x40bd8ca3	5.9234176
136	0x3f7f9903	0.9984285
137	0x40bdd12c	5.9317837
138	0x40cb09f8	6.344967
139	0x40c0ab3c	6.0209026
140	0x40b98fc5	5.7988
141	0xc0bf4c46	-5.9780607
142	0xbe1b14e1	-0.15144683
143	0x40c18627	6.047626
144	0xc0ab62ba	-5.3558016
145	0xc0bfc2cd	-5.9925294
146	0xc0bd6601	-5.9187016
147	0x40c24052	6.0703516
148	0x40b12658	5.5359306
149	0xc0a62bfb	-5.1928687
150	0x40c012df	6.0023036
151	0x40c27daf	6.077842
152	0x40c210b2	6.064538
153	0xc0c26a1b	-6.0754523
154	0x40bdb383	5.928163
155	0x40c062f5	6.0120797
156	0xc0cca6ae	-6.3953466
157	0xbfa956b2	-1.3229582
158	0x40bee668	5.965626
159	0x40cbe4fa	6.3717012
160	0x40bb564f	5.8542857
161	0x40bf9ee5	5.9881463
162	0xc0ab38fb	-5.3507056
163	0x40be6fad	5.9511323
164	0xc04a6b96	-3.1628165
165	0xc0be6414	-5.9497166
166	0xc0c6f0ab	-6.2168784
167	0xc0e33757	-7.1005054
168	0xc0af59fe	-5.4797354
169	0x40be65a4	5.9499073
170	0xc0c0e773	-6.028253
171	0x40bfadbd	5.9899583
172	0xc0c4370d	-6.13172
173	0x40bfaec4	5.9900837
174	0xc0d6bb74	-6.7103825
175	0xc0bcc420	-5.898941
176	0xc0c2deaf	-6.089683
177	0xc0bf5816	-5.9795027
178	0x40c4004c	6.1250362
179	0x40c1cf40	6.056549
180	0xc0d92109	-6.7852826
181	0xc0be1e45	-5.941195
182	0x40b0d7db	5.5263495
183	0xc0b779a5	-5.733599
184	0x40c17652	6.0456934
185	0xc0b83238	-5.75613
186	0xc0c01441	-6.0024724
187	0xc0bea4d0	-5.9576187
188	0x40abe94b	5.372228
189	0xc0bcedcc	-5.904028
190	0xc0c126bb	-6.035978
191	0xc0bd915b	-5.9239936
192	0x40c0d0cd	6.0254884
193	0xc0caff9b	-6.343702
194	0xc0c7f30b	-6.2484183
195	0xc0be0dee	-5.9392004
196	0x40c16575	6.043635
197	0xc0c1418a	-6.0392504
198	0xc0df8dff	-6.9860835
199	0x40c0dc06	6.0268583
200	0xc0c5e1df	-6.183822
201	0x40c205fd	6.063231
202	0x409426b7	4.629726
203	0x40bfb578	5.990902
204	0xc0ca9cba	-6.3316317
205	0x40bf5610	5.9792557
206	0xc105537f	-8.332885
207	0xc0c295c5	-6.0807824
208	0x40bc3d10	5.882454
209	0x40be848e	5.953681
210	0x40c00d7b	6.0016456
211	0xc0c49f7f	-6.1444697
212	0xc0c13cb6	-6.038661
213	0xc0c6e9c4	-6.216036
214	0xc0be4c73	-5.946832
215	0x40c1ce99	6.0564694
216	0x40bd732f	5.9203105
217	0x40bfe660	5.996872
218	0x408fee38	4.4978294
219	0xc0bfe5a6	-5.9967833
220	0xc0bff660	-5.998825
221	0xc0ac9584	-5.3932514
222	0xc0be6d4c	-5.950842
223	0x40bfb7d8	5.991192
224	0xc0eaa61f	-7.3327785
225	0x40c092e8	6.017933
226	0x40996612	4.7937098
227	0x410f1173	8.94176
228	0xc0f79a3f	-7.737579
229	0xc0bdd65f	-5.9324183
230	0x40c06fad	6.0136323
231	0x40bddd1c	5.933241
232	0x40be0716	5.938365
233	0xc0b287dc	-5.5790844
234	0xc0b0ca6d	-5.52471
235	0x40b02f56	5.5057783
236	0xc0c25d74	-6.073908
237	0x40ca5934	6.323389
238	0x40bdbccb	5.929296
239	0xc0cd311b	-6.4122443
240	0xc0bfc43d	-5.992705
241	0x40bd4d17	5.9156604
242	0x40be028d	5.9378114
243	0x40baa97d	5.8331895
244	0xc0beb32e	-5.9593725
245	0x40b2f943	5.5929275
246	0xc0bc542c	-5.885275
247	0x40c2196e	6.065604
248	0x40c18d72	6.0485163
249	0x40c1dd63	6.0582747
250	0x40c06779	6.012631
251	0x40afbfab	5.492147
252	0x40c18957	6.048015
253	0x40c0d1f8	6.025631
254	0xc0c37f88	-6.109318
255	0x40c09c38	6.0190697

layers.1.bias f4 [128]
0	0xbf8818ed	-1.0632607
1	0x3f700936	0.93764055
2	0xbfbaefb8	-1.4604406
3	0x400fd30a	2.2472558
4	0xc08a2281	-4.316712
5	0x3fc83c9f	1.56435
6	0xc060d8e0	-3.513237
7	0x4090c4cf	4.5240245
8	0x3fbcc6e3	1.4748195
9	0xc03adfd7	-2.919912
10	0x3fd12453	1.633921
11	0x3eb0c2a1	0.3452349
12	0xbfbe3b16	-1.4861782
13	0x400e9d21	2.2283404
14	0xbf9a148e	-1.2037523
15	0xc0438c89	-3.0554526
16	0xbf93eabc	-1.155601
17	0xc0536ec6	-3.303636
18	0xbfaa7f92	-1.3320181
19	0xc03088fc	-2.7583609
20	0x407814c9	3.8762686
21	0xbfa1e47b	-1.2647852
22	0x40110c1b	2.2663639
23	0x40472dbe	3.112167
24	0x4056e7f4	3.3579073
25	0x3f09ccb1	0.5382796
26	0x400879bd	2.1324303
27	0x3fee0462	1.8595088
28	0xbfbdda9e	-1.4832342
29	0xc02d2442	-2.705338
30	0x3cb0f336	0.021600347
31	0x3fc35399	1.5259887
32	0xbf1d01ff	-0.6133117
33	0x4043d0fc	3.0596304
34	0x3dd80611	0.10548032
35	0xc048221d	-3.127082
36	0xbe9b054c	-0.3027748
37	0x3f23f084	0.6403887
38	0xc071b03b	-3.7763813
39	0x4026a7d0	2.6039925
40	0xbf1277aa	-0.5721384
41	0xbd87e67c	-0.06635758
42	0xbf47a779	-0.7798992
43	0x405d3b39	3.4567397
44	0x3df8896b	0.121355854
45	0x4080a6c8	4.020359
46	0x3fa9ac95	1.3255793
47	0x3fc113c4	1.5084157
48	0x3a2a0cf2	0.00064869144
49	0xc05640ab	-3.347697
50	0x3fbe81e1	1.4883386
51	0x40572fee	3.3623004
52	0xc0963428	-4.6938667
53	0xc006b1a8	-2.1045933
54	0x3fd10a0a	1.6331189
55	0x4000fb28	2.0153294
56	0x3fc22a93	1.5169243
57	0x3e4fff17	0.20312153
58	0xc029e190	-2.6543922
59	0xbf52c796	-0.82335794
60	0x3e887353	0.26650485
61	0x404602b6	3.0939155
62	0xbe35b013	-0.17742948
63	0x406f0a33	3.7349975
64	0x404f5580	3.2395935
65	0x4004bab1	2.0738947
66	0x3f199261	0.5998898
67	0x3f458896	0.7716154
68	0xbf83caea	-1.02963
69	0x400bca25	2.184213
70	0xbf35a737	-0.70958275
71	0xbf4d56ac	-0.80210376
72	0xc02b88e0	-2.6802292
73	0x404b668c	3.178134
74	0x3e0516b3	0.1299694
75	0xbdd6d5ca	-0.10489996
76	0xbe1b9623	-0.15193991
77	0xc00854cd	-2.1301758
78	0xbfbcb126	-1.4741561
79	0xc046c4f6	-3.1057715
80	0xbe866468	-0.2624848
81	0x400e6794	2.225072
82	0x3eceeb4e	0.40413898
83	0xbfa74a5b	-1.3069566
84	0x40392616	2.8929496
85	0xbfb8a4e9	-1.4425327
86	0x3e07d08b	0.13263147
87	0x4095c273	4.6799865
88	0xbfcfbdb0	-1.6229763
89	0xc03dd271	-2.9659693
90	0xc00f3e3a	-2.238173
91	0xba87acb8	-0.0010351157
92	0x3ffe4e3b	1.9867624
93	0x3edae382	0.427517
94	0xbf387ded	-0.7206715
95	0xbf5f2ab5	-0.8717454
96	0xbffa9db0	-1.9579372
97	0x3f665c26	0.8998436
98	0x3e66b2dc	0.22529167
99	0xbf4559b9	-0.7709003
100	0x3fa5a155	1.293986
101	0xbf7fa464	-0.99860215
102	0x4002b35f	2.042198
103	0xc03e4393	-2.9728744
104	0x40656861	3.5844958
105	0x404f3130	3.2373772
106	0x4053264b	3.2992122
107	0x3fc1420c	1.5098281
108	0x3fd7b12d	1.6850945
109	0x403c3593	2.94077
110	0x3ef2eaf5	0.47444883
111	0x3f83905f	1.0278434
112	0xbf729850	-0.9476366
113	0xbe9b7316	-0.3036124
114	0x3f1538f7	0.58290046
115	0x408442ef	4.1331706
116	0x3d7733bd	0.060352076
117	0xc03f96cd	-2.9935791
118	0x40733e6e	3.8006854
119	0x3fccc6ac	1.599813
120	0xbf90c47d	-1.1309963
121	0xc04643ab	-3.0978801
122	0x3f4bce86	0.79612005
123	0x4074011d	3.812568
124	0x4058d2ed	3.387874
125	0x3fc1ec9d	1.5150334
126	0x403a9649	2.9154227
127	0x404155e1	3.0208666

layers.2.weight f4 [1, 128]
0	0xc0b7fdd9	-5.7497373
1	0xc0bed0a2	-5.962968
2	0xc0be4356	-5.9457197
3	0xc0be8b5d	-5.954512
4	0xc0be0f45	-5.939364
5	0xc0bda443	-5.9263015
6	0xc0bda429	-5.926289
7	0xc0b20442	-5.5630198
8	0xc0bd036a	-5.9066668
9	0xc0bf4b42	-5.9779367
10	0xc0bcbb5d	-5.8978715
11	0xc0bfb8aa	-5.991292
12	0xc0be9802	-5.9560556
13	0xc0bb2ed0	-5.8494644
14	0xc0bca461	-5.895066
15	0xc0bb32f1	-5.8499684
16	0xc0ba8790	-5.829048
17	0xc0beb209	-5.959233
18	0xc0bd2551	-5.910805
19	0xc0b9a5d5	-5.801493
20	0xc0bdda1a	-5.9328737
21	0xc0b68c65	-5.704638
22	0xc0b9e901	-5.809693
23	0xc0be07dc	-5.9384594
24	0xc0b56ab9	-5.6692777
25	0xc0be189f	-5.9405055
26	0xc0b5a82e	-5.6767797
27	0xc0bbbe49	-5.866978
28	0xc0bb4028	-5.8515816
29	0xc0bef8eb	-5.9678855
30	0xc0a09ad3	-5.0188994
31	0xc0bbe2ac	-5.87142
32	0xc0bef21c	-5.9670544
33	0xc0bcf32f	-5.9046855
34	0xc0be861a	-5.95387
35	0xc0b9caf8	-5.8060265
36	0xc0bdbe2f	-5.929466
37	0xc0bec178	-5.961117
38	0xc0be37c6	-5.9443083
39	0xc0bf8abc	-5.9856853
40	0xc0c00aef	-6.0013347
41	0xc0a822fa	-5.2542696
42	0xc0b8fdf9	-5.7810025
43	0xc0b4b0b2	-5.6465693
44	0xc0c00eab	-6.0017905
45	0xc0b872e2	-5.764024
46	0xc0be3939	-5.944485
47	0xc0bf5445	-5.979037
48	0xc0beb3fc	-5.9594707
49	0xc0be3841	-5.944367
50	0xc0a30221	-5.09401
51	0xc0bc1abe	-5.8782644
52	0xc0bce46b	-5.902883
53	0xc0bcb436	-5.8969984
54	0xc0bf0ac3	-5.9700637
55	0xc0bea0df	-5.9571376
56	0xc0bed154	-5.9630527
57	0xc0bac5f1	-5.836663
58	0xc0bfb7f5	-5.9912057
59	0xc0bd595f	-5.9171596
60	0xc0bff921	-5.9991612
61	0xc0bbc7fb	-5.8681617
62	0xc0c021a1	-6.004105
63	0xc0a1b4b9	-5.053311
64	0xc0a760cc	-5.230566
65	0xc0ac7b74	-5.39007
66	0xc0be4b80	-5.9467163
67	0xc0bf6778	-5.9813805
68	0xc0b19af8	-5.550167
69	0xc0be819c	-5.9533215
70	0xc0bcf5de	-5.905013
71	0xc0bfd517	-5.994762
72	0xc0bdea84	-5.9348774
73	0xc0b89093	-5.767648
74	0xc0b3d4d3	-5.6197295
75	0xc0bb2755	-5.8485513
76	0xc0bb8167	-5.859546
77	0xc0b92008	-5.78516
78	0xc0bef179	-5.9669766
79	0xc0bd2394	-5.910593
80	0xc0bdaa14	-5.9270115
81	0xc0beb27a	-5.9592867
82	0xbf861851	-1.0476171
83	0xc0bf47bd	-5.977507
84	0xc0bc515d	-5.884932
85	0xc0be9219	-5.955334
86	0xc0b8e470	-5.7778854
87	0xc0bdf31b	-5.935926
88	0xc0bf3b00	-5.975952
89	0xc0bda0ad	-5.9258637
90	0xc0be3e60	-5.945114
91	0xc0bed93a	-5.964017
92	0xc0be1990	-5.9406204
93	0xc0bbba12	-5.8664637
94	0xc0bffd84	-5.9996967
95	0xc0a86ed6	-5.26353
96	0xc0bdaf41	-5.9276433
97	0xc0beee32	-5.9665766
98	0xc0bfcaa4	-5.9934864
99	0xc0be0ddd	-5.9391923
100	0xc0ba5da2	-5.82393
101	0xc0bbdbec	-5.870596
102	0xc0bf4ff9	-5.9785123
103	0xc0b4aac2	-5.6458445
104	0xc0bed41d	-5.9633927
105	0xc0bd3156	-5.9122725
106	0xc0b9fdb7	-5.812221
107	0xc0bd9753	-5.924722
108	0xc0bd17e9	-5.9091687
109	0xc0bd1eb1	-5.9099965
110	0xc0bd417c	-5.9142437
111	0xc0bdf9a5	-5.936724
112	0xc0b6dff7	-5.7148395
113	0xc0b9d089	-5.806706
114	0xc0bbf263	-5.873338
115	0xc0ba5cd5	-5.823832
116	0xc0bd9f18	-5.9256706
117	0xc0bd564b	-5.916784
118	0xc0ba9bc4	-5.8315144
119	0xc0bf1252	-5.9709864
120	0xc0bdbc53	-5.929239
121	0xc0be2a83	-5.9426894
122	0xc0bfbc72	-5.9917536
123	0xc0b9b0e0	-5.802841
124	0xc0bf942f	-5.986839
125	0xc0b7feed	-5.749869
126	0xc06931a3	-3.6436546
127	0xc0bdbe21	-5.929459

bns.0.weight f4 [128]
0	0xbf745460	-0.95441246
1	0x41af77e1	21.933535
2	0xc0adf97e	-5.4367056
3	0x415a7f2b	13.656047
4	0x3fcbd6d6	1.5924938
5	0x3fa8947c	1.3170314
6	0xc00cb045	-2.1982586
7	0xc000f744	-2.015092
8	0x3fd02e46	1.6264122
9	0xbe64b79a	-0.22335663
10	0x40bce6b4	5.903162
11	0x3f08399f	0.5321292
12	0x3ef43193	0.47694072
13	0xbfc814ac	-1.5631309
14	0x4113ceca	9.237986
15	0xbf96d0c6	-1.1782463
16	0xc01abfd7	-2.417959
17	0x4042fa5d	3.046531
18	0xc00fc732	-2.246533
19	0xbff0d989	-1.8816386
20	0x4115ea66	9.369726
21	0xc01f4210	-2.4884071
22	0x3f156f3e	0.5837287
23	0xbf9fecd7	-1.2494153
24	0x40a362f8	5.105831
25	0x3f6efecf	0.9335756
26	0xbf16877d	-0.5880049
27	0xc15412bb	-13.254573
28	0x3eac8a10	0.33699083
29	0xc0bb29f4	-5.848871
30	0xbf42539a	-0.75908816
31	0x4087f652	4.2488184
32	0xc013a574	-2.3069735
33	0xbf7be4d4	-0.9839604
34	0x410b2a02	8.697756
35	0xbee3bc1a	-0.44479448
36	0x3f3535aa	0.7078501
37	0x400ea2b0	2.2286797
38	0xc0d9e188	-6.8087807
39	0xc09c63ae	-4.887168
40	0xc01cae40	-2.4481354
41	0xc01cbf0a	-2.44916
42	0xbffe2b4e	-1.9856966
43	0xbe539763	-0.20663218
44	0x402c5295	2.6925404
45	0x3fe1cf6d	1.7641426
46	0x411f225d	9.945889
47	0x413b9a7a	11.725214
48	0xc00f348b	-2.237582
49	0x401136e6	2.2689757
50	0x406c0071	3.687527
51	0xbfff3238	-1.99372
52	0x41b1ecf2	22.240696
53	0x41234087	10.203254
54	0xbe8530b4	-0.2601372
55	0x40aeae70	5.4587936
56	0xbec5551f	-0.38541505
57	0xc08634af	-4.193931
58	0xc076159c	-3.845069
59	0xbf4666de	-0.7750071
60	0xc0fb1ea2	-7.8474894
61	0xc0f9fbb3	-7.811975
62	0x3fa07653	1.253611
63	0x3f180d27	0.5939507
64	0x3f57a473	0.84235305
65	0x40b69b58	5.706463
66	0xc0ce8fb7	-6.4550433
67	0xbfdf4477	-1.7442769
68	0xbfc75128	-1.5571642
69	0xbf3d73f2	-0.74005044
70	0x415e6689	13.900033
71	0xbfe5b5de	-1.7946126
72	0xc09fdb98	-4.995556
73	0x3f78cfc5	0.9719203
74	0x413436f7	11.263419
75	0xbf782be4	-0.9694197
76	0xc08d8c9d	-4.4234147
77	0xbfedf894	-1.8591485
78	0xbfd8a467	-1.6925172
79	0xbfa4fb27	-1.2889146
80	0xbf933c9f	-1.1502875
81	0xbf0f490f	-0.55970854
82	0xc05f28fb	-3.4868762
83	0xc0af7ce7	-5.483997
84	0x3fca9ca2	1.582905
85	0x409d4918	4.9151726
86	0xc039829c	-2.8985968
87	0xc06709f9	-3.6099837
88	0xbf00d642	-0.5032693
89	0xbf3d762a	-0.7400843
90	0xbf59851d	-0.8496874
91	0x3f8e4ec7	1.1117791
92	0xc0e9086b	-7.2822776
93	0x409783ad	4.7348237
94	0x3e920bbd	0.2852458
95	0x3f221653	0.63315314
96	0x40d35586	6.60419
97	0xc060548e	-3.5051608
98	0x40d5dc1f	6.6831203
99	0xc02a37cc	-2.6596556
100	0x413a564f	11.646071
101	0xc0506cf9	-3.2566512
102	0x40cbdb5a	6.3705263
103	0x3f8f16d1	1.1178838
104	0xbeef27ed	-0.46710148
105	0x40f05121	7.5099034
106	0xb8ababe2	-8.185931e-05
107	0xc09f5ddc	-4.9802074
108	0xc08b9526	-4.3619566
109	0xc097ab3e	-4.7396536
110	0xbee6f8a5	-0.45111576
111	0x4142c132	12.172167
112	0xc0242d11	-2.5652506
113	0xc020399d	-2.5035164
114	0xbf426e3d	-0.7594946
115	0xc03e60da	-2.9746614
116	0xc101e238	-8.117729
117	0xc0061e85	-2.0956128
118	0x41578d90	13.472061
119	0xbeff5cec	-0.4987558
120	0xbf983aaa	-1.1892903
121	0xbf7f5f7a	-0.9975506
122	0xbeee60fb	-0.46558365
123	0xbfa9f1ac	-1.3276877
124	0xbf140c4e	-0.57831275
125	0xc0017266	-2.0226073
126	0xc08f2700	-4.4735107
127	0x3fc1e298	1.5147276

bns.0.bias f4 [128]
0	0xc081fc37	-4.062038
1	0xc1852a04	-16.645515
2	0xc15f7e86	-13.9683895
3	0xc1cf14a8	-25.885086
4	0xc11e3e60	-9.890228
5	0xc0fcfa44	-7.90555
6	0xc0d29f4d	-6.581946
7	0xc0b2f5a3	-5.592485
8	0x40b3d6be	5.6199636
9	0xc06e6ffa	-3.7255845
10	0x413be662	11.743746
11	0xc11572dd	-9.340543
12	0x411135e6	9.075659
13	0xc0aac2bd	-5.336272
14	0xc1074181	-8.453492
15	0xc0f44376	-7.633235
16	0xc09f33e9	-4.9750867
17	0xc1429a50	-12.162674
18	0xc0e21440	-7.064972
19	0xc0e837e3	-7.256822
20	0xc19227f2	-18.269505
21	0xc0cc3f87	-6.382755
22	0xc0b5f71f	-5.686416
23	0xc0a16bfc	-5.0444317
24	0x41203c18	10.014671
25	0xc0fd0dc1	-7.907929
26	0xc1122449	-9.133859
27	0x410c3565	8.763036
28	0x404bfa2e	3.1871448
29	0x4120adac	10.0424
30	0xc0ef5199	-7.4787107
31	0x4117fdb3	9.499438
32	0xc0d4bb48	-6.6478615
33	0xc0d8c50f	-6.774055
34	0x4049408c	3.1445646
35	0xc109adbb	-8.604915
36	0xc0c07c67	-6.015186
37	0xc10cf710	-8.810318
38	0xc19c9961	-19.574892
39	0xc15e6cd0	-13.901566
40	0xc0b51b2e	-5.659568
41	0xc101d7fb	-8.11523
42	0xc1025ff3	-8.148425
43	0xc10ae06f	-8.679793
44	0x411b9df6	9.726065
45	0xc1096364	-8.586765
46	0xc1ad4349	-21.657854
47	0x3f003a4c	0.50088954
48	0xc0f32b72	-7.5990534
49	0xc1202da9	-10.0111475
50	0x40adf288	5.435856
51	0xc0c12c74	-6.0366764
52	0xc18c72d1	-17.556063
53	0xbd555460	-0.05208242
54	0xbf99687f	-1.1985015
55	0xc006159a	-2.0950685
56	0xc0f259a7	-7.573444
57	0xc1356fcc	-11.339794
58	0xc10d3fae	-8.828047
59	0xc0e535be	-7.1628103
60	0x409e01d4	4.937723
61	0xc19e4729	-19.784746
62	0xc087800f	-4.234382
63	0xc0af3569	-5.47527
64	0xc0035d4d	-2.0525696
65	0xc15da1a9	-13.851968
66	0xc1836ec8	-16.429092
67	0xc111576f	-9.083846
68	0xc08f8d39	-4.485989
69	0xc0f361bc	-7.6056805
70	0xc144fe12	-12.312029
71	0xc0f05f05	-7.511599
72	0xc1514830	-13.080124
73	0xc0a66010	-5.1992264
74	0xc1c08d50	-24.069
75	0xc1101edd	-9.007535
76	0xc13725ba	-11.446711
77	0xc0aaa180	-5.3322144
78	0x4123a50f	10.2277975
79	0xc097870a	-4.7352343
80	0xc0e30ded	-7.09545
81	0xc0dca9ec	-6.8957424
82	0xc0894721	-4.2899327
83	0xc187ba6d	-16.966028
84	0xc10951c1	-8.582459
85	0xc1418335	-12.094533
86	0xc0d05749	-6.510655
87	0xc13795c0	-11.47406
88	0xc06b2021	-3.673836
89	0xc1019472	-8.098742
90	0xc0dee08e	-6.9649115
91	0xc0d65781	-6.6981816
92	0xc112461e	-9.142118
93	0x412a7493	10.6534605
94	0xc0ec1e21	-7.378678
95	0xc07ea0e6	-3.9785705
96	0xc182cb05	-16.34913
97	0xc0b94d61	-5.7906957
98	0xc1928282	-18.313725
99	0xbe3ca6b8	-0.18422973
100	0xc1b94a28	-23.16121
101	0xc0a7e4eb	-5.246694
102	0x41294233	10.578662
103	0xc10f0b46	-8.940252
104	0xc0fc87d9	-7.891583
105	0xc1972e93	-18.897741
106	0x4098b5cb	4.7721915
107	0xc153886a	-13.220804
108	0xc11410af	-9.254073
109	0xc08de4cf	-4.4341807
110	0xc0f4e881	-7.653382
111	0xc1bd888c	-23.691673
112	0xc0e15da4	-7.0426807
113	0xc0cebf4d	-6.460852
114	0xc11d3c36	-9.8272
115	0xc0993f44	-4.788973
116	0xc1a599ae	-20.700039
117	0x41a4aba1	20.583803
118	0xc0b538ab	-5.6631675
119	0xc12d6a5d	-10.838468
120	0xc05fcdb1	-3.4969294
121	0xc0d3b43e	-6.615752
122	0xc0f5d0dc	-7.6817455
123	0xc0bdcbac	-5.9311123
124	0xc101d547	-8.11457
125	0xc0e7e416	-7.2465925
126	0xc15201b8	-13.12542
127	0xc10de05d	-8.867276

bns.0.running_mean f4 [128]
0	0xbf3f5cd0	-0.74750996
1	0xbe530efd	-0.20611186
2	0xbe9be9ed	-0.3045191
3	0x3ea9b234	0.3314377
4	0xbd40f356	-0.047107063
5	0x3e543771	0.20724274
6	0x3ea44e46	0.32090968
7	0xbe87e9c2	-0.2654553
8	0x3ed3f3fa	0.41397077
9	0xbea59031	-0.32336572
10	0xbe80ba3c	-0.25142086
11	0xc00460ff	-2.0684202
12	0x3ef7f51c	0.4842919
13	0x3fa3fa11	1.2810689
14	0xbf14785c	-0.57996154
15	0xbf11f21d	-0.5701006
16	0xbeb2e561	-0.34940627
17	0x3fcd6b36	1.6048343
18	0xbf4c269f	-0.7974643
19	0x3fa8c112	1.318392
20	0x3fbb0cb5	1.4613253
21	0x3f8c3e0b	1.0956434
22	0x3fa7c858	1.3108015
23	0xbefc64c5	-0.4929563
24	0x3f7a21c1	0.97707754
25	0xbf39a198	-0.725122
26	0xbe9bcfa2	-0.3043185
27	0x3edab04e	0.42712635
28	0x3efa7b32	0.48922116
29	0x3d806692	0.06269564
30	0xbff11101	-1.8833314
31	0x40460259	3.0938933
32	0xbfd5c34d	-1.6700226
33	0x3fb4191e	1.4070165
34	0x3f1f3ec6	0.6220516
35	0xbfacebb9	-1.3509437
36	0xbf6912e6	-0.9104446
37	0xbff32482	-1.8995516
38	0xbf83d906	-1.0300605
39	0xbf5ffee9	-0.8749834
40	0x3f228c7d	0.6349562
41	0xbf598134	-0.84962773
42	0xbf89f0a4	-1.0776563
43	0xbed5a34c	-0.41726148
44	0xbf54cd11	-0.83125407
45	0xbdbc2a9d	-0.09187815
46	0x3f80fb51	1.0076696
47	0x3fce2f35	1.6108156
48	0x3f9ea408	1.2393808
49	0xbfaaeb07	-1.3352975
50	0x3dde4958	0.10853833
51	0xbec49584	-0.3839532
52	0xc008ec1c	-2.139411
53	0xbf864187	-1.0488747
54	0xbf0acbbe	-0.54217136
55	0x3fe85aa1	1.8152658
56	0xbee9c501	-0.45658115
57	0xbec4c458	-0.38431048
58	0x3f09bc46	0.5380291
59	0xbf7f52c8	-0.9973569
60	0x3f157b1b	0.5839097
61	0xbf23967c	-0.63901496
62	0xbf0e331c	-0.55546737
63	0x3f659aa7	0.89689106
64	0xbf7a532a	-0.9778315
65	0x3f3021fa	0.68801844
66	0xbe30212e	-0.17200157
67	0x3f7a9769	0.97887284
68	0x3fdf6b58	1.7454634
69	0x3f800663	1.0001949
70	0xbe3a927e	-0.18219945
71	0xbeba47dd	-0.36382952
72	0xbf2c499b	-0.67299813
73	0x3fbc9570	1.4733105
74	0x3e183a90	0.1486609
75	0x3f2ebbd4	0.6825535
76	0xbf3827de	-0.7193583
77	0xbfe9c67e	-1.82637
78	0x3f47885e	0.77942455
79	0x3fea4d0e	1.8304765
80	0xbed6f727	-0.41985437
81	0x3f00dfb2	0.5034133
82	0x3f48d98e	0.7845696
83	0x3eaf7bd7	0.3427417
84	0xbf3bac26	-0.7330955
85	0x3e819309	0.2530749
86	0xbf909472	-1.1295302
87	0xbf619edf	-0.88133043
88	0xbf2d1272	-0.6760627
89	0x3fc61522	1.5475199
90	0x3f3e4d66	0.7433685
91	0x3f9a4a33	1.2053894
92	0x3fc8f4af	1.5699672
93	0xbf033da8	-0.51265955
94	0xbe238e9e	-0.15972373
95	0xbf01d10c	-0.50709605
96	0xbe9e40cb	-0.30908808
97	0xbf8506bc	-1.039268
98	0xbe4737e2	-0.19454911
99	0xbf827d94	-1.0194573
100	0x3f2fcafb	0.686691
101	0x3e0a4268	0.13501894
102	0x3fab2e61	1.3373529
103	0xbffaff3d	-1.9609143
104	0x3d818b8d	0.06325445
105	0x3e2af668	0.16695559
106	0xbf662274	-0.8989632
107	0x3f08d264	0.5344603
108	0x3eac3b66	0.33639067
109	0x3c96adcf	0.018393425
110	0xbecd4b9f	-0.40096757
111	0xbee8a8a4	-0.45441163
112	0x3fd81a84	1.6883092
113	0x3f9693f1	1.1763898
114	0x3f04a8cb	0.5182006
115	0x3f85b01c	1.0444369
116	0xbfaeabc8	-1.3646173
117	0x3de07bb5	0.10961095
118	0xbee4ed15	-0.4471213
119	0x3f2d296c	0.6764133
120	0x3ef52f51	0.47887662
121	0x3f1b49a4	0.6065924
122	0xbe00d35a	-0.12580624
123	0xbeeb08fb	-0.4590529
124	0x3eb7585c	0.358096
125	0x3fc03e37	1.5018986
126	0xbe1ef297	-0.15522228
127	0x3e836afb	0.25667557

bns.0.running_var f4 [128]
0	0x437ed08c	254.81464
1	0x44d99461	1740.6368
2	0x441c3cb7	624.94867
3	0x441ce4f2	627.5773
4	0x43a70c95	334.0983
5	0x4385c87c	267.56628
6	0x43b36f66	358.8703
7	0x4398529f	304.64548
8	0x43ae67bd	348.81046
9	0x4382260d	260.29727
10	0x43cd370e	410.4301
11	0x4391d073	291.6285
12	0x43a2092a	324.0716
13	0x439ecdec	317.60876
14	0x4420c4cc	643.07495
15	0x43cab929	405.44656
16	0x43923280	292.39453
17	0x43b80558	368.04175
18	0x43aa06a0	340.05176
19	0x43901423	288.15732
20	0x43be353b	380.41586
21	0x438c0163	280.01083
22	0x43e1c358	451.52612
23	0x43b6d0f2	365.6324
24	0x43985d39	304.7283
25	0x4394a261	297.2686
26	0x439df663	315.9249
27	0x44a86705	1347.2194
28	0x43af57a0	350.68457
29	0x44a373e3	1307.6215
30	0x439f69b9	318.82596
31	0x43af5a07	350.70334
32	0x43743a72	244.2283
33	0x438f08b5	286.06802
34	0x4414c9e4	595.15454
35	0x4393f415	295.9069
36	0x4371ec14	241.92218
37	0x439767be	302.8105
38	0x441f3bd1	636.93463
39	0x444774bc	797.824
40	0x43acf393	345.90292
41	0x439c62fd	312.77335
42	0x4351a3c7	209.63976
43	0x43c0fffb	385.99985
44	0x4385b81e	267.43842
45	0x43923b3d	292.4628
46	0x43d08a33	417.07968
47	0x44292245	676.53546
48	0x438ffa5d	287.95596
49	0x43b17a93	354.9576
50	0x43c4d725	393.68082
51	0x430e8e59	142.55605
52	0x452f7e23	2807.8835
53	0x441ffbad	639.93243
54	0x439a35ae	308.41937
55	0x439ced0d	313.85196
56	0x439c4451	312.53372
57	0x440cb870	562.88184
58	0x43784ebe	248.30759
59	0x439f8bb0	319.0913
60	0x43c2a5cb	389.29526
61	0x4444dc36	787.4408
62	0x43d2c312	421.524
63	0x43ca1d07	404.22678
64	0x43ca7251	404.8931
65	0x43ba9e2b	373.2357
66	0x43bb28d1	374.31888
67	0x43992f52	306.3697
68	0x43362cb6	182.17465
69	0x43a0cf25	321.61832
70	0x441c8a29	626.15875
71	0x43a13713	322.43027
72	0x43bcc3e1	377.5303
73	0x43e42adc	456.33484
74	0x44048f18	530.23584
75	0x43a13730	322.43115
76	0x4417581b	605.37665
77	0x4367f747	231.96593
78	0x44633d51	908.95807
79	0x439766b8	302.8025
80	0x4334d446	180.8292
81	0x439d6d23	314.85263
82	0x4383571b	262.6805
83	0x439fb12d	319.3842
84	0x438c55af	280.6694
85	0x43ac4111	344.50833
86	0x4393ad29	295.3528
87	0x434b1c65	203.11092
88	0x43c40eca	392.11554
89	0x43a8c304	337.52356
90	0x43e8bed1	465.49075
91	0x43917d8e	290.9809
92	0x44069b7e	538.42957
93	0x43902472	288.28473
94	0x43959476	299.15985
95	0x43d1fb3a	419.9627
96	0x440f63b7	573.55804
97	0x43544b88	212.29504
98	0x43b8a8be	369.3183
99	0x434782f8	199.5116
100	0x445cce29	883.22125
101	0x438ec25e	285.5185
102	0x43ae5954	348.69788
103	0x439092c8	289.14673
104	0x439a4176	308.5114
105	0x43edb113	475.3834
106	0x438f4a9a	286.58282
107	0x4424677c	657.61694
108	0x43cdf4dd	411.913
109	0x435cf8c7	220.97179
110	0x43865c42	268.72076
111	0x43f2ab24	485.33704
112	0x43d6cb57	429.5886
113	0x435c7d25	220.48885
114	0x43976b3f	302.83786
115	0x43875afb	270.7108
116	0x448737d9	1081.7452
117	0x450baca1	2234.7893
118	0x4484ac63	1061.3871
119	0x43a1d92e	323.69672
120	0x4386ce30	269.61084
121	0x43921033	292.12656
122	0x438b28e9	278.3196
123	0x43b5d7e6	363.6867
124	0x43a472b4	328.89612
125	0x43a0aecf	321.3657
126	0x43d8090e	432.07074
127	0x43a16135	322.75943

bns.1.weight f4 [128]
0	0x402aea9c	2.6705694
1	0xc020e3f6	-2.5139136
2	0x3fbef130	1.4917355
3	0x406fd8d5	3.7476094
4	0xc044e489	-3.0764487
5	0xc03648dd	-2.8481972
6	0x3f897e61	1.0741693
7	0x4035a296	2.8380485
8	0x3f80ea1d	1.0071446
9	0xc00107f6	-2.016111
10	0x3fc61d80	1.5477753
11	0xbe9c6a1d	-0.30549708
12	0xc05b6326	-3.4279265
13	0xbe23230f	-0.15931343
14	0x402c0fb9	2.6884596
15	0xc0179a73	-2.3688018
16	0x407c3505	3.940736
17	0xbf8f3152	-1.1186926
18	0x404dde4d	3.2166932
19	0x40562b86	3.3464065
20	0xc0207a82	-2.5074773
21	0x40201542	2.5012975
22	0x4087332b	4.224996
23	0xbdda80e1	-0.10669113
24	0x404360c8	3.052782
25	0x408675de	4.201888
26	0x3f5d8db6	0.8654436
27	0xbf76276b	-0.961539
28	0x40166a0a	2.350222
29	0xc0393319	-2.8937438
30	0x3e0aee3f	0.13567446
31	0x4066610e	3.5996737
32	0xc036ce41	-2.8563387
33	0x4074a2cc	3.8224363
34	0x3f555544	0.8333323
35	0x40693b57	3.6442468
36	0x404da18a	3.2129846
37	0xbfe13c8a	-1.75966
38	0xc03a8a3d	-2.9146874
39	0xc02c65ea	-2.6937203
40	0xbd30000e	-0.042968802
41	0x3fd1b3b1	1.6382962
42	0x40271fa2	2.6113057
43	0x401769d1	2.3658335
44	0xc0c6dee0	-6.2147064
45	0x404052dd	3.0050576
46	0xc043b518	-3.057928
47	0xc01a027a	-2.4064012
48	0x3fe06329	1.7530261
49	0xc03ab116	-2.9170585
50	0xc15b0bae	-13.6903515
51	0x406ceb08	3.7018452
52	0xc01af274	-2.4210482
53	0x3fc96005	1.5732428
54	0x400cd293	2.2003524
55	0xc0374e62	-2.864159
56	0x4016b1fc	2.3546133
57	0x40110402	2.2658696
58	0xc0300118	-2.7500668
59	0xc0189793	-2.3842514
60	0xbff588ea	-1.9182408
61	0x4077f4de	3.8743205
62	0xbf3f93fb	-0.74835175
63	0x3f88a43b	1.0675119
64	0x402ddfa6	2.7167754
65	0x4011db34	2.279004
66	0xc02955e9	-2.6458685
67	0xbf115d3d	-0.56782895
68	0x4046c512	3.1057782
69	0xc022f35b	-2.5461032
70	0x3ef248c7	0.4732115
71	0xc0109dbb	-2.259627
72	0xc04a5b35	-3.1618168
73	0x4065ab89	3.5885947
74	0x4037db21	2.8727496
75	0x4070108a	3.7510095
76	0x3ff901cc	1.9453673
77	0x40275073	2.6142852
78	0xc014614a	-2.318438
79	0x3f690325	0.91020423
80	0x402fe4eb	2.748347
81	0x4064fad1	3.5778086
82	0x3fd8dd6f	1.6942576
83	0xbf947a9a	-1.1599915
84	0x4042c4a3	3.0432518
85	0xc047e88b	-3.1235683
86	0x404c6f57	3.1942956
87	0xc04a9286	-3.165193
88	0xc02215c6	-2.532579
89	0x40730829	3.797373
90	0xc03aebde	-2.9206462
91	0xbfb86153	-1.4404701
92	0x3f2cd284	0.6750872
93	0xbedf4dde	-0.43614095
94	0xc037fd8d	-2.8748505
95	0x3fd171e6	1.6362884
96	0xc0fdfd45	-7.9371667
97	0xbfd9e1b7	-1.7022008
98	0xc03ba820	-2.9321365
99	0x406cb4c1	3.6985323
100	0x4116b3f7	9.418937
101	0x404d1075	3.2041295
102	0xc02b9547	-2.6809862
103	0x40414b59	3.0202239
104	0x4077a3bf	3.8693693
105	0xbff7fab7	-1.9373387
106	0x407019a1	3.7515643
107	0x4014acf2	2.3230557
108	0x4031086f	2.7661397
109	0xc01fbb4a	-2.4958062
110	0xc024ffe0	-2.5781174
111	0xc050cf49	-3.2626517
112	0x4041a715	3.0258229
113	0x402300ea	2.5469308
114	0x403dbdfa	2.9647202
115	0x406d3eef	3.7069662
116	0xbfdb4286	-1.7129676
117	0xc03b5ba2	-2.9274678
118	0xc0299712	-2.6498456
119	0xc000d3a5	-2.0129178
120	0x4063c306	3.5587783
121	0xbfb8b3a1	-1.4429818
122	0xbfd009c5	-1.6252981
123	0x406e3bb5	3.7223942
124	0xbf860cc9	-1.0472652
125	0x400f5652	2.2396436
126	0xbeaca8be	-0.3372249
127	0xc0504ca1	-3.254677

bns.1.bias f4 [128]
0	0xc0e5a1c7	-7.175998
1	0xc0f02b74	-7.5053043
2	0xc124269b	-10.259425
3	0xc117d39a	-9.489161
4	0xc0e27159	-7.0763364
5	0xc0e8fbe4	-7.2807484
6	0xc12e9dc9	-10.913522
7	0xc109ada2	-8.604891
8	0xc12898c0	-10.5372925
9	0xc0ed6c75	-7.4194894
10	0xc125e1ec	-10.367657
11	0xc10da22b	-8.852092
12	0xc0d9e8a8	-6.8096504
13	0xc10995fb	-8.599116
14	0xc12c7b1a	-10.780054
15	0xc0e8161d	-7.2526994
16	0xc1270796	-10.439352
17	0xc0f88c7b	-7.7671485
18	0xc1199a00	-9.600098
19	0xc1140803	-9.251956
20	0xc0ead951	-7.339028
21	0xc0bd18bd	-5.90927
22	0xc124892e	-10.283491
23	0xc102151e	-8.130156
24	0xc0e84695	-7.258616
25	0xc11ba720	-9.728302
26	0xc12091a3	-10.035556
27	0xc108c5e6	-8.548315
28	0xc11ecedc	-9.925503
29	0xc0e35695	-7.104319
30	0xc0bd1164	-5.908373
31	0xc1239741	-10.224427
32	0xc0e4cedd	-7.150252
33	0xc1231937	-10.193656
34	0xc105daa3	-8.365878
35	0xc1211fbe	-10.07025
36	0xc117b4b1	-9.481614
37	0xc0f6b6c4	-7.7098103
38	0xc0e32f97	-7.0995593
39	0xc0ec63dd	-7.3871903
40	0xc11ba2a1	-9.727204
41	0xc07f5360	-3.9894638
42	0xc1264d8d	-10.393933
43	0xc1033929	-8.201455
44	0xc166e9cc	-14.432079
45	0xc134e7da	-11.306604
46	0xc0e401e9	-7.125233
47	0xc0ecad29	-7.3961377
48	0xc0fcb77d	-7.8973985
49	0xc0e39cf1	-7.112908
50	0xc2036336	-32.846886
51	0xc11ecd30	-9.925095
52	0xc0e9fbcb	-7.3119864
53	0xc129b5f9	-10.606927
54	0xc109a7af	-8.603438
55	0xc0e673c9	-7.201634
56	0xc1176916	-9.463156
57	0xc1230100	-10.187744
58	0xc0e91708	-7.2840614
59	0xc0ea70a0	-7.326248
60	0xc1020f5b	-8.128749
61	0xc122c0d7	-10.17208
62	0xc1131769	-9.193215
63	0xc07f956b	-3.9934947
64	0xc0c5466c	-6.1648464
65	0xc0d3b335	-6.615626
66	0xc0e368c3	-7.1065383
67	0xc1086f2c	-8.527142
68	0xc0fe3632	-7.9441156
69	0xc0ee413d	-7.4454637
70	0xc120a969	-10.04136
71	0xc0f802d9	-7.7503476
72	0xc0e1ad3b	-7.0523963
73	0xc122e3d6	-10.180624
74	0xc111b4d7	-9.10665
75	0xc12a1d91	-10.632218
76	0xc0f701f0	-7.7189865
77	0xc1253e0d	-10.327649
78	0xc0ed52ca	-7.416356
79	0xc117820a	-9.469248
80	0xc0e58e53	-7.1736236
81	0xc11a35f1	-9.638169
82	0x3f989259	1.1919662
83	0xc1071d93	-8.44472
84	0xc1273707	-10.450934
85	0xc0e38d95	-7.111033
86	0xc10f1b0b	-8.944102
87	0xc0de9fe2	-6.957017
88	0xc0ef9b67	-7.48772
89	0xc11bf464	-9.747166
90	0xc0e8c340	-7.273834
91	0xc0fc91b1	-7.8927846
92	0xc11613a0	-9.379791
93	0xc0c9d685	-6.3074365
94	0xc0e823e0	-7.2543793
95	0xc0828d54	-4.079752
96	0xc1b882a2	-23.063786
97	0xc0f9eb55	-7.809977
98	0xc0ed9911	-7.424935
99	0xc121d45f	-10.114348
100	0xc1da5dbc	-27.295769
101	0xc109c0e0	-8.609589
102	0xc0e98e8f	-7.298652
103	0xc0fa2f0e	-7.818244
104	0xc11eb5f3	-9.919421
105	0xc0f5ae94	-7.677561
106	0xc129cb50	-10.612137
107	0xc125b99b	-10.357814
108	0xc124ea5a	-10.307215
109	0xc0dfc116	-6.99232
110	0xc0eaff6e	-7.3436804
111	0xc0e07ab2	-7.0149775
112	0xc10839e1	-8.514131
113	0xc0d1423a	-6.5393343
114	0xc0f2c3d8	-7.5864067
115	0xc117c3a5	-9.485265
116	0xc0fdda0a	-7.932866
117	0xc0e5d4cb	-7.1822257
118	0xc0e59788	-7.1747475
119	0xc0fd8864	-7.9228992
120	0xc11af3d5	-9.684529
121	0xc0f5a305	-7.67615
122	0xc103651d	-8.212186
123	0xc1233f7e	-10.203001
124	0xc0fe6d70	-7.950859
125	0xc0ee6d85	-7.450869
126	0xc00d7bf5	-2.2106907
127	0xc0e2dd0f	-7.0894847

bns.1.running_mean f4 [128]
0	0xc40a9516	-554.32947
1	0x4352bbef	210.73412
2	0x3f0772b2	0.52909386
3	0x42a333bd	81.60105
4	0x43ca07dd	404.06143
5	0x4401473b	517.113
6	0x44638ddd	910.2166
7	0x42b8dfb7	92.43694
8	0xc2ea080c	-117.01572
9	0x43829040	261.12695
10	0x43073b27	135.23106
11	0x43def3b5	445.90396
12	0x439d445b	314.53403
13	0x4463c02b	911.0026
14	0xc377063a	-247.02432
15	0x43ec7cbc	472.9745
16	0xc3e96a22	-466.82916
17	0x43d29078	421.12866
18	0xc39cf3b0	-313.9038
19	0xc329b441	-169.70412
20	0x43020110	130.00415
21	0xc3b743fe	-366.5312
22	0xc38ec765	-285.55777
23	0x436b7400	235.45312
24	0xc38a1fd9	-276.2488
25	0xc3e5f6ae	-459.9272
26	0xc2e4782b	-114.2347
27	0x4433a732	718.6124
28	0xc3117ced	-145.48799
29	0x4403dfee	527.4989
30	0xc3e79200	-463.14062
31	0xc3c023e9	-384.28055
32	0x4419da29	615.40875
33	0xc3b888e0	-369.06934
34	0xc3a4bdc2	-329.48248
35	0x42f5c3df	122.88256
36	0xc369c574	-233.7713
37	0x43b5b5d0	363.4204
38	0x43c81841	400.18948
39	0x43b9e46f	371.78464
40	0x442e1c37	696.44086
41	0xc3ea54b8	-468.66187
42	0x42d2135e	105.03783
43	0xc4103a1b	-576.9079
44	0x4395a5a5	299.2941
45	0xc3d42c3d	-424.3456
46	0x439fdbab	319.71616
47	0x4404f0f1	531.7647
48	0xc3a8a6df	-337.30368
49	0x441c294e	624.6454
50	0x43d63dfe	428.4843
51	0xc3a51285	-330.14468
52	0x43fb1358	502.15112
53	0xc3ecf4a1	-473.91116
54	0xc36b7b86	-235.48251
55	0x441ef077	635.75726
56	0x42b71736	91.545334
57	0x41b894ad	23.072596
58	0x438d2f1f	282.36813
59	0x4413b1ae	590.77625
60	0x43c12bdf	386.34274
61	0xc386a6fe	-269.30463
62	0x4323b93e	163.7236
63	0xc417195b	-604.3962
64	0xc431bcc0	-710.9492
65	0xc412a716	-586.6107
66	0x43e9acfe	467.3515
67	0x442d8858	694.1304
68	0xc428c676	-675.10095
69	0x4299c9f4	76.89444
70	0x428a13e0	69.03882
71	0x43e3a30e	455.27386
72	0x43fdee39	507.8611
73	0xc3311722	-177.09036
74	0xc2292432	-42.285347
75	0xc4075215	-541.28253
76	0xc3c8e1a0	-401.7627
77	0xc11a9ebd	-9.663754
78	0x438fe967	287.82346
79	0x441777d3	605.87225
80	0xc1ed1ac0	-29.638062
81	0xc356b37a	-214.70108
82	0xc431dfed	-711.49884
83	0x4405181f	532.3769
84	0xc39c81c3	-313.01376
85	0x44019d2e	518.45593
86	0xc39242cc	-292.52185
87	0x438907bd	274.06046
88	0x43fd08e2	506.0694
89	0xc3af21ab	-350.26303
90	0x43a8676e	336.80804
91	0x43342010	180.12524
92	0x4419db2c	615.42456
93	0xc3987768	-304.93286
94	0x44303d7a	704.9606
95	0xc40e8767	-570.11566
96	0x44ada706	1389.2195
97	0x43847345	264.90054
98	0x4390195b	288.1981
99	0x43666e31	230.43044
100	0xc42efcb1	-699.9483
101	0xc34ce19f	-204.88133
102	0x44068a0d	538.15704
103	0xc39a90a0	-309.12988
104	0xc3ce7d80	-412.98047
105	0x43491b07	201.10558
106	0xbf5d08f1	-0.8634177
107	0xc338e735	-184.90315
108	0xc37ca0f5	-252.62874
109	0x4405b743	534.86346
110	0x440f2b32	572.6749
111	0x442677ce	665.87195
112	0xc37441ac	-244.25653
113	0xc3d62a3d	-428.33
114	0xc42126bb	-644.60516
115	0xc386148a	-268.16046
116	0xc1dd2877	-27.644758
117	0x43c544db	394.53793
118	0x441a53a4	617.3069
119	0x43e6700a	460.8753
120	0xc3e4feaf	-457.98972
121	0x44059b31	534.42487
122	0x43b3073f	358.0566
123	0xc3a8819e	-337.01263
124	0x443f9012	766.2511
125	0xc412665b	-585.5993
126	0xc454ab40	-850.6758
127	0x43e75134	462.6344

bns.1.running_var f4 [128]
0	0x480e8b7c	145965.94
1	0x473a4458	47684.344
2	0x4781c303	66438.02
3	0x471bc65d	39878.363
4	0x478f6d63	73434.77
5	0x47aa53f4	87207.91
6	0x48250522	168980.53
7	0x47651a8b	58650.543
8	0x475618bd	54808.74
9	0x476fc080	61376.5
10	0x4720bb68	41147.406
11	0x4733c89a	46024.6
12	0x473de68c	48614.547
13	0x47e90149	119298.57
14	0x474de38d	52707.55
15	0x47d3258f	108107.12
16	0x47e90b77	119318.93
17	0x47a6a667	85324.805
18	0x478f23fe	73287.984
19	0x478322a5	67141.29
20	0x473718a1	46872.63
21	0x47dfe76b	114638.836
22	0x4796e665	77260.79
23	0x47965a41	76980.51
24	0x47c6cd73	101786.9
25	0x47d34156	108162.67
26	0x47b2d8ae	91569.36
27	0x481c2001	159872.02
28	0x4787bf6a	69502.83
29	0x47a5dd5e	84922.734
30	0x47daebd8	112087.69
31	0x484a2298	206986.38
32	0x47a5a9d7	84819.68
33	0x47ae9844	89392.53
34	0x47e855fb	118955.96
35	0x471bde4b	39902.293
36	0x47b3acf1	91993.88
37	0x47ae1f0c	89150.09
38	0x46ee06e1	30467.44
39	0x47998e1a	78620.2
40	0x47bcccc3	96665.52
41	0x47e59c4c	117560.59
42	0x478c4694	71821.16
43	0x48140c67	151601.61
44	0x480810ed	139331.7
45	0x483692b1	186954.77
46	0x478626e4	68685.78
47	0x47a8be7a	86396.95
48	0x47afb864	89968.78
49	0x4744ed7d	50413.49
50	0x48ae97cf	357566.47
51	0x47d19143	107298.52
52	0x478f73bc	73447.47
53	0x47ed4b2f	121494.37
54	0x478c0eeb	71709.836
55	0x47de501b	113824.21
56	0x46f4d5b8	31338.86
57	0x473bf24b	48114.293
58	0x47960aed	76821.85
59	0x4722aa08	41642.03
60	0x4796f6be	77293.484
61	0x4840cf96	197438.34
62	0x474f9aac	53146.67
63	0x47c415c2	100395.516
64	0x4805aa4c	136873.19
65	0x48219826	165472.6
66	0x47bfec8d	98265.1
67	0x47e9d527	119722.305
68	0x47d295ef	107819.87
69	0x4786ff61	69118.76
70	0x4786572f	68782.37
71	0x47a7c702	85902.016
72	0x47bf28fc	97873.97
73	0x473d74be	48500.742
74	0x477b6190	64353.562
75	0x4855feec	219131.69
76	0x47f1abd2	123735.64
77	0x480d432e	144652.72
78	0x4781e2a8	66501.31
79	0x48384551	188693.27
80	0x479d5937	80562.43
81	0x4794fabf	76277.49
82	0x4840e163	197509.55
83	0x47c7cf87	102303.055
84	0x4797fd5b	77818.71
85	0x47efee36	122844.42
86	0x47ca397a	103538.95
87	0x47ba866c	95500.84
88	0x47bdaa5f	97108.74
89	0x47d1e59f	107467.24
90	0x479b661f	79564.24
91	0x478ce73e	72142.484
92	0x475626fa	54822.977
93	0x47d5055c	109066.72
94	0x479a37a5	78959.29
95	0x48007601	131544.02
96	0x4899388f	313796.47
97	0x46badac3	23917.38
98	0x476b23c4	60195.766
99	0x47354eb6	46414.71
100	0x48b9986b	380099.34
101	0x478f788a	73457.08
102	0x4797b7b4	77679.41
103	0x47e447de	116879.734
104	0x47c7a2d2	102213.64
105	0x47521537	53781.215
106	0x47e123e2	115271.766
107	0x47805654	65708.66
108	0x475a36ed	55862.926
109	0x477369ab	62313.668
110	0x477f5d76	65373.46
111	0x47d83ad8	110709.69
112	0x47c9a41b	103240.21
113	0x480164cf	132499.23
114	0x47f235db	124011.71
115	0x479f3bbf	81527.49
116	0x474e554d	52821.3
117	0x478c7885	71921.04
118	0x47e61ce5	117817.79
119	0x47b21d8e	91195.11
120	0x481c9c94	160370.31
121	0x47d26864	107728.78
122	0x47c28305	99590.04
123	0x47c25265	99492.79
124	0x480a8e85	141882.08
125	0x48086483	139666.05
126	0x47d218aa	107569.33
127	0x47ba84cc	95497.59
