saved_data/pge_mlp_distilled.pt (torch, 82255 bytes, 13 tensors)

layers.0.weight f4 [128, 10]
0	0xbe88c891	-0.2671552
1	0xbe990941	-0.29889873
2	0x3de70d88	0.11281878
3	0xbe9c075a	-0.3047436
4	0xbe9a0025	-0.30078235
5	0xbdf91ca0	-0.12163663
6	0xbdd0846a	-0.10181506
7	0xbe0ae27c	-0.1356296
8	0xbea06b6c	-0.31331956
9	0x3e881d4b	0.2658485
10	0xbe8124cf	-0.25223395
11	0x3de5a81c	0.11213705
12	0xbe7dc6fd	-0.2478294
13	0x3e279df6	0.16368851
14	0x3e050096	0.12988505
15	0x3d0b76c8	0.034048826
16	0xbe206ad2	-0.15665749
17	0xbe574978	-0.2102412
18	0x3e3b2188	0.1827451
19	0xbe95a01b	-0.29223713
20	0xbdaec030	-0.085327506
21	0x3e8df339	0.27724627
22	0xbe74056a	-0.2383019
23	0x3dae9dcc	0.08526191
24	0x3e7722b6	0.24134335
25	0xbe688527	-0.22707044
26	0xbe9438e2	-0.28949648
27	0x3e4ef822	0.20211843
28	0xbe86c43f	-0.263216
29	0x3e8313e1	0.25601104
30	0xbdcaf51c	-0.09910032
31	0x3e8b8c59	0.27255514
32	0xba8e5e00	-0.0010861754
33	0x3e962c6f	0.29330775
34	0x3e9ab5e7	0.30216905
35	0x3e85d93d	0.26142302
36	0xbe98d9fb	-0.29853806
37	0xbe82e3bc	-0.25564373
38	0x3e374e80	0.17901039
39	0xbe91b464	-0.2845794
40	0x3dfe16d8	0.12406701
41	0xbe5b97b6	-0.21444592
42	0xbddfa78c	-0.10920629
43	0xbd97d0a2	-0.074128404
44	0x3e7a989e	0.24472281
45	0x3e8e73fb	0.2782286
46	0x3e82984f	0.25506827
47	0x3e62b0c2	0.2213774
48	0xbe970917	-0.29499123
49	0x3d907800	0.07054138
50	0xbe663022	-0.22479299
51	0x3e1e2f2e	0.15447685
52	0x3d9e7f20	0.07739091
53	0xbe28a6da	-0.16469899
54	0x3e662c66	0.22477874
55	0x3e50ca3e	0.2038965
56	0x3d13f3e0	0.03612125
57	0xbe6de399	-0.23231353
58	0x3e962633	0.2932602
59	0x3e3e0af6	0.18558869
60	0x3e4f2e2a	0.20232454
61	0x3e02bf58	0.12768304
62	0xbe90c8b8	-0.28278136
63	0x3de719c0	0.11284208
64	0x3dc80484	0.09766486
65	0x3df44088	0.11926371
66	0xbe18d223	-0.14923911
67	0xbe8fa281	-0.28053668
68	0x3e0ca0aa	0.13733163
69	0x3d6b9450	0.05751449
70	0x3d6b6b28	0.05747524
71	0x3d2adde0	0.041715503
72	0x3d6a8ae8	0.057261378
73	0x3e83ca49	0.2574027
74	0x3d4ba450	0.049717247
75	0xbe006dfe	-0.12541959
76	0x3de43618	0.1114313
77	0xbe26bc35	-0.16282733
78	0x3d99ec78	0.07515806
79	0xbe99a3d6	-0.3000781
80	0x3ccb4db0	0.024817318
81	0x3ea07b83	0.31344232
82	0x3e1e7a86	0.15476426
83	0x3d3ab018	0.045578092
84	0x3e77529a	0.24152604
85	0x3e976a15	0.29573122
86	0x3dbc3dd8	0.09191483
87	0xbe20a483	-0.15687756
88	0xbe7e3b06	-0.24827203
89	0xbd8385c4	-0.06421998
90	0x3ea00135	0.3125092
91	0xbd6cdad8	-0.057825893
92	0x3e9c0083	0.3046914
93	0x3d355350	0.044268906
94	0x3cca6390	0.024705678
95	0xbe936df5	-0.28794828
96	0xbe147545	-0.1449786
97	0x3e07d310	0.13264108
98	0xbd18ee50	-0.037336648
99	0x3e6ec112	0.23315838
100	0xbcf03e20	-0.029326499
101	0x3e0dbc08	0.1384126
102	0xbe76b00a	-0.24090591
103	0x3e713456	0.23555121
104	0x3ce78dd0	0.028265864
105	0x3cc06da0	0.023489773
106	0xbe035572	-0.12825564
107	0x3e9b5233	0.3033615
108	0x3e80c4c1	0.2515011
109	0x3d7b1a70	0.06130451
110	0xbc01bfe0	-0.007919282
111	0xbd139978	-0.03603503
112	0x3e0167d6	0.12637267
113	0xbd29ddf0	-0.04147142
114	0xbc35bac0	-0.011091888
115	0xbdfcd85e	-0.12345956
116	0x3e50a91e	0.20377013
117	0x3e78478e	0.24246046
118	0x3e1787a2	0.14797834
119	0x3e12e4c4	0.1434508
120	0xbc862770	-0.016376227
121	0xba498200	-0.0007686913
122	0x3d6aca50	0.057321846
123	0x3e5e3726	0.21700725
124	0x3cc02050	0.023452908
125	0x3e4bb6c6	0.19893941
126	0xbe8c0661	-0.27348617
127	0x3e3a1fbc	0.18176168
128	0x3dcdcc98	0.10048789
129	0xbdd0324a	-0.10165842
130	0xbd9f06ec	-0.07764992
131	0x3d89db08	0.0673123
132	0x3cdeb1a0	0.027184308
133	0xbe7b373e	-0.24532792
134	0xbdb7994e	-0.089647874
135	0x3e22fa10	0.15915704
136	0xbe1e4bca	-0.15458599
137	0x3e89096d	0.26765004
138	0xbd6131c0	-0.054979086
139	0xbe890b93	-0.26766643
140	0xbdb73020	-0.08944726
141	0xbe84a6a8	-0.259084
142	0x3d73a740	0.059485674
143	0xbde8b686	-0.113629386
144	0xbe935684	-0.28776944
145	0xbd092990	-0.033486903
146	0xbc22b760	-0.009931415
147	0xbce4e560	-0.027941406
148	0xbc047120	-0.008083612
149	0x3e953621	0.2914286
150	0xbe02d45d	-0.12776323
151	0xbe83a15c	-0.25709045
152	0xbd3edb70	-0.04659599
153	0xbe04efb1	-0.1298206
154	0x3d6ea8c0	0.0582664
155	0xbde43a58	-0.11143941
156	0x3e87ca5b	0.26521572
157	0x3de9e3f8	0.11420435
158	0x3e7eefda	0.24896184
159	0xbe107f17	-0.14110981
160	0xbdbe438e	-0.09290229
161	0xbe993795	-0.29925218
162	0xbe5b4646	-0.21413526
163	0x3e7d1b9e	0.24717566
164	0xbe08f702	-0.13375476
165	0x3cbc6940	0.022999406
166	0xbe3130eb	-0.17303817
167	0x3d914d64	0.07094839
168	0xbe417c6a	-0.18895116
169	0xbe6d0188	-0.23145115
170	0xbcb002d0	-0.021485716
171	0x3e2a866c	0.1665284
172	0xbe7864c5	-0.2425719
173	0xbe231e99	-0.15929641
174	0x3e636ae6	0.22208747
175	0xbe1735d3	-0.14766626
176	0x3e70123a	0.23444453
177	0xbe2eb23c	-0.17060179
178	0xbdf47a28	-0.11937362
179	0x3c8fa550	0.017534882
180	0xbe973a0d	-0.29536477
181	0xbe2e8ce1	-0.17045929
182	0x3b0d8d00	0.0021598935
183	0xbe241002	-0.16021731
184	0x3e11e250	0.14246488
185	0xbd59cd68	-0.053174406
186	0x3d88be74	0.06676951
187	0xbd36b978	-0.04461047
188	0x3d90f6a8	0.07078296
189	0x3e54b686	0.20772752
190	0x3e8875d1	0.26652387
191	0xbe5639be	-0.20920464
192	0x3e451002	0.19244388
193	0xbe8bca92	-0.27302986
194	0x3d6ecb58	0.058299392
195	0x3dd3ede0	0.103481054
196	0x3e819c21	0.2531443
197	0xbe0c9f2e	-0.13732597
198	0xbe9cf179	-0.3065298
199	0xbe048f66	-0.12945327
200	0xbdd9ae68	-0.106289685
201	0x3e94a30f	0.29030654
202	0xbafd1f00	-0.0019311607
203	0xbe325e94	-0.17418891
204	0x3e82b7ed	0.2553095
205	0xbdb1521e	-0.08658241
206	0x3e46f14a	0.19427982
207	0x3e2aba04	0.16672522
208	0x3e28615c	0.1644339
209	0xbca2cf00	-0.019874096
210	0x3e05e6e0	0.13076353
211	0xbe4bea90	-0.19913697
212	0xbd4b8158	-0.0496839
213	0x3e82c857	0.25543472
214	0xbdc895f0	-0.09794223
215	0xbe640166	-0.22266158
216	0x3ea010ed	0.31262913
217	0x3d4e22c0	0.05032611
218	0xbe6b1072	-0.22955492
219	0x3e452f3e	0.19256303
220	0xbd2654c0	-0.040608168
221	0xbe5afbcd	-0.21385117
222	0x3e70474a	0.23464695
223	0xbe2c0d27	-0.16801892
224	0xbe34929c	-0.17634052
225	0xbdf37536	-0.118875906
226	0xbe99c20c	-0.3003086
227	0x3dbab5bc	0.09116694
228	0x3b6e2500	0.0036337972
229	0x3e8762e7	0.26442644
230	0xbe7ad75a	-0.24496213
231	0xbcce9bf0	-0.025220841
232	0xbd0f2300	-0.034945488
233	0xbd8ae92e	-0.06782757
234	0x3e9c5a5d	0.30537692
235	0xbe076075	-0.13220389
236	0xbdc8d3b2	-0.09806003
237	0xbdc6c88e	-0.097062215
238	0x3e15c058	0.14624155
239	0x3cd11b70	0.025525779
240	0xbe39de65	-0.18151243
241	0xbca692a0	-0.020333588
242	0x3df2a17c	0.11847207
243	0x3e9b86b1	0.303762
244	0x3d465e18	0.04842958
245	0x3db07364	0.08615759
246	0x3e53744e	0.20649835
247	0x3d12d4a0	0.035847306
248	0xbcaaf3e0	-0.020868242
249	0xbe4b9130	-0.19879603
250	0x3e37460e	0.17897817
251	0xbc4c9620	-0.012486964
252	0x3e9b1505	0.30289474
253	0x3c999550	0.018747956
254	0xbe998f72	-0.29992253
255	0xbe9bdd9c	-0.30442512

layers.0.bias f4 [128]
0	0xbddfd3b8	-0.10929054
1	0xbd990b98	-0.074729145
2	0x3e937221	0.2879801
3	0xbd9aecda	-0.07564707
4	0x3d2ca370	0.042148054
5	0xbe833e04	-0.25633252
6	0x3e1a0fd8	0.15045106
7	0xbd633138	-0.05546686
8	0x3e1bd1e8	0.15216792
9	0xbe1cb63c	-0.15303892
10	0xbe59bd82	-0.21263698
11	0xbdb144ea	-0.086557224
12	0x3de40288	0.11133295
13	0x3dcaa828	0.098953545
14	0x3d9277d0	0.07151759
15	0xbddecc24	-0.108787805
16	0xbdf36232	-0.11883964
17	0x3e50cc52	0.20390442
18	0xbdd0eb4a	-0.10201128
19	0xbe8059c2	-0.2506848
20	0xbe09d533	-0.13460235
21	0x3e5a3522	0.21309331
22	0x3e31622c	0.17322606
23	0x3d9e36ec	0.07725319
24	0xbe83754a	-0.25675422
25	0x3b510580	0.0031894147
26	0x3e20a136	0.15686497
27	0x3d9cc61c	0.07654974
28	0x3c0314e0	0.008000582
29	0xbe8ace8c	-0.27110708
30	0xbe8177e0	-0.2528677
31	0xbe5f14f2	-0.21785334
32	0x3e88e19b	0.26734623
33	0xbe71ecf1	-0.23625542
34	0x3dcd09a4	0.100116044
35	0x3d0e3e30	0.034727275
36	0x3e44ec12	0.19230679
37	0xbe6c0c26	-0.2305151
38	0x3e3be524	0.18349129
39	0xbe7224d6	-0.23646864
40	0x3c875730	0.016521066
41	0xbdc58908	-0.09645277
42	0xbd608878	-0.054817647
43	0x3da4e978	0.08052343
44	0xbe26ffcf	-0.1630852
45	0x3d9bf56c	0.0761517
46	0xbcd9a870	-0.026569575
47	0x3d254e30	0.04035777
48	0xbd6a9cf0	-0.057278574
49	0x3dcd67f4	0.10029593
50	0x3e2bbf52	0.16772202
51	0xbe73a809	-0.23794569
52	0x3e827cb3	0.25485763
53	0x3e733a26	0.2375265
54	0x3d3cd410	0.046100676
55	0x3e197562	0.14986184
56	0x3e5b33fa	0.21406546
57	0xbe4230aa	-0.18963876
58	0xbe860228	-0.2617352
59	0x3db0b364	0.08627966
60	0x3cdf64a0	0.027269661
61	0xbe79a0a2	-0.24377683
62	0xbe1751b9	-0.14777268
63	0x3e1e3462	0.1544967
64	0x3d34fb88	0.04418519
65	0x3caece70	0.021338671
66	0x3d8fb1c0	0.07016325
67	0x3c532340	0.012886822
68	0x3b397700	0.002829969
69	0xbe27c136	-0.16382298
70	0x3e6f780a	0.23385635
71	0xbd1181b8	-0.0355241
72	0x3e86ff8b	0.2636684
73	0x3db8d0d4	0.09024206
74	0x3ceab2c0	0.028649688
75	0x3db72b14	0.089437634
76	0xbe324ae2	-0.17411378
77	0xbe4df2f7	-0.20112215
78	0x3ea15d8d	0.31516686
79	0x3e72ccea	0.23710981
80	0x39a7f400	0.00032034516
81	0xbe99752a	-0.29972202
82	0xbe65dd0c	-0.22447604
83	0xbcf99530	-0.030466646
84	0x3ea14d43	0.3150426
85	0x3e183e8c	0.1486761
86	0x3e198128	0.14990675
87	0x3e506ef6	0.20354828
88	0x3d974dc0	0.073878765
89	0x3e4b0eb6	0.1982983
90	0x3c7c82a0	0.015412003
91	0x3e54975a	0.20760861
92	0xbd08c250	-0.033388436
93	0xbd57fda8	-0.05273214
94	0xbe9a6c89	-0.3016093
95	0x3c83b320	0.016076624
96	0x3e756fb2	0.2396839
97	0x3e96ac41	0.29428294
98	0x3d791508	0.060811073
99	0xbe91fc47	-0.28512785
100	0x3dc685f0	0.09693515
101	0x3e68f022	0.22747853
102	0x3dbf0ae0	0.09328246
103	0x3d06be90	0.03289658
104	0x3e89ee3f	0.2693958
105	0xbe844508	-0.25833917
106	0xbe9f5227	-0.31117365
107	0x3e00f064	0.12591702
108	0xbd5ac980	-0.05341482
109	0x3d86ab74	0.06575671
110	0x3d862a8c	0.06551084
111	0xbd0540a0	-0.032532334
112	0xbde7f192	-0.11325373
113	0x3dddb480	0.10825443
114	0x3d974018	0.07385272
115	0xbdea53fe	-0.114418015
116	0xbd69f328	-0.057116657
117	0xbcaaf310	-0.020867854
118	0xbe2ea723	-0.17055945
119	0x3e66b222	0.2252889
120	0x3d9d4cd8	0.076806724
121	0xbe2a941c	-0.16658062
122	0xbea1a653	-0.31572208
123	0xbe8cebd1	-0.27523664
124	0xbe94644e	-0.28982776
125	0xbdebed04	-0.115198165
126	0xbe9362a9	-0.2878621
127	0xbdb59c84	-0.088677436

layers.1.weight f4 [128, 128]
0	0xbc5634a0	-0.01307407
1	0x3c8f7524	0.017511912
2	0xbda58110	-0.08081257
3	0xbd3aa742	-0.045569666
4	0xbd464883	-0.048408996
5	0xbc8710f8	-0.016487584
6	0x3c2072a0	0.009792954
7	0xbb418760	-0.0029530153
8	0x3cd0a3ec	0.025468789
9	0xbd684a36	-0.056711398
10	0x3c9a2624	0.018817015
11	0x3d05cd64	0.03266658
12	0x3c089528	0.008336343
13	0xbc8fbc34	-0.017545797
14	0xbd2d1585	-0.04225685
15	0x3c64de90	0.013969079
16	0x3acc0940	0.0015566722
17	0xbd4b0139	-0.049561713
18	0xbc8710e8	-0.016487554
19	0x3c95cd5c	0.0182864
20	0xbcbfc9c8	-0.023411646
21	0xbc8e4558	-0.01736705
22	0xbd82ac56	-0.06380527
23	0x3bb54410	0.0055317953
24	0xbd99a52a	-0.07502206
25	0xbc9a0f74	-0.018806197
26	0xbd704179	-0.05865619
27	0xbc5bbf80	-0.013412356
28	0x3cf58d6c	0.029974662
29	0x3d917625	0.071026124
30	0xbc2276c8	-0.009916015
31	0xbc8180e0	-0.015808523
32	0xbbcfabd0	-0.0063376203
33	0x3d7b009a	0.06127987
34	0xbd87a972	-0.06624116
35	0xbcf7437e	-0.03018355
36	0xba289a80	-0.00064317137
37	0x3d6a0872	0.05713696
38	0x3daf7cfd	0.085687615
39	0xbd64015b	-0.055665355
40	0x3ca30948	0.019901887
41	0xbbeeebf0	-0.0072913095
42	0x3da7934f	0.08182394
43	0xbd07c8df	-0.03315055
44	0xbd8dc5e0	-0.06922507
45	0x3da04007	0.07824712
46	0x3da7b9b1	0.08189715
47	0x3d631d8a	0.055448093
48	0xbd1459c1	-0.03621841
49	0x3d674f8a	0.05647234
50	0x3d59a092	0.053131647
51	0xbda7d12b	-0.081941925
52	0xbc376798	-0.011194132
53	0xbd11ea79	-0.035624
54	0xbd8c483b	-0.06849714
55	0x3d100b46	0.035167
56	0xbd16c1f4	-0.036806062
57	0x3d53974a	0.051657952
58	0x3c4401a0	0.011963278
59	0xbbb8bb90	-0.0056375936
60	0x3db44211	0.08801664
61	0x3d75f0fe	0.06004428
62	0xbb162e80	-0.00229159
63	0xbca4ba9c	-0.020108514
64	0xbcfc2e62	-0.030783836
65	0x3d0180ba	0.031616904
66	0x3c1423b0	0.009041712
67	0xbd4bf03f	-0.049789663
68	0x3d9b7983	0.07591536
69	0x3c19c4b8	0.00938528
70	0x3d93ef85	0.07223419
71	0x3d8328e1	0.064042814
72	0x3bc762c0	0.00608477
73	0xbcb636c0	-0.022242904
74	0xbdb15133	-0.08658066
75	0xbd535b48	-0.051600724
76	0x3cd9ccfc	0.026587002
77	0x3d2d101a	0.042251684
78	0x3d4a59ba	0.049401976
79	0x3da444c9	0.08020932
80	0x3ccc8138	0.02496396
81	0xbc5e8560	-0.013581604
82	0x3d066062	0.03280676
83	0xbd8f68c3	-0.070024036
84	0x3d43531a	0.047686674
85	0x3d515432	0.051105686
86	0xbd8f8c08	-0.07009131
87	0xbd6491b4	-0.055803016
88	0x3d868f2d	0.06570277
89	0xbaf3fb00	-0.0018614233
90	0x3ccf0b6c	0.025274001
91	0x3d6f7ab6	0.058466636
92	0x3d4d06be	0.050055258
93	0x3d77f476	0.06053587
94	0x3af28f00	0.0018505752
95	0xbd665a57	-0.0562385
96	0x3d2f088e	0.042732768
97	0x3d74374e	0.059623055
98	0xbd745946	-0.05965545
99	0xbd6ef8c4	-0.05834271
100	0xbceba3da	-0.028764654
101	0x3d04c4a0	0.03241408
102	0xbd361316	-0.044451796
103	0x3d3a69ba	0.045510985
104	0x3d961941	0.073290356
105	0xbd2288ac	-0.03968112
106	0xbd3f9cfe	-0.04678058
107	0x3d506286	0.05087521
108	0xbd5bc485	-0.053654213
109	0x3c9642d8	0.01834242
110	0xbd7d4a00	-0.06183815
111	0xbbc0a700	-0.005879283
112	0x3d6e621e	0.05819904
113	0xbdb08be5	-0.08620433
114	0xbd5be221	-0.05368245
115	0x3d22a572	0.039708562
116	0x3c84a974	0.016194083
117	0x3d8ab0d3	0.06772008
118	0xbd25e5b7	-0.040502276
119	0xb9895a00	-0.00026197731
120	0x3d90a373	0.070624255
121	0xbd2af41c	-0.041736707
122	0x3c9ac1e8	0.01889129
123	0xbc964760	-0.018344581
124	0xbd6f9866	-0.058494948
125	0xbc6d8250	-0.014496401
126	0x3b0aea60	0.0021196827
127	0x3d11ffd8	0.035644382
128	0x3bac8720	0.0052651316
129	0xbd3c85d9	-0.046026085
130	0xbd22af79	-0.039718125
131	0xbda5f6c8	-0.081037104
132	0xbbfbb660	-0.007681653
133	0x3cf3388c	0.02969005
134	0x3c935580	0.017985106
135	0x3cac0ce4	0.02100224
136	0x3d544de2	0.051832087
137	0x3d03b946	0.032159112
138	0x3d35835a	0.04431472
139	0x3d4e94ee	0.050435
140	0x3d995921	0.07487703
141	0x3d9106e5	0.07081393
142	0xbce694ae	-0.028147068
143	0xbd1c827e	-0.038210385
144	0xbd693799	-0.056937788
145	0x3acdb580	0.001569435
146	0x3c10dec8	0.008842178
147	0x3d3adbf2	0.045619912
148	0x3bf664c0	0.0075193346
149	0xbbe22630	-0.006901525
150	0xbda190bc	-0.07888934
151	0xbd084c70	-0.03327602
152	0xbd0306a6	-0.031988762
153	0xbd498157	-0.049195614
154	0x3d810195	0.0629913
155	0xbca19c38	-0.019727811
156	0x3d139008	0.03602603
157	0x3ccfa7a4	0.025348492
158	0x3d3ba0d2	0.045807667
159	0xbda9e486	-0.082955405
160	0xbdb2e1d9	-0.08734483
161	0xbcd20828	-0.025638655
162	0x3aab9900	0.0013091862
163	0xbc97625c	-0.018479519
164	0xbd2ca9b5	-0.042154033
165	0x3d0ec988	0.034860164
166	0x3d82b163	0.0638149
167	0xbd88d554	-0.06681314
168	0xbd9a1421	-0.075233705
169	0x3d876961	0.06611896
170	0xbb302660	-0.0026878342
171	0xbc6da4d8	-0.014504634
172	0xbd41491a	-0.047188856
173	0x3d9d423b	0.07678648
174	0x3d37f482	0.044910915
175	0xbd1e256c	-0.038609907
176	0x3cd6d128	0.02622278
177	0xbd5832ed	-0.05278294
178	0xbc5d70c8	-0.013515659
179	0xbd3af1ea	-0.045640863
180	0x3db46957	0.088091545
181	0xbccdc1d8	-0.025116846
182	0x3bba7ad0	0.00569091
183	0xbc30e2a0	-0.010796219
184	0x3d1d9a3a	0.03847716
185	0x3bab40b0	0.005226217
186	0x3d8b375d	0.06797669
187	0xbcbf0f3c	-0.023322694
188	0xbd17e9ae	-0.03708809
189	0xbd82a9ae	-0.0638002
190	0x3da2884f	0.07936155
191	0xbd002241	-0.031282667
192	0x3cd8a280	0.026444674
193	0x3ca83634	0.020533659
194	0x3d848231	0.064701445
195	0x3d44cfd6	0.04804977
196	0xbd389132	-0.045060344
197	0xbc733cb8	-0.014846019
198	0xbd6502f6	-0.055911027
199	0xbd598c07	-0.053112056
200	0xbc044e10	-0.008075252
201	0x3d4caf1a	0.049971677
202	0x3bbfeb40	0.0058569014
203	0xbd45a1a5	-0.04824986
204	0x3d875595	0.0660812
205	0x3bb12e40	0.0054071248
206	0x3d9781dd	0.07397816
207	0xbc0e1a20	-0.008673221
208	0x3d9a8263	0.075444005
209	0x3da2518f	0.07925712
210	0xbd2883cd	-0.04114132
211	0x3d90ffe3	0.070800565
212	0xbd7d23d6	-0.061801754
213	0xbc925c14	-0.017866172
214	0xbcb7e768	-0.02244921
215	0x3d00952e	0.03139227
216	0x3d7b2db6	0.06132289
217	0xbd156bcd	-0.03647976
218	0xbd9d2f49	-0.076750346
219	0x3d6a0642	0.057134874
220	0x3d2a66fe	0.041602127
221	0xbc036760	-0.008020252
222	0xbd8b8e6a	-0.06814273
223	0xbda51b82	-0.08061887
224	0xbc5f8a10	-0.0136437565
225	0xbc823e60	-0.015898883
226	0x3cfab830	0.030605406
227	0x3d061abe	0.032740347
228	0xbcb54424	-0.022127219
229	0xbcb9f3d8	-0.022699282
230	0x3d165dba	0.03671048
231	0x3db3cf55	0.0877978
232	0x3bc8f860	0.006133124
233	0xbb8e06a0	-0.004334286
234	0x3cbed558	0.02329509
235	0x3d97d771	0.07414139
236	0xbd9ca81c	-0.07649252
237	0xbbe7dd70	-0.007075958
238	0xbda8227c	-0.082097024
239	0x3c8bae60	0.017050922
240	0x3d9435c7	0.0723682
241	0x3cc49abc	0.023999564
242	0x3d74a756	0.059729896
243	0x3d3a9832	0.0455553
244	0x3c646920	0.013941079
245	0xbd29a6a7	-0.041418698
246	0xbd175eb6	-0.036955558
247	0x3cf2eba0	0.02965337
248	0x3cda8348	0.026673928
249	0x3a9590c0	0.0011410937
250	0x3d92909f	0.071564905
251	0xbd8b9d89	-0.06817157
252	0x3d83c3c9	0.064338274
253	0xbd69c319	-0.057070825
254	0x3d77e802	0.060523994
255	0xbb91d9a0	-0.0044509917

layers.1.bias f4 [128]
0	0x3d9fa3e5	0.07794932
1	0x3da434eb	0.08017906
2	0x3b8d1a60	0.0043061227
3	0xbdb28de9	-0.087184735
4	0x3d27eea2	0.040999062
5	0xbd53dac2	-0.051722296
6	0x3cb6a60c	0.022295974
7	0xbd8d5fc8	-0.069030344
8	0x3c6b99d0	0.0143799335
9	0x3d7c3ce6	0.061581515
10	0x3d1229a4	0.035684243
11	0xbbad3ce0	-0.005286798
12	0xbc63b708	-0.0138986185
13	0x3d3189f2	0.043344446
14	0x3d9c29c1	0.076251514
15	0x3cfb7524	0.030695505
16	0x3d2ff862	0.042961486
17	0xbcbb9334	-0.02289734
18	0x3d68d306	0.056841873
19	0x3d45335e	0.04814469
20	0xbd9d1c5e	-0.07671426
21	0xbd6e9418	-0.058246702
22	0xbd252828	-0.0403215
23	0xbd6a5028	-0.05720535
24	0xbd7a2e08	-0.061079055
25	0xbdab373c	-0.083601445
26	0x3d9a6c59	0.07540197
27	0xbdac6f5b	-0.08419677
28	0xbd7e09b7	-0.062020984
29	0x3d815c47	0.06316429
30	0x3cdfd438	0.027322873
31	0xbd8463d2	-0.06464352
32	0x3dacf419	0.084449954
33	0xbd1ddd7f	-0.038541313
34	0xbbe1b430	-0.006887935
35	0x3d5afb7a	0.053462483
36	0xbd2a76c9	-0.04161719
37	0x3d05b9ee	0.03264802
38	0xbd30d420	-0.04317105
39	0xbd51dc07	-0.051235225
40	0x3b10d740	0.0022100955
41	0x3d2e0d46	0.042493127
42	0x3d955bcd	0.072929
43	0xbc7880a0	-0.015167385
44	0x3d6bc65a	0.05756221
45	0x3cd4641c	0.025926642
46	0x3d76359a	0.060109712
47	0xbbfb8570	-0.007675819
48	0xbc2e65c0	-0.010644376
49	0xbd04c768	-0.03241673
50	0xbd0a2dca	-0.033735074
51	0x3d7bc196	0.061463915
52	0x3db4ded7	0.08831566
53	0x3d303c46	0.04302623
54	0x3cb5dee4	0.02220101
55	0x3ce769a4	0.028248616
56	0xbcd30f28	-0.025764063
57	0x3dac6689	0.084179945
58	0x3d110a9c	0.03541051
59	0xbda8f7c7	-0.08250385
60	0xbd76a358	-0.06021437
61	0x3db016d1	0.08598102
62	0xbcc25b70	-0.023725241
63	0xbcb3d2c4	-0.021951087
64	0xbd3b10eb	-0.04567043
65	0xbc49f798	-0.012327097
66	0xbcab1b34	-0.020886995
67	0x3c34ac28	0.011027373
68	0x3bf5b620	0.0074985176
69	0x3d650b16	0.055918775
70	0xbcb88f60	-0.022529304
71	0x3d945eb1	0.072446235
72	0xbc886708	-0.016650692
73	0x3da8b4c5	0.08237604
74	0x3d8d0dbb	0.068873845
75	0x3da8189f	0.08207821
76	0xbd20378a	-0.039115466
77	0x3ca3bb8c	0.01998689
78	0x3da3d8f1	0.08000363
79	0xbd9913e4	-0.07474497
80	0x3d297b12	0.041377135
81	0xbd8cc6e4	-0.06873873
82	0xbd88f0f0	-0.0668658
83	0x3d1468e4	0.036232844
84	0x3db24c8d	0.08706007
85	0xbd4c29ff	-0.049844738
86	0xbdb4af76	-0.08822529
87	0x3d77d28e	0.060503535
88	0x3db4483d	0.08802841
89	0xbd3323ff	-0.0437355
90	0x3c373de0	0.011184186
91	0x3d9bb5e5	0.07603053
92	0x3ae9ad80	0.0017828196
93	0x3ba8c600	0.0051505566
94	0xbc968fbc	-0.018379085
95	0xbd04bb9b	-0.032405477
96	0x3d9947f3	0.07484426
97	0xbc915514	-0.017740764
98	0x3d60472a	0.054755367
99	0xbda44dc1	-0.08022643
100	0xbd71bd7a	-0.05901859
101	0xbd5ba7b4	-0.05362673
102	0x3d4811c2	0.04884506
103	0xbd8d1cc5	-0.06890253
104	0x3cb61ca0	0.022230446
105	0x3c8e73c4	0.017389186
106	0xbbcec810	-0.0063104704
107	0xbd8de698	-0.06928748
108	0x3d8094cd	0.062783815
109	0xbd07ba71	-0.03313679
110	0xbd5bc159	-0.053651188
111	0xbd1abe93	-0.037779402
112	0xbc1227c0	-0.00892061
113	0xbd55b841	-0.05217767
114	0x3d583baa	0.052791275
115	0x3c5833a0	0.013195902
116	0xbd4385bc	-0.04773496
117	0xbcd540aa	-0.02603181
118	0x3d0a54c4	0.033772245
119	0xbc5b3258	-0.013378702
120	0xbc7ccbd0	-0.015429452
121	0x3c0569c8	0.008142896
122	0x3d0f3f88	0.034972697
123	0xbd07a3ac	-0.033115074
124	0xbd85ea97	-0.06538885
125	0x3d94b7f3	0.07261648
126	0x3d8fb35b	0.07016631
127	0x3d35b57e	0.044362538

layers.2.weight f4 [1, 128]
0	0x3d371c3a	0.044704653
1	0x3c8321fc	0.016007416
2	0x3d941c3b	0.07231947
3	0x3c3357d0	0.010946229
4	0x3db2fe41	0.08739901
5	0xbd9cbb88	-0.07652956
6	0x3d730732	0.059333034
7	0xbd5d6d9a	-0.054059602
8	0xbd4d2eb8	-0.050093383
9	0x3cbe1a60	0.023205936
10	0xbd9a426c	-0.075322
11	0x3da10017	0.07861345
12	0xbc1c9520	-0.009557039
13	0x3d545a0e	0.051843695
14	0x3cf4213c	0.029801004
15	0x3d249d8e	0.04018932
16	0x3c7ddea0	0.0154949725
17	0x3d5200fa	0.051270463
18	0xbd93048e	-0.07178603
19	0xbda732dd	-0.08163998
20	0x3daff25d	0.08591149
21	0x3d20a04a	0.039215364
22	0x3c3d8fb0	0.011569902
23	0x3d8c7abf	0.068593495
24	0x3da5277b	0.08064171
25	0xbd8ff3dc	-0.07028934
26	0x3da5ca15	0.08095185
27	0x3cf793cc	0.030221842
28	0xbc5729f0	-0.013132557
29	0x3d1b6b62	0.037944205
30	0xbd9a330f	-0.0752927
31	0xbd77c19f	-0.060487386
32	0x3d4db22e	0.050218754
33	0x3d94c0b1	0.072633155
34	0x3ba86030	0.0051384196
35	0xbb364ea0	-0.002781786
36	0x3b61f020	0.00344754
37	0x3cfaf91c	0.030636363
38	0xbc91c070	-0.017791957
39	0xbd855b67	-0.06511574
40	0xbccfc9e4	-0.025364824
41	0x3da23865	0.07920913
42	0x3d57d2a2	0.05269111
43	0xbbd67230	-0.006544374
44	0xbd122154	-0.035676315
45	0xbd94c2cc	-0.07263717
46	0x3da2331d	0.07919905
47	0x3c59e5a8	0.013299383
48	0xbd33fce9	-0.043942366
49	0xbc9d6588	-0.019213453
50	0xbd3bd69e	-0.04585897
51	0x3b9624f0	0.00458204
52	0xbcabf0ac	-0.020988785
53	0x3d62659a	0.055272676
54	0xbd828583	-0.063731216
55	0x3d84e44f	0.06488859
56	0x3ca1d258	0.01975362
57	0x3daae501	0.0834446
58	0xbd9ddd31	-0.077082045
59	0xbce7b008	-0.02828218
60	0xbbcaeda0	-0.006192878
61	0xbd4f381f	-0.05059063
62	0xbbc06cb0	-0.0058723316
63	0xbd99e2db	-0.07513972
64	0xbd0fd7fd	-0.03511809
65	0xbc64f588	-0.013974555
66	0x3d8ca3bb	0.068671666
67	0x3b9a3020	0.004705444
68	0xbced9c98	-0.029005334
69	0xbd66087b	-0.05616043
70	0x3c12bcc0	0.008956134
71	0x3d9fd127	0.078035645
72	0x3db31871	0.08744896
73	0x3d992e93	0.074795865
74	0x3d6571ee	0.056016855
75	0x3cf71ab8	0.030164108
76	0x3d7eee0a	0.06223873
77	0x3d84e811	0.06489576
78	0x3cc76918	0.024342105
79	0x38c18000	9.226799e-05
80	0x3d8f52dd	0.06998227
81	0x3d4473d6	0.047962032
82	0x3cfc4ba4	0.030797787
83	0x3d3f79d2	0.046747036
84	0x3d8ef7ed	0.06980882
85	0x3d98748d	0.07444105
86	0x3c73c030	0.014877364
87	0x3d4fdd7a	0.050748326
88	0xb9fe8500	-0.00048545748
89	0xbd69362c	-0.056936428
90	0xbce3d948	-0.027813569
91	0xbb86f9d0	-0.0041191354
92	0x3d9175c7	0.07102542
93	0xbbebd7a0	-0.0071973354
94	0x3c26e4e8	0.010186411
95	0xbc148288	-0.009064324
96	0x3d4afd1e	0.049557798
97	0xbdad6bfa	-0.084678605
98	0x3ca83584	0.02053333
99	0x3d52f97a	0.05150745
100	0x3d90f4a5	0.07077912
101	0x3d64716a	0.055772223
102	0xbb854680	-0.004067242
103	0x3d9e2809	0.0772248
104	0xbce94d9e	-0.028479394
105	0x3cfa25cc	0.030535601
106	0x3d214242	0.03936983
107	0x3d21aca2	0.039471276
108	0xbcd36afc	-0.02580785
109	0xbd3912ac	-0.045183823
110	0xbd6035c7	-0.054738786
111	0x3d250d66	0.04029598
112	0xbd70576d	-0.058677126
113	0x3d90ba99	0.07066841
114	0xbc0015b8	-0.007817678
115	0xbd9ac3f2	-0.07556905
116	0xbd50defe	-0.050993912
117	0x3da3069d	0.07960246
118	0x3d9a9ab5	0.07549039
119	0x3daea84b	0.08528193
120	0x3da5f80b	0.08103951
121	0xbd5b8454	-0.053592995
122	0xbccdfb40	-0.02514422
123	0x3d1c9b5e	0.038234107
124	0xbcbdcbe8	-0.02316852
125	0x3da0cba3	0.078513406
126	0x3c03f270	0.008053407
127	0xbd574ba6	-0.05256238

bns.0.weight f4 [128]
0	0x3f800000	1.0
1	0x3f800000	1.0
2	0x3f800000	1.0
3	0x3f800000	1.0
4	0x3f800000	1.0
5	0x3f800000	1.0
6	0x3f800000	1.0
7	0x3f800000	1.0
8	0x3f800000	1.0
9	0x3f800000	1.0
10	0x3f800000	1.0
11	0x3f800000	1.0
12	0x3f800000	1.0
13	0x3f800000	1.0
14	0x3f800000	1.0
15	0x3f800000	1.0
16	0x3f800000	1.0
17	0x3f800000	1.0
18	0x3f800000	1.0
19	0x3f800000	1.0
20	0x3f800000	1.0
21	0x3f800000	1.0
22	0x3f800000	1.0
23	0x3f800000	1.0
24	0x3f800000	1.0
25	0x3f800000	1.0
26	0x3f800000	1.0
27	0x3f800000	1.0
28	0x3f800000	1.0
29	0x3f800000	1.0
30	0x3f800000	1.0
31	0x3f800000	1.0
32	0x3f800000	1.0
33	0x3f800000	1.0
34	0x3f800000	1.0
35	0x3f800000	1.0
36	0x3f800000	1.0
37	0x3f800000	1.0
38	0x3f800000	1.0
39	0x3f800000	1.0
40	0x3f800000	1.0
41	0x3f800000	1.0
42	0x3f800000	1.0
43	0x3f800000	1.0
44	0x3f800000	1.0
45	0x3f800000	1.0
46	0x3f800000	1.0
47	0x3f800000	1.0
48	0x3f800000	1.0
49	0x3f800000	1.0
50	0x3f800000	1.0
51	0x3f800000	1.0
52	0x3f800000	1.0
53	0x3f800000	1.0
54	0x3f800000	1.0
55	0x3f800000	1.0
56	0x3f800000	1.0
57	0x3f800000	1.0
58	0x3f800000	1.0
59	0x3f800000	1.0
60	0x3f800000	1.0
61	0x3f800000	1.0
62	0x3f800000	1.0
63	0x3f800000	1.0
64	0x3f800000	1.0
65	0x3f800000	1.0
66	0x3f800000	1.0
67	0x3f800000	1.0
68	0x3f800000	1.0
69	0x3f800000	1.0
70	0x3f800000	1.0
71	0x3f800000	1.0
72	0x3f800000	1.0
73	0x3f800000	1.0
74	0x3f800000	1.0
75	0x3f800000	1.0
76	0x3f800000	1.0
77	0x3f800000	1.0
78	0x3f800000	1.0
79	0x3f800000	1.0
80	0x3f800000	1.0
81	0x3f800000	1.0
82	0x3f800000	1.0
83	0x3f800000	1.0
84	0x3f800000	1.0
85	0x3f800000	1.0
86	0x3f800000	1.0
87	0x3f800000	1.0
88	0x3f800000	1.0
89	0x3f800000	1.0
90	0x3f800000	1.0
91	0x3f800000	1.0
92	0x3f800000	1.0
93	0x3f800000	1.0
94	0x3f800000	1.0
95	0x3f800000	1.0
96	0x3f800000	1.0
97	0x3f800000	1.0
98	0x3f800000	1.0
99	0x3f800000	1.0
100	0x3f800000	1.0
101	0x3f800000	1.0
102	0x3f800000	1.0
103	0x3f800000	1.0
104	0x3f800000	1.0
105	0x3f800000	1.0
106	0x3f800000	1.0
107	0x3f800000	1.0
108	0x3f800000	1.0
109	0x3f800000	1.0
110	0x3f800000	1.0
111	0x3f800000	1.0
112	0x3f800000	1.0
113	0x3f800000	1.0
114	0x3f800000	1.0
115	0x3f800000	1.0
116	0x3f800000	1.0
117	0x3f800000	1.0
118	0x3f800000	1.0
119	0x3f800000	1.0
120	0x3f800000	1.0
121	0x3f800000	1.0
122	0x3f800000	1.0
123	0x3f800000	1.0
124	0x3f800000	1.0
125	0x3f800000	1.0
126	0x3f800000	1.0
127	0x3f800000	1.0

bns.0.bias f4 [128]
0	0x00000000	0.0
1	0x00000000	0.0
2	0x00000000	0.0
3	0x00000000	0.0
4	0x00000000	0.0
5	0x00000000	0.0
6	0x00000000	0.0
7	0x00000000	0.0
8	0x00000000	0.0
9	0x00000000	0.0
10	0x00000000	0.0
11	0x00000000	0.0
12	0x00000000	0.0
13	0x00000000	0.0
14	0x00000000	0.0
15	0x00000000	0.0
16	0x00000000	0.0
17	0x00000000	0.0
18	0x00000000	0.0
19	0x00000000	0.0
20	0x00000000	0.0
21	0x00000000	0.0
22	0x00000000	0.0
23	0x00000000	0.0
24	0x00000000	0.0
25	0x00000000	0.0
26	0x00000000	0.0
27	0x00000000	0.0
28	0x00000000	0.0
29	0x00000000	0.0
30	0x00000000	0.0
31	0x00000000	0.0
32	0x00000000	0.0
33	0x00000000	0.0
34	0x00000000	0.0
35	0x00000000	0.0
36	0x00000000	0.0
37	0x00000000	0.0
38	0x00000000	0.0
39	0x00000000	0.0
40	0x00000000	0.0
41	0x00000000	0.0
42	0x00000000	0.0
43	0x00000000	0.0
44	0x00000000	0.0
45	0x00000000	0.0
46	0x00000000	0.0
47	0x00000000	0.0
48	0x00000000	0.0
49	0x00000000	0.0
50	0x00000000	0.0
51	0x00000000	0.0
52	0x00000000	0.0
53	0x00000000	0.0
54	0x00000000	0.0
55	0x00000000	0.0
56	0x00000000	0.0
57	0x00000000	0.0
58	0x00000000	0.0
59	0x00000000	0.0
60	0x00000000	0.0
61	0x00000000	0.0
62	0x00000000	0.0
63	0x00000000	0.0
64	0x00000000	0.0
65	0x00000000	0.0
66	0x00000000	0.0
67	0x00000000	0.0
68	0x00000000	0.0
69	0x00000000	0.0
70	0x00000000	0.0
71	0x00000000	0.0
72	0x00000000	0.0
73	0x00000000	0.0
74	0x00000000	0.0
75	0x00000000	0.0
76	0x00000000	0.0
77	0x00000000	0.0
78	0x00000000	0.0
79	0x00000000	0.0
80	0x00000000	0.0
81	0x00000000	0.0
82	0x00000000	0.0
83	0x00000000	0.0
84	0x00000000	0.0
85	0x00000000	0.0
86	0x00000000	0.0
87	0x00000000	0.0
88	0x00000000	0.0
89	0x00000000	0.0
90	0x00000000	0.0
91	0x00000000	0.0
92	0x00000000	0.0
93	0x00000000	0.0
94	0x00000000	0.0
95	0x00000000	0.0
96	0x00000000	0.0
97	0x00000000	0.0
98	0x00000000	0.0
99	0x00000000	0.0
100	0x00000000	0.0
101	0x00000000	0.0
102	0x00000000	0.0
103	0x00000000	0.0
104	0x00000000	0.0
105	0x00000000	0.0
106	0x00000000	0.0
107	0x00000000	0.0
108	0x00000000	0.0
109	0x00000000	0.0
110	0x00000000	0.0
111	0x00000000	0.0
112	0x00000000	0.0
113	0x00000000	0.0
114	0x00000000	0.0
115	0x00000000	0.0
116	0x00000000	0.0
117	0x00000000	0.0
118	0x00000000	0.0
119	0x00000000	0.0
120	0x00000000	0.0
121	0x00000000	0.0
122	0x00000000	0.0
123	0x00000000	0.0
124	0x00000000	0.0
125	0x00000000	0.0
126	0x00000000	0.0
127	0x00000000	0.0

bns.0.running_mean f4 [128]
0	0xbded3f8e	-0.11584388
1	0xbdae3e71	-0.085080035
2	0x3e937221	0.2879801
3	0xbd9d0e81	-0.07668782
4	0x3d64d130	0.05586356
5	0xbe817efb	-0.2529219
6	0x3e1d4629	0.15358795
7	0xbd7922ff	-0.06082439
8	0x3e27973e	0.16366288
9	0xbe18a721	-0.14907505
10	0xbe5b7f3d	-0.21435256
11	0xbdaeec42	-0.08541156
12	0x3de47b58	0.111563385
13	0x3dcbee32	0.099575415
14	0x3d8c38b0	0.0684675
15	0xbdea51c0	-0.11441374
16	0xbe02e90e	-0.12784216
17	0x3e522b43	0.20524316
18	0xbdd7a885	-0.105301894
19	0xbe7646a5	-0.24050386
20	0xbe0717de	-0.13192698
21	0x3e59ffa5	0.21288927
22	0x3e2ea5f3	0.17055492
23	0x3d92c54d	0.071665384
24	0xbe850582	-0.25980765
25	0x3b6f509c	0.0036516553
26	0x3e274d39	0.16338052
27	0x3db65f60	0.0890491
28	0x38e1e270	0.00010771013
29	0xbe8bb4db	-0.2728642
30	0xbe7dc7f6	-0.2478331
31	0xbe53f7bc	-0.20699972
32	0x3e85269d	0.26006022
33	0xbe7959b5	-0.24350627
34	0x3dc2caba	0.09511323
35	0x3d0d4c7b	0.034496766
36	0x3e4bc3d3	0.1989892
37	0xbe6e819b	-0.23291628
38	0x3e411110	0.18854165
39	0xbe746ef5	-0.23870452
40	0x3b84cdc6	0.0040528504
41	0xbdb5898c	-0.088641256
42	0xbd75f56a	-0.0600485
43	0x3db13e07	0.08654409
44	0xbe2c20ce	-0.16809389
45	0x3d933ef2	0.0718974
46	0xbc996d34	-0.01872883
47	0x3d09ceeb	0.033644598
48	0xbd6cf664	-0.057852164
49	0x3dc5cb9a	0.096579745
50	0x3e2f86ca	0.17141262
51	0xbe76c393	-0.24098043
52	0x3e87fa61	0.2655821
53	0x3e72637d	0.23670764
54	0x3d54b034	0.051925853
55	0x3e19b1da	0.15009251
56	0x3e58c768	0.21169817
57	0xbe412d08	-0.18864834
58	0xbe831ef8	-0.25609565
59	0x3dbc5148	0.09195191
60	0x3cd5d2c8	0.026101485
61	0xbe671e74	-0.2257021
62	0xbe14465b	-0.14479963
63	0x3e20b48e	0.15693876
64	0x3d2af2ae	0.041735344
65	0x3cb22bc2	0.021749381
66	0x3daa2ce0	0.083093405
67	0x3c0e94f8	0.008702509
68	0xbbc7b246	-0.00609425
69	0xbe2248b7	-0.15848051
70	0x3e66326a	0.22480169
71	0xbd0f100e	-0.03492742
72	0x3e80b214	0.25135863
73	0x3da35396	0.07974927
74	0x3cde9518	0.027170703
75	0x3dc57d54	0.09643045
76	0xbe255868	-0.16147006
77	0xbe5316fc	-0.20614237
78	0x3ea50f3d	0.32238188
79	0x3e7db227	0.24774991
80	0x3b80213e	0.003910213
81	0xbe9c8946	-0.3057348
82	0xbe63ce54	-0.22246677
83	0xbd0694f9	-0.032856915
84	0x3e9f8ffa	0.31164533
85	0x3e17c39b	0.14820711
86	0x3e0ba272	0.13636187
87	0x3e508df8	0.20366657
88	0x3d9c092c	0.07618937
89	0x3e50a9c1	0.20377256
90	0x3c20d6fd	0.009816882
91	0x3e4cb7a4	0.19991928
92	0xbd120c9c	-0.035656556
93	0xbd20952e	-0.03920477
94	0xbe987385	-0.29775634
95	0x3ce9c60a	0.028536815
96	0x3e702bd2	0.23454216
97	0x3e9b6d41	0.30356792
98	0x3d75661b	0.05991183
99	0xbe914eb3	-0.28380355
100	0x3dca5014	0.09878555
101	0x3e68fe98	0.2275337
102	0x3dc88b14	0.09792152
103	0x3d24829c	0.04016362
104	0x3e87a8e9	0.26496056
105	0xbe82dc7d	-0.25558844
106	0xbea22242	-0.31666762
107	0x3dfad852	0.12248291
108	0xbd48d51f	-0.049031373
109	0x3d741cbe	0.059597723
110	0x3d97d2a3	0.07413223
111	0xbd0da71d	-0.0345832
112	0xbde91667	-0.11381226
113	0x3de4ba70	0.11168373
114	0x3d996b80	0.07491207
115	0xbdd9db0f	-0.10637485
116	0xbd647050	-0.055771172
117	0xbcb9862b	-0.022646984
118	0xbe36ce1f	-0.17852066
119	0x3e627de7	0.2211834
120	0x3da3b948	0.07994324
121	0xbe36518e	-0.17804548
122	0xbe9ed6f3	-0.31023368
123	0xbe908c9f	-0.28232285
124	0xbe942488	-0.2893412
125	0xbdfb63f8	-0.12274927
126	0xbe980693	-0.29692516
127	0xbdb83be0	-0.08995795

bns.0.running_var f4 [128]
0	0x3c2b496b	0.010454516
1	0x3bde00e1	0.006775007
2	0x3c111008	0.00885392
3	0x3c27f0aa	0.01025025
4	0x3bebfa20	0.007201448
5	0x3bd8bbfe	0.0066142073
6	0x3bbc4c33	0.0057463883
7	0x3b7f3c2d	0.003894578
8	0x3bd548e5	0.006508934
9	0x3be16399	0.006878328
10	0x3bb2c201	0.005455256
11	0x3b6012b4	0.0034190835
12	0x3b55f9b8	0.0032650065
13	0x3b9c7f49	0.0047759158
14	0x3b9b4bee	0.004739276
15	0x3b998104	0.0046845693
16	0x3bc28c9f	0.0059371735
17	0x3b9a8e32	0.004716658
18	0x3b82bb0d	0.0039895833
19	0x3bd0df36	0.006374265
20	0x3b9f97e7	0.004870403
21	0x3bb6dff7	0.005580898
22	0x3bb5de7e	0.005550205
23	0x3b811d4c	0.00394026
24	0x3b7520da	0.0037403614
25	0x3c0e442a	0.008683244
26	0x3b9c792f	0.0047751884
27	0x3bd66eec	0.0065439846
28	0x3ba35c1a	0.0049853446
29	0x3bd6e4a8	0.0065580197
30	0x3be9afaa	0.0071315365
31	0x3bd215a9	0.0064112735
32	0x3b781b83	0.0037858195
33	0x3b88ba61	0.0041726087
34	0x3bdde8e7	0.006772149
35	0x3bd300c4	0.0064393003
36	0x3bab9e03	0.0052373423
37	0x3b9447c7	0.004525158
38	0x3bc13fda	0.0058975043
39	0x3c072f89	0.008251079
40	0x3bb71a01	0.0055878167
41	0x3bdef778	0.006804403
42	0x3bd94521	0.0066305553
43	0x3bd50c37	0.0065017003
44	0x3b892121	0.0041848575
45	0x3b9773a7	0.004621941
46	0x3c11713d	0.008877096
47	0x3c01a155	0.007912
48	0x3b999ec6	0.0046881167
49	0x3bd7b806	0.0065832166
50	0x3be63464	0.0070252884
51	0x3b7031a8	0.0036650691
52	0x3c103b30	0.008803174
53	0x3be0d5df	0.006861433
54	0x3c023b60	0.007948726
55	0x3b705037	0.0036668906
56	0x3bfa6804	0.007641794
57	0x3bccb469	0.0062470925
58	0x3b915890	0.0044356063
59	0x3b75829b	0.003746188
60	0x3baaa81d	0.005208029
61	0x3c17c8a4	0.009264145
62	0x3ba50f29	0.0050372076
63	0x3bf8e537	0.007595684
64	0x3ba53670	0.00504189
65	0x3bee668b	0.0072754077
66	0x3c0ffa28	0.008787669
67	0x3b8ec5be	0.004357069
68	0x3ba5b022	0.005056397
69	0x3bacbc14	0.005271444
70	0x3c169861	0.009191603
71	0x3bbcf28f	0.00576622
72	0x3b8eea13	0.0043614
73	0x3bb8a02a	0.0056343274
74	0x3b9d891e	0.0048076054
75	0x3c16bf7c	0.009200927
76	0x3bbbbd41	0.005729348
77	0x3ba31d0c	0.004977828
78	0x3bb726d6	0.0055893464
79	0x3c0d4e01	0.008624555
80	0x3bd01bdb	0.006350977
81	0x3bff1757	0.0077847647
82	0x3bc5c930	0.0060359463
83	0x3b9489e2	0.0045330385
84	0x3b9e8f80	0.004838884
85	0x3bd2af41	0.0064295833
86	0x3bda3cfd	0.0066601024
87	0x3b9f688a	0.004864757
88	0x3be06dbd	0.0068490193
89	0x3b843903	0.0040351166
90	0x3ba24a3a	0.004952696
91	0x3b78bed8	0.0037955549
92	0x3b902c31	0.0043997993
93	0x3bcb98b7	0.0062132734
94	0x3c2ee7c1	0.010675372
95	0x3bb32085	0.005466523
96	0x3be858c8	0.0070906617
97	0x3bc9b083	0.006155075
98	0x3b71daa8	0.003690401
99	0x3b62528d	0.0034534067
100	0x3ba96b13	0.005170235
101	0x3b9d044b	0.0047917715
102	0x3bbd7eb7	0.005782928
103	0x3bf78959	0.007554215
104	0x3bd4ac3e	0.0064902594
105	0x3bd124d0	0.006382562
106	0x3b87a63c	0.0041396897
107	0x3bbc4f8e	0.0057467883
108	0x3b9452b4	0.0045264605
109	0x3bbcb835	0.005759264
110	0x3b927c72	0.0044704014
111	0x3bab7afd	0.005233167
112	0x3bed752e	0.007246635
113	0x3b55c54b	0.0032618816
114	0x3bf5ca93	0.0075009554
115	0x3c023253	0.007946569
116	0x3bf933ca	0.0076050507
117	0x3c1417a9	0.009038844
118	0x3bdf079a	0.006806326
119	0x3bff2fa4	0.0077876616
120	0x3b976f54	0.0046214256
121	0x3bc54dd5	0.006021241
122	0x3ba0cc5f	0.0049071754
123	0x3b9a9f7c	0.004718719
124	0x3baeed31	0.005338334
125	0x3bec98f7	0.0072203833
126	0x3bb20cd4	0.005433658
127	0x3be3a073	0.0069466173

bns.1.weight f4 [128]
0	0x3f800000	1.0
1	0x3f800000	1.0
2	0x3f800000	1.0
3	0x3f800000	1.0
4	0x3f800000	1.0
5	0x3f800000	1.0
6	0x3f800000	1.0
7	0x3f800000	1.0
8	0x3f800000	1.0
9	0x3f800000	1.0
10	0x3f800000	1.0
11	0x3f800000	1.0
12	0x3f800000	1.0
13	0x3f800000	1.0
14	0x3f800000	1.0
15	0x3f800000	1.0
16	0x3f800000	1.0
17	0x3f800000	1.0
18	0x3f800000	1.0
19	0x3f800000	1.0
20	0x3f800000	1.0
21	0x3f800000	1.0
22	0x3f800000	1.0
23	0x3f800000	1.0
24	0x3f800000	1.0
25	0x3f800000	1.0
26	0x3f800000	1.0
27	0x3f800000	1.0
28	0x3f800000	1.0
29	0x3f800000	1.0
30	0x3f800000	1.0
31	0x3f800000	1.0
32	0x3f800000	1.0
33	0x3f800000	1.0
34	0x3f800000	1.0
35	0x3f800000	1.0
36	0x3f800000	1.0
37	0x3f800000	1.0
38	0x3f800000	1.0
39	0x3f800000	1.0
40	0x3f800000	1.0
41	0x3f800000	1.0
42	0x3f800000	1.0
43	0x3f800000	1.0
44	0x3f800000	1.0
45	0x3f800000	1.0
46	0x3f800000	1.0
47	0x3f800000	1.0
48	0x3f800000	1.0
49	0x3f800000	1.0
50	0x3f800000	1.0
51	0x3f800000	1.0
52	0x3f800000	1.0
53	0x3f800000	1.0
54	0x3f800000	1.0
55	0x3f800000	1.0
56	0x3f800000	1.0
57	0x3f800000	1.0
58	0x3f800000	1.0
59	0x3f800000	1.0
60	0x3f800000	1.0
61	0x3f800000	1.0
62	0x3f800000	1.0
63	0x3f800000	1.0
64	0x3f800000	1.0
65	0x3f800000	1.0
66	0x3f800000	1.0
67	0x3f800000	1.0
68	0x3f800000	1.0
69	0x3f800000	1.0
70	0x3f800000	1.0
71	0x3f800000	1.0
72	0x3f800000	1.0
73	0x3f800000	1.0
74	0x3f800000	1.0
75	0x3f800000	1.0
76	0x3f800000	1.0
77	0x3f800000	1.0
78	0x3f800000	1.0
79	0x3f800000	1.0
80	0x3f800000	1.0
81	0x3f800000	1.0
82	0x3f800000	1.0
83	0x3f800000	1.0
84	0x3f800000	1.0
85	0x3f800000	1.0
86	0x3f800000	1.0
87	0x3f800000	1.0
88	0x3f800000	1.0
89	0x3f800000	1.0
90	0x3f800000	1.0
91	0x3f800000	1.0
92	0x3f800000	1.0
93	0x3f800000	1.0
94	0x3f800000	1.0
95	0x3f800000	1.0
96	0x3f800000	1.0
97	0x3f800000	1.0
98	0x3f800000	1.0
99	0x3f800000	1.0
100	0x3f800000	1.0
101	0x3f800000	1.0
102	0x3f800000	1.0
103	0x3f800000	1.0
104	0x3f800000	1.0
105	0x3f800000	1.0
106	0x3f800000	1.0
107	0x3f800000	1.0
108	0x3f800000	1.0
109	0x3f800000	1.0
110	0x3f800000	1.0
111	0x3f800000	1.0
112	0x3f800000	1.0
113	0x3f800000	1.0
114	0x3f800000	1.0
115	0x3f800000	1.0
116	0x3f800000	1.0
117	0x3f800000	1.0
118	0x3f800000	1.0
119	0x3f800000	1.0
120	0x3f800000	1.0
121	0x3f800000	1.0
122	0x3f800000	1.0
123	0x3f800000	1.0
124	0x3f800000	1.0
125	0x3f800000	1.0
126	0x3f800000	1.0
127	0x3f800000	1.0

bns.1.bias f4 [128]
0	0x00000000	0.0
1	0x00000000	0.0
2	0x00000000	0.0
3	0x00000000	0.0
4	0x00000000	0.0
5	0x00000000	0.0
6	0x00000000	0.0
7	0x00000000	0.0
8	0x00000000	0.0
9	0x00000000	0.0
10	0x00000000	0.0
11	0x00000000	0.0
12	0x00000000	0.0
13	0x00000000	0.0
14	0x00000000	0.0
15	0x00000000	0.0
16	0x00000000	0.0
17	0x00000000	0.0
18	0x00000000	0.0
19	0x00000000	0.0
20	0x00000000	0.0
21	0x00000000	0.0
22	0x00000000	0.0
23	0x00000000	0.0
24	0x00000000	0.0
25	0x00000000	0.0
26	0x00000000	0.0
27	0x00000000	0.0
28	0x00000000	0.0
29	0x00000000	0.0
30	0x00000000	0.0
31	0x00000000	0.0
32	0x00000000	0.0
33	0x00000000	0.0
34	0x00000000	0.0
35	0x00000000	0.0
36	0x00000000	0.0
37	0x00000000	0.0
38	0x00000000	0.0
39	0x00000000	0.0
40	0x00000000	0.0
41	0x00000000	0.0
42	0x00000000	0.0
43	0x00000000	0.0
44	0x00000000	0.0
45	0x00000000	0.0
46	0x00000000	0.0
47	0x00000000	0.0
48	0x00000000	0.0
49	0x00000000	0.0
50	0x00000000	0.0
51	0x00000000	0.0
52	0x00000000	0.0
53	0x00000000	0.0
54	0x00000000	0.0
55	0x00000000	0.0
56	0x00000000	0.0
57	0x00000000	0.0
58	0x00000000	0.0
59	0x00000000	0.0
60	0x00000000	0.0
61	0x00000000	0.0
62	0x00000000	0.0
63	0x00000000	0.0
64	0x00000000	0.0
65	0x00000000	0.0
66	0x00000000	0.0
67	0x00000000	0.0
68	0x00000000	0.0
69	0x00000000	0.0
70	0x00000000	0.0
71	0x00000000	0.0
72	0x00000000	0.0
73	0x00000000	0.0
74	0x00000000	0.0
75	0x00000000	0.0
76	0x00000000	0.0
77	0x00000000	0.0
78	0x00000000	0.0
79	0x00000000	0.0
80	0x00000000	0.0
81	0x00000000	0.0
82	0x00000000	0.0
83	0x00000000	0.0
84	0x00000000	0.0
85	0x00000000	0.0
86	0x00000000	0.0
87	0x00000000	0.0
88	0x00000000	0.0
89	0x00000000	0.0
90	0x00000000	0.0
91	0x00000000	0.0
92	0x00000000	0.0
93	0x00000000	0.0
94	0x00000000	0.0
95	0x00000000	0.0
96	0x00000000	0.0
97	0x00000000	0.0
98	0x00000000	0.0
99	0x00000000	0.0
100	0x00000000	0.0
101	0x00000000	0.0
102	0x00000000	0.0
103	0x00000000	0.0
104	0x00000000	0.0
105	0x00000000	0.0
106	0x00000000	0.0
107	0x00000000	0.0
108	0x00000000	0.0
109	0x00000000	0.0
110	0x00000000	0.0
111	0x00000000	0.0
112	0x00000000	0.0
113	0x00000000	0.0
114	0x00000000	0.0
115	0x00000000	0.0
116	0x00000000	0.0
117	0x00000000	0.0
118	0x00000000	0.0
119	0x00000000	0.0
120	0x00000000	0.0
121	0x00000000	0.0
122	0x00000000	0.0
123	0x00000000	0.0
124	0x00000000	0.0
125	0x00000000	0.0
126	0x00000000	0.0
127	0x00000000	0.0

bns.1.running_mean f4 [128]
0	0x3e15ed0f	0.14641212
1	0x3e656412	0.22401455
2	0x3e3a1fa1	0.18176128
3	0xbe7e4b60	-0.24833441
4	0xbdf02078	-0.11724943
5	0xbdba4b72	-0.09096421
6	0x3e61fb57	0.22068535
7	0xbe1b75f6	-0.15181717
8	0xbdc2328b	-0.094822966
9	0xbe9ee1fa	-0.3103178
10	0x3ea0c99d	0.3140382
11	0x3e80a1c1	0.25123408
12	0xbd9aadcb	-0.0755268
13	0x3e635841	0.22201635
14	0x3ea9ee79	0.33189753
15	0x3d81ef33	0.06344452
16	0x3e7f29e9	0.24918331
17	0x3e88f3f6	0.26748627
18	0x3d587fe0	0.052856326
19	0x3e6a19cf	0.22861408
20	0x3ae9cf2e	0.0017838234
21	0x3e653d56	0.22386679
22	0xbbca4316	-0.006172548
23	0x3da8682c	0.08222994
24	0xbe5ad1cc	-0.21369094
25	0xbe889059	-0.2667263
26	0x3e1af159	0.1513113
27	0xbeb65eec	-0.35619295
28	0xbe13ff74	-0.14452916
29	0x3d7230b2	0.05912847
30	0x3e1b73c0	0.15180874
31	0xbdd37727	-0.10325461
32	0xbdfa382d	-0.12217746
33	0x3ced3e56	0.028960388
34	0xbe475ad9	-0.1946825
35	0x3c097666	0.008390045
36	0xbee2b79c	-0.44280708
37	0x3e758cd8	0.23979509
38	0xbe4d9abe	-0.2007856
39	0x3e25f21c	0.16205639
40	0xbe4b8ca8	-0.19877875
41	0xbe86efe6	-0.26354903
42	0x3e37b3b9	0.17939653
43	0xbe224be2	-0.1584926
44	0x3e9d99a8	0.30781293
45	0xbd1d8818	-0.038459867
46	0x3ec5c1bd	0.38624373
47	0xbe8d7d59	-0.27634695
48	0xbe04bf50	-0.12963605
49	0xbe18ddbe	-0.14928338
50	0xbec086bc	-0.37602794
51	0x3eabc433	0.33548126
52	0x3dff651f	0.12470459
53	0x3bda7542	0.0066668103
54	0x3e952c88	0.29135537
55	0x3e03522a	0.12824312
56	0xbe8a8124	-0.2705165
57	0x3d82eed5	0.0639321
58	0x3e8b1029	0.27160767
59	0xbecfc099	-0.40576628
60	0xbf323f63	-0.6962797
61	0x3eea34a9	0.45743302
62	0xbe96e68d	-0.2947277
63	0x3ea98ae5	0.3311378
64	0x3e56e035	0.20983966
65	0xbda26bbe	-0.079307064
66	0xbc6b5f22	-0.014365943
67	0x3cb24f25	0.021766255
68	0x3eb14841	0.34625438
69	0x3d0dc051	0.034607235
70	0x3f0495a8	0.5179086
71	0x3eb69715	0.3566214
72	0x3edb4b94	0.428311
73	0x3d8d422f	0.06897389
74	0xbe9b1caa	-0.30295306
75	0xbe9a1a90	-0.3009839
76	0xbef69eab	-0.4816793
77	0x3ea0b6da	0.31389505
78	0x3e83c9f2	0.2574001
79	0xbe1692c6	-0.14704427
80	0x3c89a632	0.01680288
81	0xbe055d74	-0.13023931
82	0xbdcbf628	-0.0995906
83	0xbe8da6db	-0.27666363
84	0x3e681f17	0.2266811
85	0xbea17627	-0.31535456
86	0xbb88cbb1	-0.0041746725
87	0x3ebddb32	0.37081295
88	0xbe399c28	-0.18125975
89	0xbe1bd758	-0.15218866
90	0x3e6f9e67	0.2340027
91	0x3e0a9902	0.1353493
92	0x3c8bf334	0.017083742
93	0x3dba948f	0.091103666
94	0x3e377654	0.17916232
95	0x3de7d0a2	0.113190904
96	0x3e10f6c6	0.14156637
97	0xbed97575	-0.42472425
98	0x3efd26ee	0.49443763
99	0x3c19003c	0.009338435
100	0xbea98b73	-0.33114204
101	0xbe85207d	-0.2600135
102	0xbdba3f98	-0.09094161
103	0x3e8f20e6	0.27954787
104	0xbe874c35	-0.2642533
105	0x3f0f1bb6	0.5590166
106	0xbe68afc7	-0.22723304
107	0x3a49cc8f	0.0007698023
108	0xbdfa2539	-0.12214131
109	0xbf0a14df	-0.53938097
110	0x3e68f3b2	0.22749212
111	0x3e222e5f	0.15838002
112	0x3ea13071	0.3148227
113	0x3ea90b26	0.33016318
114	0x3e70dc9b	0.23521654
115	0xbe974368	-0.29543614
116	0xbd4c922e	-0.049944095
117	0xbd054411	-0.032535616
118	0x3cd606e9	0.026126342
119	0xbe7e768d	-0.24849911
120	0xbdfdd078	-0.12393278
121	0x3ee2b53f	0.44278905
122	0x3d27392f	0.04082602
123	0xbd86ac46	-0.06575827
124	0xbea6ce37	-0.32579204
125	0xbd6342c8	-0.05548361
126	0x3e3076bf	0.17232798
127	0xbe83c10b	-0.25733218

bns.1.running_var f4 [128]
0	0x3d45adf7	0.04826161
1	0x3d989dc5	0.07451967
2	0x3dca713a	0.098848775
3	0x3d8471d6	0.06467025
4	0x3d722d34	0.05912514
5	0x3da75b2e	0.08171688
6	0x3d9f2566	0.07770805
7	0x3d5a5d15	0.053311426
8	0x3e0c68ff	0.13711928
9	0x3e208036	0.15673909
10	0x3dd30807	0.103042655
11	0x3e37c7d5	0.17947324
12	0x3e197550	0.14986157
13	0x3d6e3609	0.058157
14	0x3e070867	0.13186799
15	0x3dac1be1	0.08403755
16	0x3e03963f	0.12850283
17	0x3da7457d	0.08167551
18	0x3de12178	0.10992712
19	0x3dd09faf	0.10186707
20	0x3d83d5e0	0.06437278
21	0x3dc977a5	0.098372735
22	0x3dc93842	0.098251835
23	0x3db6701c	0.08908102
24	0x3dc30c9c	0.095238894
25	0x3da7dab8	0.08196014
26	0x3df864c1	0.12128592
27	0x3e052fa0	0.13006449
28	0x3dcc5eac	0.09978995
29	0x3d918e0f	0.07107174
30	0x3ded9a6a	0.11601718
31	0x3d60b793	0.05486257
32	0x3df566d0	0.119825006
33	0x3de7ac28	0.11312133
34	0x3d795d46	0.060879968
35	0x3e4f49df	0.20243023
36	0x3e00a6e3	0.12563662
37	0x3e1f7934	0.15573579
38	0x3df13780	0.11778164
39	0x3dce371e	0.100691065
40	0x3dc7139f	0.09720539
41	0x3d5e9a0c	0.05434613
42	0x3de5e07f	0.1122446
43	0x3da42e41	0.08016635
44	0x3dd9ee1c	0.10641119
45	0x3dcbe03f	0.09954881
46	0x3e143674	0.14473897
47	0x3dd83f7a	0.10558982
48	0x3e018d03	0.12651448
49	0x3dea6892	0.114457265
50	0x3d7448d6	0.059639774
51	0x3e227bc2	0.15867522
52	0x3e0a2ad2	0.13492897
53	0x3d86024b	0.06543406
54	0x3dc59309	0.09647185
55	0x3e257850	0.16159177
56	0x3e1edc91	0.15513827
57	0x3d61338b	0.054980796
58	0x3de512b9	0.11185212
59	0x3de716ff	0.11283683
60	0x3e49ef7d	0.19720264
61	0x3e04f3ef	0.12983678
62	0x3e415a80	0.1888218
63	0x3d8e3831	0.069443114
64	0x3dcce69f	0.10004925
65	0x3da5c2a7	0.080937676
66	0x3d778e37	0.06043836
67	0x3d726dd1	0.05918676
68	0x3e1af593	0.15132742
69	0x3d9dbdcd	0.07702217
70	0x3d9d3ed8	0.07678002
71	0x3dc1d27a	0.09463973
72	0x3dcae298	0.099065006
73	0x3e5a51fa	0.21320334
74	0x3da75f1b	0.08172437
75	0x3dc9aa8f	0.098469846
76	0x3dfb155f	0.122599356
77	0x3dc59bb8	0.096488416
78	0x3df76eff	0.12081718
79	0x3e07a5ec	0.13246888
80	0x3dfc691b	0.12324735
81	0x3da2b964	0.07945517
82	0x3d3880b9	0.045044634
83	0x3d49daff	0.049281117
84	0x3dc8e6a1	0.09809614
85	0x3e0311e6	0.12799796
86	0x3df2e798	0.11860579
87	0x3e4a8d1a	0.19780388
88	0x3dbe1e44	0.092831165
89	0x3e0095be	0.12557122
90	0x3e0c9a5d	0.1373076
91	0x3e121ce1	0.14268829
92	0x3e5b1690	0.21395326
93	0x3d773f6c	0.06036322
94	0x3dd865bc	0.10566279
95	0x3d9012ef	0.07034861
96	0x3d9da108	0.0769673
97	0x3e0323ab	0.12806575
98	0x3dce127b	0.100621186
99	0x3e4acfbe	0.1980581
100	0x3da9b965	0.08287314
101	0x3da27798	0.07932967
102	0x3dbdb8c3	0.09263756
103	0x3e0b2793	0.13589315
104	0x3dc63219	0.09677524
105	0x3de826ad	0.11335502
106	0x3dd9c272	0.106327906
107	0x3dc43879	0.09581084
108	0x3d607778	0.054801434
109	0x3dc1e648	0.09467751
110	0x3e17c7c1	0.14822294
111	0x3da21919	0.07914943
112	0x3dde193b	0.10844656
113	0x3db1729d	0.08664439
114	0x3d8aa9ba	0.06770654
115	0x3dceb28b	0.10092648
116	0x3e174d4d	0.14775582
117	0x3db5c2d4	0.08875051
118	0x3dd97c2f	0.10619389
119	0x3de3924a	0.11111887
120	0x3daf9c1d	0.08574698
121	0x3dad60ff	0.08465766
122	0x3de8c382	0.11365415
123	0x3e020dd1	0.12700583
124	0x3e2ac625	0.16677149
125	0x3db32eea	0.087491825
126	0x3e0a9ac6	0.13535604
127	0x3e0383d7	0.12843262
