saved_data/pge_mlp_distilled.pt (torch, 82255 bytes, 13 tensors)

layers.0.weight f4 [128, 10]
000000 e7 ac 35 be a8 32 88 be 16 3a 62 3e b8 97 dc bd
       -0.17741738 -0.26601148 0.2209247 -0.107711256
000010 10 fc f6 3c 8e 03 4d 3e 70 46 38 3d 20 37 7d be
       0.03014949 0.20020887 0.04498905 -0.2472806
000020 e8 57 89 be 00 64 29 bd f4 c8 61 be a0 a6 49 3c
       -0.2682488 -0.041355133 -0.22049314 0.012307793
000030 12 30 93 be 40 cc 2b bd 15 dc 98 3e 36 18 61 be
       -0.28747612 -0.041942835 0.2985541 -0.21981892
000040 08 b5 f0 3d 88 7e 1c bd 9f 92 80 3e d5 1b 96 3e
       0.11753279 -0.038206607 0.25111863 0.2931811
000050 36 60 70 3e 7d 34 83 3e cc 54 fa 3d 40 d7 d2 3b
       0.23474202 0.25625983 0.12223205 0.006434351
000060 80 b7 5f bc 3a ce 2d 3e e6 1c ef bd 0a a7 77 3e
       -0.01365459 0.169732 -0.11675434 0.24184814
000070 83 d6 78 be c7 16 9b be 60 5f 55 be c4 06 1d 3e
       -0.2430058 -0.30290815 -0.20837164 0.15334612
000080 66 cf 70 be 6c 58 ee 3d 88 82 1e 3e ce 59 07 3e
       -0.23516616 0.11637959 0.15479481 0.13217852
000090 d2 0c 9a be 52 88 ec bd 76 91 67 be 38 06 11 3d
       -0.30087906 -0.115494385 -0.22614083 0.03540632
0000a0 b8 f7 36 3e c0 0a 12 3e 8a 58 71 be 11 fb 8a be
       0.17867935 0.14261913 -0.23568931 -0.27144673
0000b0 da 4e 79 3e 7a 48 98 be fa b2 44 3e 0d 63 90 3e
       0.24346486 -0.29742795 0.19208899 0.2820057
0000c0 48 e1 22 3d 85 52 82 3e 4e f7 8d be cb 36 6c be
       0.039765626 0.25453582 -0.2772774 -0.23067777
0000d0 da 80 41 be f7 a1 93 be 85 d7 92 3e c6 db 78 3e
       -0.18896809 -0.28834507 0.28680053 0.24302587
0000e0 6f 58 81 3e c0 83 8c 3b ba d1 4b 3e fd a1 11 be
       0.25262782 0.0042881668 0.19904223 -0.1422195
0000f0 d8 ca 8a 3d 19 e6 8d 3e 48 1e 74 bd f4 e8 86 bd
       0.067769706 0.27714613 -0.05959919 -0.06587401
000100 5a e9 65 3e 5f 00 85 3e e0 f3 1b be 85 f0 87 3e
       0.22452298 0.25976846 -0.1522975 0.2655069
000110 7e 21 8e be 87 9d 88 be 9b 48 1b be e8 72 80 bd
       -0.27759928 -0.26682684 -0.15164416 -0.06271917
000120 80 05 d6 3d 22 cb 29 3e 20 db 6f bd 76 53 63 3e
       0.10450268 0.16581395 -0.058558583 0.22199807
000130 1c ee 36 3e 60 36 11 3e f0 f6 a9 3c 7f 24 53 be
       0.17864269 0.14180899 0.020747632 -0.20619391
000140 c0 e0 be bb 05 c9 15 be 74 3e 02 be 60 02 0b 3e
       -0.005825132 -0.14627464 -0.12719136 0.13575125
000150 68 3b 20 3d e8 97 5a 3d 8a 6f 39 3e 9a 27 1d be
       0.039119154 0.053367525 0.18108955 -0.15347138
000160 28 97 2f 3d c4 24 15 3e fb 39 97 3e a7 38 0a be
       0.042868763 0.14564806 0.29536423 -0.13498174
000170 f2 60 31 3e db e9 93 3e da e9 51 3e 2e 6f 41 3e
       0.17322138 0.28889355 0.20499364 0.18890068
000180 ec 86 13 be d2 16 77 3e 30 0d ad bc 3a 5a 7a be
       -0.14406937 0.24129799 -0.021124452 -0.24448481
000190 08 9e fa bd 68 20 aa bd ba 14 60 3e 1e 83 31 be
       -0.12237173 -0.08306962 0.21882907 -0.17335173
0001a0 00 9c 65 ba 00 e5 3a bc 51 fd 95 3e 38 33 34 3d
       -0.00087589025 -0.011407137 0.29294828 0.04399416
0001b0 ca cf 5a 3e a4 00 b6 bd 10 e7 c2 bc d0 e6 ad 3c
       0.21368328 -0.08886841 -0.02379182 0.021228224
0001c0 34 9a 98 be fc df 13 3e fe 29 d6 bd 5e 60 2f 3e
       -0.29805148 0.14440912 -0.10457228 0.17126605
0001d0 88 a1 8d bd 80 91 14 3c 64 01 85 bd c6 11 1a 3e
       -0.06915575 0.009067893 -0.06494406 0.15045843
0001e0 bb 2f 8c be 20 6a 43 be 80 4b de bc f0 de 81 be
       -0.27380165 -0.19083452 -0.02713561 -0.253654
0001f0 78 78 98 be 4f 97 a1 be 9c 87 9f be ee 5c a0 be
       -0.2977941 -0.31560752 -0.3115815 -0.313209
000200 46 0d 78 be 62 81 e2 bd 18 b8 c5 3d e4 50 9c be
       -0.24223813 -0.11059834 0.09654254 -0.30530465
000210 4f bf 31 be 5a aa be bd 36 98 8e be 04 40 ff 3d
       -0.17358135 -0.09309836 -0.27850503 0.12463382
000220 96 ba 38 3e e9 9a 92 3e 64 28 1d 3e 52 11 56 3e
       0.18039927 0.28633812 0.15347439 0.20905045
000230 fc d1 ec 3d 98 18 c6 3d 40 f9 b1 3c 10 b6 99 bc
       0.11563489 0.0967266 0.021725297 -0.018763572
000240 12 31 54 3e 26 7d 54 3e 82 29 1b 3e 90 25 e2 bc
       0.20721844 0.20750865 0.15152553 -0.027605802
000250 40 8b 27 3c 8a a0 87 be 84 8b 85 3d 1e 87 27 3e
       0.010226071 -0.2648967 0.06520751 0.16360137
000260 2c 7b 9b bd 40 e5 dd bc a0 92 a1 3d 70 56 17 3e
       -0.075918525 -0.027086854 0.078892946 0.14779067
000270 61 2d 36 be 64 bf a3 3d 06 47 44 3e e9 41 99 be
       -0.17790748 0.07995489 0.19167718 -0.29933098
000280 46 42 2d be 8b ac 3b be 07 d9 1f be d0 2a d5 bc
       -0.16919813 -0.18327539 -0.15610133 -0.026021391
000290 ae b6 5e be ae 37 79 3e f8 ab 53 bd c6 f1 6a 3e
       -0.21749374 0.24337646 -0.051677674 0.22943792
0002a0 de 4b 4b be 22 09 10 3e d8 66 7a bd 84 1b 26 3e
       -0.1985316 0.14065984 -0.061133236 0.16221434
0002b0 76 c0 54 be bc 9d 0b 3e e6 60 b7 bd 8e cf 66 be
       -0.20776543 0.1363439 -0.08954029 -0.22540113
0002c0 80 56 24 3e 60 47 bc bc 00 1f 48 bd f4 51 39 be
       0.16048622 -0.022983253 -0.04885769 -0.18097669
0002d0 97 e4 6c be e0 3d 1d 3e d0 7b 2a 3d 18 ae 3b 3d
       -0.23134075 0.15355635 0.041621983 0.045820326
0002e0 62 aa 46 3e 35 6d 97 3e 78 16 a3 3d 98 68 29 3e
       0.19400933 0.29575506 0.0796327 0.16543806
0002f0 63 ec 88 be 00 fc 7f bd 85 c7 86 3e ca 11 1f 3e
       -0.2674285 -0.062496185 0.26324096 0.1553413
000300 3f ca 85 3e 9d 40 8a 3e fc 5e 98 be e8 bb 1f be
       0.26130864 0.2700242 -0.29759967 -0.15599024
000310 48 d0 73 3d 0a 9a 55 3e c0 08 cc bc f0 07 28 3d
       0.059524804 0.20859542 -0.024906516 0.041023195
000320 e1 f0 01 be 00 b4 8f 39 ea 74 6c 3e 19 c8 98 be
       -0.12689544 0.00027409196 0.23091474 -0.29840162
000330 f8 95 4b 3d 80 fb 3b bc ee 8a d5 bd e4 9c db 3d
       0.04970357 -0.0114735365 -0.10426889 0.10723284
000340 28 7d fa bd d2 8d cd bd ca e0 62 3e 18 9d d5 3d
       -0.12230903 -0.10036816 0.22156063 0.10430354
000350 ab 6e 17 be 8f f2 2b be 82 6b 40 3e ea b1 62 3e
       -0.1478831 -0.16791748 0.18791011 0.22138181
000360 4e cb 19 3e 07 08 80 3e 9a e0 55 be 04 85 dc 3d
       0.15018961 0.25006124 -0.2088646 0.10767558
000370 88 24 4f be 34 93 ba 3d a1 30 39 be 6a e4 53 3e
       -0.2022878 0.09110108 -0.18084957 0.20692602
000380 ed 22 8f be ae 5a e8 bd 98 1b ef 3d 74 7f 2f 3e
       -0.27956334 -0.11345421 0.11675185 0.17138463
000390 f4 2c 39 3e a0 6b d2 3d 2f f4 0a be 7a 04 89 be
       0.18083555 0.10274434 -0.13569711 -0.26761228
0003a0 eb 82 a0 3e 12 dd 32 be 28 b9 4e bd 93 6e 9e 3e
       0.31349882 -0.17467144 -0.050469548 0.30943736
0003b0 18 c6 0a 3d 96 4c 04 3e 53 33 85 3e c8 ab 6c bd
       0.033880323 0.1291984 0.2601572 -0.05778101
0003c0 70 b1 26 3d 8c f6 f9 3d f3 f7 99 be 45 12 69 be
       0.04069656 0.12205228 -0.30071983 -0.22760876
0003d0 b0 29 f6 bd ce ee 4f 3e fc bc ad 3d b5 98 8e 3e
       -0.1201967 0.2030594 0.084833115 0.2785088
0003e0 30 36 94 3c 5d f8 84 3e ce 87 ac bd 5e 53 55 be
       0.018092245 0.25970736 -0.0842434 -0.20832583
0003f0 50 07 8e 3d 1e 71 63 3e 08 90 40 3d 08 dd 85 bd
       0.069349885 0.2221112 0.04701236 -0.06536299

layers.0.bias f4 [128]
000000 3a e1 53 be e0 c5 c4 bc 45 bf 04 be 0b 87 96 3e
       -0.20691386 -0.024020135 -0.12963589 0.29399905
000010 a9 0d 3b be f5 c1 68 be ef 4d 8a be 75 7f 3f be
       -0.1826693 -0.22730239 -0.27012584 -0.18700965
000020 10 aa 04 be cf 50 60 be 28 6b c9 3d dc 95 be 3d
       -0.12955499 -0.21905826 0.098348916 0.09305927
000030 40 7d cb 3b c0 21 29 bd f0 68 eb bc 03 f9 81 be
       0.0062099993 -0.041291952 -0.028736562 -0.25385293
000040 9d 5f 8a 3e 8c 6a 80 bd bb 75 6f be 50 f1 f3 3d
       0.27026072 -0.06270322 -0.23384754 0.11911261
000050 c6 9e 99 be db 6f 94 3e a0 2b 60 bc e4 56 82 bd
       -0.30003947 0.2899159 -0.013682276 -0.06364229
000060 aa 09 ee bd 2e bf 46 be 2d 95 9d be be 5b 31 3e
       -0.11622937 -0.19408867 -0.30777875 0.17320153
000070 58 10 dd 3d b2 c1 17 3e 78 c7 33 3d 4a 28 31 3e
       0.10794133 0.14819983 0.0438914 0.17300525
000080 ae 8b 98 bd 38 72 59 3d 70 17 f6 bc d8 40 c8 3d
       -0.07448517 0.053087443 -0.030040473 0.09777993
000090 6c 04 e4 bd d0 c3 b9 bc d6 ea 12 be e0 80 22 3c
       -0.11133656 -0.022676378 -0.14347395 0.0099184215
0000a0 f8 7d 23 3d 58 6d 56 be 17 d9 66 be 98 c6 bf bd
       0.039915055 -0.20940149 -0.2254375 -0.093640506
0000b0 a4 50 f9 3d 75 f0 9b 3e 48 73 1d 3e ad 50 51 be
       0.12173584 0.30456892 0.15376008 -0.20440932
0000c0 62 bb 6b 3e 40 a4 c0 bc 64 cc 31 3e f8 fc c9 3d
       0.230207 -0.02351582 0.17363125 0.09862703
0000d0 b8 f6 80 3d de 41 79 3e a4 f8 b3 3d a8 c5 21 bd
       0.06297058 0.24341533 0.08787659 -0.03949514
0000e0 17 70 34 be de 00 5a 3e 7d ae 91 3e 30 8e 1a 3e
       -0.17620884 0.21289393 0.28453436 0.15093303
0000f0 74 61 a7 bd d4 3e ca 3d 21 b6 9f be b2 71 d0 bd
       -0.081728846 0.09875265 -0.3119364 -0.10177936
000100 ed 76 98 3e 77 8f 87 3e 91 3e 20 be 2e 1a 26 be
       0.29778233 0.26476642 -0.15648867 -0.16220924
000110 96 a7 5f be b8 09 5a 3d e0 22 76 be c7 67 9c 3e
       -0.21841273 0.053231925 -0.24036741 0.30547926
000120 ac 62 15 3e 80 ec 26 3d 38 2f 88 be 20 a6 08 3e
       0.14588422 0.040752888 -0.26598525 0.13344622
000130 5c fa 55 be 57 02 93 be 33 14 9e 3e 9c 7c 28 3e
       -0.20896286 -0.28712723 0.30874786 0.16453785
000140 fa fe 5b be c6 b8 74 be 5a 81 79 3e 00 00 0f 3e
       -0.21483985 -0.2389861 0.2436575 0.13964844
000150 c6 7e 58 3e 3e d2 f0 bd e4 7b 86 be 38 cf 57 3d
       0.2114211 -0.117588505 -0.26266396 0.052687854
000160 65 1a 73 be e0 40 af bc 90 d1 04 bd 20 7c 7b bd
       -0.23740537 -0.02139324 -0.032426417 -0.06139767
000170 d4 c2 8c 3d 64 2b 41 be eb d3 8a 3e 34 89 97 bd
       0.06873098 -0.18864208 0.27114806 -0.07399216
000180 fd 6c 2c be ff 16 5b be 98 f0 38 be 7b eb 81 3e
       -0.1683845 -0.21395491 -0.18060529 0.2537497
000190 9a 7f 2f 3e 14 2a eb bd 69 a5 83 3e 20 0a 7d 3c
       0.1713852 -0.11482635 0.25712135 0.0154443085
0001a0 e9 43 a0 3e 81 e6 a1 3e 28 8e 2d 3d 00 1b 7b bc
       0.3130181 0.31621173 0.0423719 -0.0153262615
0001b0 b2 48 6c 3e 7a 1f 69 3e 88 69 f3 bd b1 f3 84 3e
       0.23074606 0.22765914 -0.11885363 0.25967172
0001c0 a0 72 c7 bc 89 90 0c be 99 f3 92 3e 94 1f 5d be
       -0.02434665 -0.13727011 0.28701475 -0.21594077
0001d0 6a 6c 32 3e 76 fd 43 3e 20 4a 92 3c e8 c9 da bd
       0.17424169 0.19139656 0.017857611 -0.10683042
0001e0 42 6b c7 bd 96 2a 40 3e c6 07 6a be 30 ab 08 3d
       -0.09737255 0.18766245 -0.22854528 0.033366382
0001f0 4e b4 1c 3e 87 8f 89 3e 7c 1e 0a 3e 0c 0b b8 3d
       0.15303156 0.26867315 0.13488191 0.08986482

layers.1.weight f4 [128, 128]
000000 5e 84 47 3d 90 bd 46 3c 00 9c 90 bd 70 ff 71 bd
       0.04871022 0.012130156 -0.07061005 -0.059081495
000010 9c b5 34 bd 9d 5d 4e bd 2c 2c a5 3c 25 bf 10 bd
       -0.04411851 -0.050382245 0.020162664 -0.03533854
000020 47 c7 a8 bd 9c b8 0f 3d 7a 29 44 3d 60 1b 2f bb
       -0.08241134 0.035088167 0.047891118 -0.0026719198
000030 10 22 6b bc 8a a6 30 bd 28 85 c6 3c 2c cc 14 bd
       -0.014351383 -0.043127574 0.024233416 -0.036327526
000040 90 53 89 bd ad c1 88 3d 90 10 4c bd 68 b6 49 bd
       -0.067053914 0.06677566 -0.049820483 -0.04924622
000050 95 86 0b bd 10 ff c4 3b 11 e3 ab bd 08 98 52 bd
       -0.034063894 0.006011851 -0.08392919 -0.05141452
000060 55 7b 90 3d bf 42 9b 3d e4 8c 8b bc 87 3d 84 3d
       0.07054774 0.0758109 -0.017034955 0.06457048
000070 e2 62 2a 3d 22 47 4f 3d 48 39 36 bc ca a6 80 bd
       0.04159821 0.050604947 -0.011122055 -0.062818125
000080 b4 b3 85 bd 92 72 77 3d 22 f3 ad bd b8 f1 e7 bc
       -0.06528416 0.060411997 -0.084936395 -0.028313503
000090 7e 8a 5e 3d da 34 48 3d 8d 02 a0 3d c0 f3 7f bb
       0.054331295 0.04887853 0.078129865 -0.0039055198
0000a0 d5 54 7a bd e0 3e b4 bd ae 72 41 3d 87 d1 3f bd
       -0.06111606 -0.08801055 0.047228508 -0.04683068
0000b0 ed 65 aa 3d cc 75 42 bd 8c 3d af 3c fd 30 a5 3d
       0.08320222 -0.04747562 0.021391653 0.080659844
0000c0 bc 93 fd 3c 23 cf 22 bd 12 83 6f 3d 0b be 7b bd
       0.030954234 -0.039748322 0.058474608 -0.061460536
0000d0 3e 1c 44 3d 10 05 11 bc b0 51 67 bc be 7b ab bd
       0.047878496 -0.008851305 -0.014118597 -0.08373211
0000e0 58 a0 7a 3c 85 8d 91 3d 2b 2a 88 3d bf 4e 54 bd
       0.015297018 0.07107071 0.06648668 -0.05183291
0000f0 1e 43 74 3d f5 6a 68 bd 0d 0e 87 3d 48 f4 83 bd
       0.05963432 -0.056742627 0.06594477 -0.06443077
000100 bb 0c 1d bd 35 d7 6f bd 98 56 79 bd 6a 40 30 3d
       -0.03834222 -0.058554847 -0.060873598 0.04303018
000110 7e 41 28 3d c2 1b 66 3d 80 b1 62 bd 42 5d 44 bd
       0.041078083 0.056178816 -0.05534506 -0.0479405
000120 08 29 a1 bc f9 66 15 bd 44 3f df 3c 70 7f dd 3b
       -0.019672886 -0.036475156 0.027251847 0.0067595765
000130 5a 80 a1 bd 06 5e 52 3d ae 25 08 bd 48 0b 41 bc
       -0.07885809 0.0513592 -0.03323906 -0.011782475
000140 7a 01 73 3d ba 4f 7c 3d b6 ac 15 3d 80 69 f7 3c
       0.05932758 0.06159947 0.036541663 0.030201674
000150 71 bd 8d 3d 26 e3 67 3d 4a a8 46 3d a4 ab 06 3d
       0.06920899 0.05661311 0.048500337 0.032878533
000160 8a 8b 54 3d fb cb 1b bd 4c 95 fa 3c e0 03 7f bd
       0.051890887 -0.038036328 0.030588768 -0.062259555
000170 62 7c 05 bd 16 71 89 bd 7a fa 29 3d 73 6d 80 bd
       -0.032589324 -0.067110226 0.04149864 -0.06270876
000180 28 39 43 bd 1c 55 c4 bc 09 42 91 3d 70 1f a4 3c
       -0.04766193 -0.023966365 0.07092673 0.020034522
000190 48 e0 f9 bc df b9 b1 3d 33 fd b4 3d e3 52 02 bd
       -0.030502453 0.0867803 0.088373564 -0.03181733
0001a0 61 80 92 3d 32 dc 69 3d e8 66 02 3c 55 62 ae 3d
       0.071533926 0.05709476 0.007959105 0.08514849
0001b0 30 ab 66 3c ec 3b a3 bd 48 20 7b 3c c7 17 5f bd
       0.0140789 -0.079704136 0.015327521 -0.054466035
0001c0 e0 ee ea 3c 55 36 80 bd f8 3e f2 3c f8 64 f7 3c
       0.028678358 -0.06260363 0.029571041 0.030199513
0001d0 5c e5 8c bc 20 91 d8 bc 1c 68 a2 bc c8 6c 2d bd
       -0.01719921 -0.026436388 -0.019825034 -0.04234007
0001e0 24 33 82 bd 1c 95 9c 3c 9d 03 ab 3d 90 23 ed 3b
       -0.063574106 0.01911407 0.083502986 0.0072369054
0001f0 2c 5e 79 bd c8 d0 09 bc c0 e2 7f 3b 0d c4 97 3d
       -0.060880825 -0.008411594 0.0039045066 0.074104406
000200 19 b3 8f bd 68 9b d4 3c 4c 42 0a bd 00 47 11 3b
       -0.07016582 0.02595301 -0.033754632 0.0022167563
000210 60 25 d8 3b ce 78 00 bd 33 bb 8b bd 97 06 86 3d
       0.0065962523 -0.03136521 -0.06822815 0.06544226
000220 80 91 12 bb e7 60 91 3d e5 2a 9c bd e0 2c 72 bc
       -0.0022364557 0.07098561 -0.07625369 -0.014781207
000230 a0 1f 71 bd 6d f8 a6 3d 20 59 d2 3b c0 b1 8b bc
       -0.05886805 0.08152852 0.006419316 -0.017052531
000240 9e 98 6c 3d c4 d1 b0 bc fa ba 65 bd 80 80 0d 3b
       0.057762735 -0.021584399 -0.056086518 0.0021591485
000250 00 88 16 b8 00 06 0b 3c 62 be d8 bc 88 c3 0c bd
       -3.5889447e-05 0.008485317 -0.02645797 -0.03436616
000260 d7 cb 45 bd d9 e8 13 bd 2c 54 ac 3c 7c 9a 9f 3c
       -0.0482901 -0.036110733 0.02103623 0.019482844
000270 5d b1 8d bd a4 3e f0 bc 6a 68 30 bd 24 5e c3 3c
       -0.06918595 -0.029326744 -0.043068327 0.0238486
000280 b2 30 88 bd 15 a9 a7 3d f8 e4 91 bd db 9e ad 3d
       -0.06649913 0.08186547 -0.071237504 0.08477565
000290 e8 34 53 bd 30 ad 0e 3c 30 3e 72 bc da 4d 48 3d
       -0.051564127 0.008708283 -0.0147853345 0.04890237
0002a0 c6 27 99 bd 38 1b 1e 3c b5 ec 8b 3d 09 e7 a9 3d
       -0.07478289 0.009650044 0.06832258 0.082960196
0002b0 c8 37 5b bd 35 22 a2 bd 43 d9 a0 bd fd e2 51 bd
       -0.053519994 -0.07916681 -0.078539394 -0.051241864
0002c0 e0 94 91 bb 0c 2e a9 bd bf 35 36 bd b0 6b 10 3d
       -0.004442796 -0.08260736 -0.04448485 0.03525895
0002d0 71 84 2c bd a9 94 30 bd ac 0f b1 bc 86 65 38 3d
       -0.042118493 -0.043110523 -0.021613918 0.045018695
0002e0 f7 9c a7 3d e5 9b 59 bd 00 ad 49 bb 07 b1 a2 3d
       0.081842355 -0.05312719 -0.0030773282 0.079439215
0002f0 b8 00 9d bc de de 03 bd 2e 91 48 3d 5d 5d 49 bd
       -0.019165382 -0.032194965 0.04896658 -0.049161304
000300 d0 8b 2c bd 60 4c ac 3c 82 4c 50 3d 74 c6 0d 3d
       -0.042125523 0.021032512 0.050854214 0.034613088
000310 ac 94 ad 3c 48 0c 7f bc 0d 14 a6 3d 80 b7 64 3c
       0.021189056 -0.015566893 0.08109293 0.013959765
000320 1a 92 49 bd f4 32 44 bd 3b 7a 35 bd 24 93 88 3c
       -0.0492116 -0.047900155 -0.04430602 0.016671725
000330 1b 2c 82 3d 7b f4 a9 3d 90 e7 ea 3c aa ad 9a bd
       0.06356069 0.08298584 0.02867487 -0.07552655
000340 96 5e ae bd b8 61 4b bc b0 fc 53 3c 34 a1 ac 3c
       -0.085141346 -0.012413435 0.012938663 0.021072961
000350 93 a8 80 bd e0 10 bf 3b d0 5e 4b bc 56 fa 7f 3d
       -0.06282153 0.005830869 -0.012412742 0.0624946
000360 b8 2e 4b bd 6d fd 66 bd b0 95 ce 3b 5a 85 18 bd
       -0.0496051 -0.05639403 0.0063044652 -0.03723655
000370 40 6e 9b bc 96 f8 25 bd ad a9 86 bd 38 90 88 bd
       -0.01897347 -0.040520273 -0.06575332 -0.066681325
000380 6a d3 7c 3d 80 20 03 bb a0 18 09 bd 44 65 29 bd
       0.061725058 -0.0020008385 -0.03347075 -0.04135634
000390 14 2e 95 bd fa 9c 40 3d a8 23 b2 3c ad 73 9a bd
       -0.07284179 0.047024705 0.021745518 -0.07541595
0003a0 3e 0b 73 3d 58 84 bd 3c 85 2a 5c bd 79 b5 91 3d
       0.059336893 0.023134395 -0.053751487 0.07114691
0003b0 f8 9c ad 3c f8 c4 76 3c 44 f8 86 bd 4c a4 af bd
       0.021193013 0.015061609 -0.06590322 -0.08576259
0003c0 3c 14 8f bd 29 e5 84 3d 00 66 07 3b ac 34 be bc
       -0.06986281 0.06489021 0.0020660162 -0.023218475
0003d0 36 35 58 3d ea 8f 19 3d dc cc a8 bd aa 9f 4b 3d
       0.05278512 0.037490763 -0.08242199 0.049712814
0003e0 f8 5e 2d bc 0a 31 83 bd ba bf 7b 3d 10 4c be bb
       -0.010581724 -0.06405838 0.06146214 -0.005807407
0003f0 b4 2c 24 bd 56 c1 51 3d 5d 31 92 3d e5 1e 98 3d
       -0.040081695 0.05120977 0.071383215 0.07427768

layers.1.bias f4 [128]
000000 66 2a a4 bd 48 e1 c9 3c 08 cd ae bc 66 19 3d 3d
       -0.08015899 0.024643555 -0.021338 0.0461668
000010 32 0e 03 bd 1f a7 99 3d c1 49 97 3d 06 38 3a 3d
       -0.03199596 0.07502579 0.07387114 0.045463584
000020 96 56 6e bd 9c 3a c1 3c b0 7c 07 bc 49 30 58 bd
       -0.058188044 0.023587517 -0.008269474 -0.052780423
000030 08 1d a3 bd f1 da ad bd 43 db b0 bd ab 3a 37 bd
       -0.07964522 -0.084890254 -0.08635571 -0.044733685
000040 e8 ef ad bd e6 3d 28 3d 28 28 6c bc d6 61 49 3d
       -0.08493024 0.041074656 -0.014413871 0.04916557
000050 ec 1a 57 bd 3d 57 9f 3d 20 16 5c 3c eb f5 44 bd
       -0.05251591 0.07780311 0.013433009 -0.04808609
000060 00 81 ec 3a 39 4d 9f 3d aa f3 3d 3d 00 c6 c5 3c
       0.0018043816 0.07778401 0.046374954 0.024142265
000070 0b b7 2e bd b0 c4 5b bc 67 43 9b 3d 72 79 28 3d
       -0.042655032 -0.013413593 0.07581215 0.041131444
000080 eb 75 b1 3d d3 2f ac 3d 44 7a 7e bd 34 2c 7f bd
       0.08665069 0.08407559 -0.06212832 -0.062298015
000090 b0 04 a1 bd cb 08 1e bd 9a 95 7b 3d 2c 70 d9 bc
       -0.07862222 -0.038582604 0.061421968 -0.026542746
0000a0 77 d2 5f bd d0 8b 0f 3c 58 17 5d 3c c0 14 63 bc
       -0.054644074 0.008761361 0.013494335 -0.013859928
0000b0 7e 43 10 3d 96 e5 2e 3d cc 85 ae bd fc 81 97 bd
       0.035220616 0.04269942 -0.085216135 -0.073978394
0000c0 3e ce 49 3d 5a d0 19 3d 3e b7 9d bd 73 3c 8a 3d
       0.049268954 0.037552215 -0.07700966 0.06749811
0000d0 e9 ce ae bd 1c 1b ed 3c b1 db 9f 3d 18 d6 be bc
       -0.08535559 0.02894359 0.07805575 -0.023295447
0000e0 00 f7 c2 bc c8 51 1a 3c d6 75 9e bd 5d 66 81 3d
       -0.02379942 0.009418912 -0.07737319 0.06318352
0000f0 53 4a 87 3d 04 0c 8f bd 65 9d 99 bd d1 6a 72 bd
       0.06605973 -0.06984714 -0.07500724 -0.0591839
000100 58 6c 3e 3c 3e 97 30 3d e0 04 68 3c e3 70 a6 3d
       0.011622511 0.043112986 0.014161319 0.08127
000110 e6 66 5f 3d 36 62 09 3d bd ee 9f 3d 33 23 9a 3d
       0.05454149 0.033540927 0.078092076 0.07526245
000120 f7 76 4d bd a1 9f ae 3d d0 4e 9e bc bb 1d 85 3d
       -0.05016228 0.085265405 -0.01932469 0.06499811
000130 b4 1c 44 bd 28 c9 12 3d 88 03 8d bd e4 d8 b0 bd
       -0.047878936 0.03583637 -0.06885439 -0.086351186
000140 6c fc b0 3c 0d 27 b0 bd 70 c7 d4 bb 17 7d 80 3d
       0.02160474 -0.08601198 -0.0064935014 0.06273859
000150 b0 32 a3 bb ea d8 94 bd 52 39 73 3d ee 3d 0b 3d
       -0.0049804077 -0.072679356 0.059380837 0.033994608
000160 70 14 9a bb 40 70 a5 ba fb ce 46 bd f8 c1 6d bc
       -0.0047021434 -0.0012621954 -0.048537236 -0.014511578
000170 58 c8 6f 3c 4a e3 80 bd 44 0f 8b 3c 07 af 85 3d
       0.014635168 -0.06293352 0.016975053 0.065275244
000180 81 0a 84 3d db a9 8d bd 58 25 33 bd 56 c5 23 3d
       0.06447316 -0.06917163 -0.043736786 0.039983116
000190 a8 d1 97 bc f7 ec 4d bd 1c 72 6c bd 20 19 17 3c
       -0.01853259 -0.050274815 -0.05772601 0.009222299
0001a0 18 31 39 bc fd 18 8a 3d d6 a5 55 3d c0 1d 8b 3a
       -0.011303209 0.067430474 0.052160107 0.0010613725
0001b0 80 5a b6 3b 76 38 28 bd 40 da 83 3c 8b 33 a1 3d
       0.0055649877 -0.04106947 0.01609528 0.07871159
0001c0 00 94 9e bd b9 2d 96 bd d8 23 c9 3c 40 c2 58 bc
       -0.077430725 -0.0733294 0.024553224 -0.013229907
0001d0 63 30 af 3d 60 2d 5e bb 50 0a 0c 3c 96 44 42 3d
       0.08554151 -0.0033901557 0.008547381 0.04742869
0001e0 40 60 a8 ba 1b b7 9e 3d ad dd 82 bd 94 12 ca bc
       -0.0012846068 0.07749768 -0.063899375 -0.024667062
0001f0 cc 67 a6 bd 4c 5d 9c 3c 40 b3 26 bc c9 aa 79 bd
       -0.081252664 0.019087456 -0.0101745725 -0.06095389

layers.2.weight f4 [1, 128]
000000 c2 8a 22 3d 50 68 98 3c 02 9e 5b 3d 74 14 fd 3c
       0.03968311 0.018604428 0.053617485 0.030893542
000010 86 cb 5d bd 98 06 0f 3d 1b 9b 14 bd d0 28 e0 bb
       -0.054149173 0.034918398 -0.036280733 -0.0068408027
000020 07 ff b3 bd 4e 57 db bc 70 52 a9 3b 50 9c fe 3c
       -0.08788877 -0.026775029 0.005167298 0.031080395
000030 92 69 39 bd 28 2d 22 bd 65 56 a6 3d 90 db a0 3c
       -0.045266695 -0.039593846 0.08121947 0.019635946
000040 00 89 99 39 10 61 58 bc d8 57 0c 3d c0 4f 1c 3b
       0.00029284507 -0.013206735 0.03426346 0.0023851246
000050 63 47 13 bd 12 bb 42 3d 76 18 8a bd 03 14 8d 3d
       -0.03595675 0.047541685 -0.06742947 0.068885826
000060 00 ba bd 3c 97 63 55 bd 1f 77 88 3d d6 33 5f 3d
       0.02315998 -0.05209693 0.066633455 0.054492794
000070 80 b0 81 3c ee 51 3e 3d 24 3a 6d bd e4 48 ba bc
       0.015831232 0.046464853 -0.057916775 -0.022739835
000080 ad 5a 8d bd d6 e8 6d 3d f4 58 ab bd a0 52 0a bd
       -0.06902061 0.058083378 -0.08366576 -0.033770204
000090 26 e4 67 3d df 85 8c 3d aa bf 5f 3d be b8 1b 3d
       0.056614064 0.068614714 0.054626144 0.03801798
0000a0 70 be cd bb 93 b7 8f 3d 90 fe e5 bb 20 af 28 3b
       -0.0062788054 0.07017436 -0.0070188716 0.0025739148
0000b0 9a 20 85 bd f4 25 ba bc e8 81 01 3c 70 73 ca bc
       -0.06500359 -0.022723176 0.007904507 -0.024713248
0000c0 f9 58 31 bd f7 f7 8e 3d 7d 1f 61 bd e0 52 de 3b
       -0.04329774 0.06980889 -0.05496167 0.006784782
0000d0 4f 1b a5 3d 2a 31 7e 3d b9 9a a5 3d 22 4d 73 3d
       0.08061849 0.062058605 0.08086152 0.05939973
0000e0 00 c8 7b b8 ba 8e 79 3d b6 82 42 bd 00 ac 00 3a
       -6.0029328e-05 0.06092713 -0.047487937 0.00049084425
0000f0 c0 70 0c bc bb c1 b4 3d 18 25 43 3c db e5 a1 3d
       -0.008571804 0.08826014 0.011910699 0.079051696
000100 46 23 2b bd 9d 58 b4 3d 9f ca b2 3d 37 b3 55 bd
       -0.041781686 0.08805964 0.08730053 -0.052172866
000110 e8 d4 ac bd a8 9a 04 3c 76 75 55 3d a5 8c 42 bd
       -0.08439046 0.008093514 0.052113973 -0.04749741
000120 a9 02 1c bd c0 cc 5b bb b0 34 ff bb 03 73 82 3d
       -0.038088474 -0.0033538789 -0.0077882633 0.06369593
000130 66 b3 18 3d 3e e4 4c 3d 16 dd 56 3d ac 63 89 3c
       0.037280463 0.050022356 0.052456938 0.01677116
000140 04 b3 e9 3c a5 20 57 bd 1c d0 97 bd 00 6f 93 bd
       0.028527744 -0.052521367 -0.074127406 -0.07198906
000150 9e 5a e8 bc 28 63 3e bc ce 6f e4 bc c0 16 9b bb
       -0.028363522 -0.01162032 -0.027885344 -0.0047329366
000160 f9 84 8d 3d c9 6c 26 bd 56 d8 9b bd c4 6d 94 bd
       0.06910128 -0.04063109 -0.07609622 -0.07247499
000170 a7 a7 a1 3d 18 8c 94 bd 48 5a 8f bc cb 74 a0 3d
       0.07893305 -0.07253283 -0.017499104 0.078347765
000180 48 7d 59 3c 4d 93 ad bd 37 89 aa 3d 67 dd 91 bd
       0.013274498 -0.08475361 0.08326953 -0.07122307
000190 2d 77 aa 3d ae 30 6f 3d 08 1b 94 bd ab 84 98 3d
       0.08323512 0.058396034 -0.07231718 0.074471794
0001a0 cd bb 94 3d e5 18 b0 3d c6 54 23 3d 7a e7 52 3d
       0.07262383 0.08598498 0.039875768 0.051490285
0001b0 70 81 b0 3b 96 86 57 3d 79 2b 98 bd bf e7 89 3d
       0.005386524 0.052618586 -0.07430167 0.06733655
0001c0 6e 73 60 bd 45 fa 99 bd 30 66 75 bc ca c2 72 3d
       -0.054797582 -0.07518438 -0.014977977 0.059267797
0001d0 90 24 8c bd 00 0d b9 bc 02 ad 26 3d 36 1d 99 bd
       -0.06842911 -0.022589207 0.040692337 -0.07476275
0001e0 34 5c e6 3c db d0 a3 3d fa 6b 1b 3d da b3 e2 bc
       0.028120138 0.079988204 0.03794477 -0.02767365
0001f0 00 14 5a bb e9 9a 94 3d e5 b9 30 bd 05 34 94 bd
       -0.003327608 0.07256109 -0.043146033 -0.072364844

bns.0.weight f4 [128]
000000 00 00 80 3f 00 00 80 3f 00 00 80 3f 00 00 80 3f
       1.0 1.0 1.0 1.0
000010 00 00 80 3f 00 00 80 3f 00 00 80 3f 00 00 80 3f
       1.0 1.0 1.0 1.0
000020 00 00 80 3f 00 00 80 3f 00 00 80 3f 00 00 80 3f
       1.0 1.0 1.0 1.0
000030 00 00 80 3f 00 00 80 3f 00 00 80 3f 00 00 80 3f
       1.0 1.0 1.0 1.0
000040 00 00 80 3f 00 00 80 3f 00 00 80 3f 00 00 80 3f
       1.0 1.0 1.0 1.0
000050 00 00 80 3f 00 00 80 3f 00 00 80 3f 00 00 80 3f
       1.0 1.0 1.0 1.0
000060 00 00 80 3f 00 00 80 3f 00 00 80 3f 00 00 80 3f
       1.0 1.0 1.0 1.0
000070 00 00 80 3f 00 00 80 3f 00 00 80 3f 00 00 80 3f
       1.0 1.0 1.0 1.0
000080 00 00 80 3f 00 00 80 3f 00 00 80 3f 00 00 80 3f
       1.0 1.0 1.0 1.0
000090 00 00 80 3f 00 00 80 3f 00 00 80 3f 00 00 80 3f
       1.0 1.0 1.0 1.0
0000a0 00 00 80 3f 00 00 80 3f 00 00 80 3f 00 00 80 3f
       1.0 1.0 1.0 1.0
0000b0 00 00 80 3f 00 00 80 3f 00 00 80 3f 00 00 80 3f
       1.0 1.0 1.0 1.0
0000c0 00 00 80 3f 00 00 80 3f 00 00 80 3f 00 00 80 3f
       1.0 1.0 1.0 1.0
0000d0 00 00 80 3f 00 00 80 3f 00 00 80 3f 00 00 80 3f
       1.0 1.0 1.0 1.0
0000e0 00 00 80 3f 00 00 80 3f 00 00 80 3f 00 00 80 3f
       1.0 1.0 1.0 1.0
0000f0 00 00 80 3f 00 00 80 3f 00 00 80 3f 00 00 80 3f
       1.0 1.0 1.0 1.0
000100 00 00 80 3f 00 00 80 3f 00 00 80 3f 00 00 80 3f
       1.0 1.0 1.0 1.0
000110 00 00 80 3f 00 00 80 3f 00 00 80 3f 00 00 80 3f
       1.0 1.0 1.0 1.0
000120 00 00 80 3f 00 00 80 3f 00 00 80 3f 00 00 80 3f
       1.0 1.0 1.0 1.0
000130 00 00 80 3f 00 00 80 3f 00 00 80 3f 00 00 80 3f
       1.0 1.0 1.0 1.0
000140 00 00 80 3f 00 00 80 3f 00 00 80 3f 00 00 80 3f
       1.0 1.0 1.0 1.0
000150 00 00 80 3f 00 00 80 3f 00 00 80 3f 00 00 80 3f
       1.0 1.0 1.0 1.0
000160 00 00 80 3f 00 00 80 3f 00 00 80 3f 00 00 80 3f
       1.0 1.0 1.0 1.0
000170 00 00 80 3f 00 00 80 3f 00 00 80 3f 00 00 80 3f
       1.0 1.0 1.0 1.0
000180 00 00 80 3f 00 00 80 3f 00 00 80 3f 00 00 80 3f
       1.0 1.0 1.0 1.0
000190 00 00 80 3f 00 00 80 3f 00 00 80 3f 00 00 80 3f
       1.0 1.0 1.0 1.0
0001a0 00 00 80 3f 00 00 80 3f 00 00 80 3f 00 00 80 3f
       1.0 1.0 1.0 1.0
0001b0 00 00 80 3f 00 00 80 3f 00 00 80 3f 00 00 80 3f
       1.0 1.0 1.0 1.0
0001c0 00 00 80 3f 00 00 80 3f 00 00 80 3f 00 00 80 3f
       1.0 1.0 1.0 1.0
0001d0 00 00 80 3f 00 00 80 3f 00 00 80 3f 00 00 80 3f
       1.0 1.0 1.0 1.0
0001e0 00 00 80 3f 00 00 80 3f 00 00 80 3f 00 00 80 3f
       1.0 1.0 1.0 1.0
0001f0 00 00 80 3f 00 00 80 3f 00 00 80 3f 00 00 80 3f
       1.0 1.0 1.0 1.0

bns.0.bias f4 [128]
000000 00 00 00 00 00 00 00 00 00 00 00 00 00 00 00 00
       0.0 0.0 0.0 0.0
000010 00 00 00 00 00 00 00 00 00 00 00 00 00 00 00 00
       0.0 0.0 0.0 0.0
000020 00 00 00 00 00 00 00 00 00 00 00 00 00 00 00 00
       0.0 0.0 0.0 0.0
000030 00 00 00 00 00 00 00 00 00 00 00 00 00 00 00 00
       0.0 0.0 0.0 0.0
000040 00 00 00 00 00 00 00 00 00 00 00 00 00 00 00 00
       0.0 0.0 0.0 0.0
000050 00 00 00 00 00 00 00 00 00 00 00 00 00 00 00 00
       0.0 0.0 0.0 0.0
000060 00 00 00 00 00 00 00 00 00 00 00 00 00 00 00 00
       0.0 0.0 0.0 0.0
000070 00 00 00 00 00 00 00 00 00 00 00 00 00 00 00 00
       0.0 0.0 0.0 0.0
000080 00 00 00 00 00 00 00 00 00 00 00 00 00 00 00 00
       0.0 0.0 0.0 0.0
000090 00 00 00 00 00 00 00 00 00 00 00 00 00 00 00 00
       0.0 0.0 0.0 0.0
0000a0 00 00 00 00 00 00 00 00 00 00 00 00 00 00 00 00
       0.0 0.0 0.0 0.0
0000b0 00 00 00 00 00 00 00 00 00 00 00 00 00 00 00 00
       0.0 0.0 0.0 0.0
0000c0 00 00 00 00 00 00 00 00 00 00 00 00 00 00 00 00
       0.0 0.0 0.0 0.0
0000d0 00 00 00 00 00 00 00 00 00 00 00 00 00 00 00 00
       0.0 0.0 0.0 0.0
0000e0 00 00 00 00 00 00 00 00 00 00 00 00 00 00 00 00
       0.0 0.0 0.0 0.0
0000f0 00 00 00 00 00 00 00 00 00 00 00 00 00 00 00 00
       0.0 0.0 0.0 0.0
000100 00 00 00 00 00 00 00 00 00 00 00 00 00 00 00 00
       0.0 0.0 0.0 0.0
000110 00 00 00 00 00 00 00 00 00 00 00 00 00 00 00 00
       0.0 0.0 0.0 0.0
000120 00 00 00 00 00 00 00 00 00 00 00 00 00 00 00 00
       0.0 0.0 0.0 0.0
000130 00 00 00 00 00 00 00 00 00 00 00 00 00 00 00 00
       0.0 0.0 0.0 0.0
000140 00 00 00 00 00 00 00 00 00 00 00 00 00 00 00 00
       0.0 0.0 0.0 0.0
000150 00 00 00 00 00 00 00 00 00 00 00 00 00 00 00 00
       0.0 0.0 0.0 0.0
000160 00 00 00 00 00 00 00 00 00 00 00 00 00 00 00 00
       0.0 0.0 0.0 0.0
000170 00 00 00 00 00 00 00 00 00 00 00 00 00 00 00 00
       0.0 0.0 0.0 0.0
000180 00 00 00 00 00 00 00 00 00 00 00 00 00 00 00 00
       0.0 0.0 0.0 0.0
000190 00 00 00 00 00 00 00 00 00 00 00 00 00 00 00 00
       0.0 0.0 0.0 0.0
0001a0 00 00 00 00 00 00 00 00 00 00 00 00 00 00 00 00
       0.0 0.0 0.0 0.0
0001b0 00 00 00 00 00 00 00 00 00 00 00 00 00 00 00 00
       0.0 0.0 0.0 0.0
0001c0 00 00 00 00 00 00 00 00 00 00 00 00 00 00 00 00
       0.0 0.0 0.0 0.0
0001d0 00 00 00 00 00 00 00 00 00 00 00 00 00 00 00 00
       0.0 0.0 0.0 0.0
0001e0 00 00 00 00 00 00 00 00 00 00 00 00 00 00 00 00
       0.0 0.0 0.0 0.0
0001f0 00 00 00 00 00 00 00 00 00 00 00 00 00 00 00 00
       0.0 0.0 0.0 0.0

bns.0.running_mean f4 [128]
000000 ee d2 4e be 9d af f2 bc 02 54 01 be 6c c0 96 3e
       -0.20197651 -0.029624755 -0.12629703 0.2944368
000010 9b 7f 3c be 72 d4 68 be ba d0 88 be 37 4b 40 be
       -0.18408053 -0.22737291 -0.26721746 -0.18778692
000020 08 68 08 be aa 1a 63 be d8 60 c9 3d 47 2e bb 3d
       -0.13320935 -0.2217814 0.098329246 0.09139686
000030 25 c7 8e 3c 86 60 2a bd 3a 30 f6 bc db 76 82 be
       0.017428944 -0.04159596 -0.030052293 -0.25481305
000040 46 40 8c 3e 12 f9 7f bd 74 a4 6e be ce 61 f0 3d
       0.27392787 -0.06249339 -0.23304921 0.11737405
000050 0d 88 96 be ea 91 94 3e 70 02 89 bc ee 63 81 bd
       -0.29400674 0.29017574 -0.016724795 -0.06317888
000060 b6 03 ee bd 95 cc 48 be d1 33 9c be 73 fe 30 3e
       -0.116218016 -0.19609292 -0.30508283 0.17284565
000070 a3 d8 de 3d e6 e9 17 3e f4 61 36 3d 0c 3e 2d 3e
       0.10881164 0.14835319 0.04452701 0.169182
000080 ee 68 98 bd 0a 1a 6d 3d a8 23 06 bd 4d e0 b6 3d
       -0.07441889 0.05788616 -0.03274885 0.08929501
000090 23 ab f4 bd 42 1b 08 bd c2 92 12 be 76 b6 61 3b
       -0.11946704 -0.03322912 -0.14313796 0.003444103
0000a0 e5 ea 17 3d bf 10 57 be de 71 6e be 3f f6 cf bd
       0.037089247 -0.21002482 -0.23285624 -0.101543896
0000b0 4e c1 f8 3d 5a 53 99 3e 0d 3b 20 3e 9a 74 56 be
       0.12146245 0.29946405 0.15647526 -0.20942917
0000c0 99 b3 69 3e 5f 8d ba bc 24 f0 2e 3e e2 76 ca 3d
       0.22822417 -0.02277249 0.17083794 0.09885956
0000d0 77 3e 81 3d db c6 7b 3e a8 8d ab 3d 75 a8 16 bd
       0.06310742 0.24587576 0.08376628 -0.036781747
0000e0 91 ca 33 be 53 9e 57 3e 69 b8 90 3e dd 77 19 3e
       -0.17557742 0.2105649 0.28265694 0.1498713
0000f0 8a 7b a3 bd 13 53 ce 3d ec b8 9e be b8 d5 d3 bd
       -0.079825476 0.10074439 -0.3100046 -0.10343498
000100 10 9c 97 3e a6 97 87 3e c0 31 26 be 47 bb 27 be
       0.29611254 0.26482886 -0.16229916 -0.16380034
000110 34 7b 5e be 4e 80 72 3d cd 9d 76 be 2a 58 9c 3e
       -0.21726686 0.059204392 -0.24083634 0.30536014
000120 1b b6 13 3e eb 18 1a 3d 4c ea 89 be d3 cc 13 3e
       0.14424936 0.03762142 -0.26936567 0.14433603
000130 34 69 58 be 0a 5c 91 be d7 84 9d 3e 5d d8 28 3e
       -0.21133882 -0.28390533 0.3076541 0.16488786
000140 40 4b 60 be cc 1c 76 be b2 05 76 3e 3d 69 0e 3e
       -0.21903706 -0.24034423 0.2402561 0.13907333
000150 54 bb 53 3e ea 0b f5 bd bd 97 87 be 44 6a 3e 3d
       0.20676929 -0.11965163 -0.26482955 0.04648806
000160 36 c4 73 be 09 ce ab bc cc a7 09 bd b3 41 70 bd
       -0.23805317 -0.020972269 -0.03360729 -0.058656406
000170 d7 c9 8b 3d 54 17 44 be a4 92 89 3e db 19 9b bd
       0.06825607 -0.19149524 0.2686969 -0.07573291
000180 22 1b 2f be d0 78 5d be 35 33 37 be 48 01 84 3e
       -0.17100194 -0.21628118 -0.17890628 0.25782228
000190 b8 48 2d 3e 12 44 ed bd 05 77 85 3e cd 71 35 3c
       0.16922271 -0.11585249 0.26067367 0.0110744955
0001a0 3d f8 9d 3e bb a2 a1 3e b8 e7 27 3d 33 26 a1 bc
       0.30853453 0.31569466 0.04099247 -0.019671535
0001b0 02 aa 6a 3e c2 85 69 3e 35 8c ed bd 86 1c 84 3e
       0.22916415 0.22804931 -0.11599008 0.25803012
0001c0 86 a0 01 bd e1 e0 0c be a3 12 8f 3e 2c 31 5d be
       -0.031647228 -0.1375766 0.27943906 -0.21600789
0001d0 e7 a0 34 3e 9e 16 3b 3e 7e e8 ac 3c 8f 7d d8 bd
       0.17639504 0.18270347 0.021106955 -0.105708234
0001e0 94 75 c7 bd ae 76 3c 3e f8 29 6b be c0 b9 0c 3d
       -0.09739223 0.18404648 -0.22965229 0.034356833
0001f0 0d d0 1d 3e 03 60 8a 3e f3 34 0a 3e 3b 4d be 3d
       0.15411396 0.27026376 0.13496761 0.09292074

bns.0.running_var f4 [128]
000000 7e 06 bd 3b cc 99 07 3c 3c b4 eb 3b 68 68 d9 3b
       0.005768596 0.008276414 0.0071931165 0.0066347606
000010 5c 42 07 3c 5c 4a 01 3c 46 6b 0b 3c 5f 7b 6c 3b
       0.008255567 0.007891264 0.008509463 0.0036084277
000020 ad 4c 12 3b c6 9e 06 3c 72 c6 85 3b 34 58 67 3b
       0.0022323534 0.0082165655 0.0040824944 0.0035300376
000030 65 75 2f 3c 86 af ee 3b 64 b6 58 3b 63 a0 5c 3b
       0.010709141 0.0072841076 0.0033067698 0.0033664934
000040 f1 d8 c8 3b 5e 9f 8a 3b f8 f0 c7 3b 96 fb cf 3b
       0.006129377 0.004230424 0.0061017238 0.00634713
000050 3f 7c 59 3b 95 8f c3 3b fc 8a c8 3b 33 f0 d6 3b
       0.0033185629 0.005968044 0.006120084 0.0065593957
000060 50 1f ea 3b 6d d7 84 3b 03 08 65 3b b8 eb d1 3b
       0.007144846 0.004054001 0.0034947402 0.0064062737
000070 00 ee b1 3b b3 36 49 3b 82 54 10 3c cf eb d7 3b
       0.005429983 0.003070277 0.008809211 0.00658939
000080 5c f6 9e 3b 30 96 00 3c 3e c4 c8 3b 81 1d ea 3b
       0.0048511457 0.0078483075 0.0061269095 0.0071446304
000090 79 17 05 3c 72 39 0a 3c 7e 63 de 3b c5 0e 15 3c
       0.008123272 0.008436548 0.0067867627 0.00909776
0000a0 5a 27 ab 3b fb f5 b4 3b d3 d0 02 3c 60 67 9c 3b
       0.005223197 0.005522487 0.007984358 0.0047730654
0000b0 04 27 c4 3b 54 2b d5 3b 84 d3 b6 3b 05 eb a6 3b
       0.0059860963 0.0065054093 0.005579414 0.0050939345
0000c0 61 ec ae 3b d2 2e 04 3c 11 24 72 3b 33 d4 82 3b
       0.005338237 0.008067803 0.0036947767 0.0039925813
0000d0 42 08 9e 3b a8 de b4 3b dc 6b 0e 3c ac 86 b4 3b
       0.0048227618 0.0055197068 0.008692708 0.005509218
0000e0 d8 42 ab 3b 81 a1 8c 3b 43 8c 00 3c 7b 31 97 3b
       0.0052264743 0.0042917137 0.007845941 0.004614053
0000f0 ec 63 80 3b f4 d2 ba 3b 73 2f fd 3b f9 fd 37 3b
       0.0039181616 0.005701417 0.0077266037 0.0028074963
000100 cd 11 94 3b 03 e6 e4 3b a7 53 e8 3b ea 13 f0 3b
       0.0045187236 0.0069854273 0.0070900503 0.0073265927
000110 e5 4f f3 3b 12 d4 bb 3b 96 b9 a5 3b 9d 2b 90 3b
       0.0074252957 0.005732068 0.005057524 0.0043997304
000120 88 f8 bb 3b 33 95 87 3b ae 25 9b 3b 6e f9 0a 3c
       0.0057364143 0.004137659 0.0047347164 0.00848232
000130 32 e5 bb 3b a4 19 54 3b 30 83 cd 3b c9 a4 9b 3b
       0.0057341093 0.0032363916 0.0062717423 0.0047498685
000140 ba 15 a1 3b 2d 89 ee 3b b2 7e bb 3b db 30 9b 3b
       0.00491592 0.007279536 0.0057218904 0.0047360486
000150 35 55 de 3b 16 0a 16 3c 09 68 80 3b 0f 80 05 3c
       0.00678506 0.009157678 0.003918652 0.008148207
000160 c4 16 d4 3b 07 37 ce 3b 64 1f 06 3c 7a f4 c2 3b
       0.0064724404 0.006293181 0.008186195 0.005949554
000170 58 31 37 3c aa 56 ad 3b 1d c7 27 3c ff 33 88 3b
       0.011181198 0.005289872 0.010240343 0.004156589
000180 ee c8 ad 3b c6 27 c6 3b 50 41 06 3c 3a e8 c0 3b
       0.0053034937 0.006047222 0.008194283 0.0058870586
000190 45 07 c3 3b 91 c4 88 3b 2a 26 b5 3b 39 b0 11 3c
       0.0059517943 0.004173823 0.005528231 0.008892112
0001a0 12 5f 04 3c c0 a7 e0 3b 7c b1 e6 3b 08 6c 07 3c
       0.008079307 0.006855935 0.0070402008 0.008265503
0001b0 d1 2b 45 3b ae d2 fd 3b 87 b1 96 3b a3 14 94 3b
       0.003008593 0.0077460622 0.0045987996 0.0045190617
0001c0 07 cb c0 3b 44 9c 9b 3b 25 3c fb 3b f9 0a f9 3b
       0.0058835777 0.004748853 0.007667082 0.007600185
0001d0 78 1e e4 3b 18 5a dc 3b df aa ef 3b a4 df 28 3b
       0.00696164 0.006724607 0.0073140706 0.0025768066
0001e0 67 6b 26 3b 64 2f ad 3b eb 4b 03 3c b6 47 8a 3b
       0.0025393607 0.0052851904 0.008013706 0.0042199744
0001f0 f7 c5 cb 3a e6 bf 5b 3b df 81 df 3b 0f 74 95 3b
       0.0015546669 0.0033531128 0.0068209018 0.0045609544

bns.1.weight f4 [128]
000000 00 00 80 3f 00 00 80 3f 00 00 80 3f 00 00 80 3f
       1.0 1.0 1.0 1.0
000010 00 00 80 3f 00 00 80 3f 00 00 80 3f 00 00 80 3f
       1.0 1.0 1.0 1.0
000020 00 00 80 3f 00 00 80 3f 00 00 80 3f 00 00 80 3f
       1.0 1.0 1.0 1.0
000030 00 00 80 3f 00 00 80 3f 00 00 80 3f 00 00 80 3f
       1.0 1.0 1.0 1.0
000040 00 00 80 3f 00 00 80 3f 00 00 80 3f 00 00 80 3f
       1.0 1.0 1.0 1.0
000050 00 00 80 3f 00 00 80 3f 00 00 80 3f 00 00 80 3f
       1.0 1.0 1.0 1.0
000060 00 00 80 3f 00 00 80 3f 00 00 80 3f 00 00 80 3f
       1.0 1.0 1.0 1.0
000070 00 00 80 3f 00 00 80 3f 00 00 80 3f 00 00 80 3f
       1.0 1.0 1.0 1.0
000080 00 00 80 3f 00 00 80 3f 00 00 80 3f 00 00 80 3f
       1.0 1.0 1.0 1.0
000090 00 00 80 3f 00 00 80 3f 00 00 80 3f 00 00 80 3f
       1.0 1.0 1.0 1.0
0000a0 00 00 80 3f 00 00 80 3f 00 00 80 3f 00 00 80 3f
       1.0 1.0 1.0 1.0
0000b0 00 00 80 3f 00 00 80 3f 00 00 80 3f 00 00 80 3f
       1.0 1.0 1.0 1.0
0000c0 00 00 80 3f 00 00 80 3f 00 00 80 3f 00 00 80 3f
       1.0 1.0 1.0 1.0
0000d0 00 00 80 3f 00 00 80 3f 00 00 80 3f 00 00 80 3f
       1.0 1.0 1.0 1.0
0000e0 00 00 80 3f 00 00 80 3f 00 00 80 3f 00 00 80 3f
       1.0 1.0 1.0 1.0
0000f0 00 00 80 3f 00 00 80 3f 00 00 80 3f 00 00 80 3f
       1.0 1.0 1.0 1.0
000100 00 00 80 3f 00 00 80 3f 00 00 80 3f 00 00 80 3f
       1.0 1.0 1.0 1.0
000110 00 00 80 3f 00 00 80 3f 00 00 80 3f 00 00 80 3f
       1.0 1.0 1.0 1.0
000120 00 00 80 3f 00 00 80 3f 00 00 80 3f 00 00 80 3f
       1.0 1.0 1.0 1.0
000130 00 00 80 3f 00 00 80 3f 00 00 80 3f 00 00 80 3f
       1.0 1.0 1.0 1.0
000140 00 00 80 3f 00 00 80 3f 00 00 80 3f 00 00 80 3f
       1.0 1.0 1.0 1.0
000150 00 00 80 3f 00 00 80 3f 00 00 80 3f 00 00 80 3f
       1.0 1.0 1.0 1.0
000160 00 00 80 3f 00 00 80 3f 00 00 80 3f 00 00 80 3f
       1.0 1.0 1.0 1.0
000170 00 00 80 3f 00 00 80 3f 00 00 80 3f 00 00 80 3f
       1.0 1.0 1.0 1.0
000180 00 00 80 3f 00 00 80 3f 00 00 80 3f 00 00 80 3f
       1.0 1.0 1.0 1.0
000190 00 00 80 3f 00 00 80 3f 00 00 80 3f 00 00 80 3f
       1.0 1.0 1.0 1.0
0001a0 00 00 80 3f 00 00 80 3f 00 00 80 3f 00 00 80 3f
       1.0 1.0 1.0 1.0
0001b0 00 00 80 3f 00 00 80 3f 00 00 80 3f 00 00 80 3f
       1.0 1.0 1.0 1.0
0001c0 00 00 80 3f 00 00 80 3f 00 00 80 3f 00 00 80 3f
       1.0 1.0 1.0 1.0
0001d0 00 00 80 3f 00 00 80 3f 00 00 80 3f 00 00 80 3f
       1.0 1.0 1.0 1.0
0001e0 00 00 80 3f 00 00 80 3f 00 00 80 3f 00 00 80 3f
       1.0 1.0 1.0 1.0
0001f0 00 00 80 3f 00 00 80 3f 00 00 80 3f 00 00 80 3f
       1.0 1.0 1.0 1.0

bns.1.bias f4 [128]
000000 00 00 00 00 00 00 00 00 00 00 00 00 00 00 00 00
       0.0 0.0 0.0 0.0
000010 00 00 00 00 00 00 00 00 00 00 00 00 00 00 00 00
       0.0 0.0 0.0 0.0
000020 00 00 00 00 00 00 00 00 00 00 00 00 00 00 00 00
       0.0 0.0 0.0 0.0
000030 00 00 00 00 00 00 00 00 00 00 00 00 00 00 00 00
       0.0 0.0 0.0 0.0
000040 00 00 00 00 00 00 00 00 00 00 00 00 00 00 00 00
       0.0 0.0 0.0 0.0
000050 00 00 00 00 00 00 00 00 00 00 00 00 00 00 00 00
       0.0 0.0 0.0 0.0
000060 00 00 00 00 00 00 00 00 00 00 00 00 00 00 00 00
       0.0 0.0 0.0 0.0
000070 00 00 00 00 00 00 00 00 00 00 00 00 00 00 00 00
       0.0 0.0 0.0 0.0
000080 00 00 00 00 00 00 00 00 00 00 00 00 00 00 00 00
       0.0 0.0 0.0 0.0
000090 00 00 00 00 00 00 00 00 00 00 00 00 00 00 00 00
       0.0 0.0 0.0 0.0
0000a0 00 00 00 00 00 00 00 00 00 00 00 00 00 00 00 00
       0.0 0.0 0.0 0.0
0000b0 00 00 00 00 00 00 00 00 00 00 00 00 00 00 00 00
       0.0 0.0 0.0 0.0
0000c0 00 00 00 00 00 00 00 00 00 00 00 00 00 00 00 00
       0.0 0.0 0.0 0.0
0000d0 00 00 00 00 00 00 00 00 00 00 00 00 00 00 00 00
       0.0 0.0 0.0 0.0
0000e0 00 00 00 00 00 00 00 00 00 00 00 00 00 00 00 00
       0.0 0.0 0.0 0.0
0000f0 00 00 00 00 00 00 00 00 00 00 00 00 00 00 00 00
       0.0 0.0 0.0 0.0
000100 00 00 00 00 00 00 00 00 00 00 00 00 00 00 00 00
       0.0 0.0 0.0 0.0
000110 00 00 00 00 00 00 00 00 00 00 00 00 00 00 00 00
       0.0 0.0 0.0 0.0
000120 00 00 00 00 00 00 00 00 00 00 00 00 00 00 00 00
       0.0 0.0 0.0 0.0
000130 00 00 00 00 00 00 00 00 00 00 00 00 00 00 00 00
       0.0 0.0 0.0 0.0
000140 00 00 00 00 00 00 00 00 00 00 00 00 00 00 00 00
       0.0 0.0 0.0 0.0
000150 00 00 00 00 00 00 00 00 00 00 00 00 00 00 00 00
       0.0 0.0 0.0 0.0
000160 00 00 00 00 00 00 00 00 00 00 00 00 00 00 00 00
       0.0 0.0 0.0 0.0
000170 00 00 00 00 00 00 00 00 00 00 00 00 00 00 00 00
       0.0 0.0 0.0 0.0
000180 00 00 00 00 00 00 00 00 00 00 00 00 00 00 00 00
       0.0 0.0 0.0 0.0
000190 00 00 00 00 00 00 00 00 00 00 00 00 00 00 00 00
       0.0 0.0 0.0 0.0
0001a0 00 00 00 00 00 00 00 00 00 00 00 00 00 00 00 00
       0.0 0.0 0.0 0.0
0001b0 00 00 00 00 00 00 00 00 00 00 00 00 00 00 00 00
       0.0 0.0 0.0 0.0
0001c0 00 00 00 00 00 00 00 00 00 00 00 00 00 00 00 00
       0.0 0.0 0.0 0.0
0001d0 00 00 00 00 00 00 00 00 00 00 00 00 00 00 00 00
       0.0 0.0 0.0 0.0
0001e0 00 00 00 00 00 00 00 00 00 00 00 00 00 00 00 00
       0.0 0.0 0.0 0.0
0001f0 00 00 00 00 00 00 00 00 00 00 00 00 00 00 00 00
       0.0 0.0 0.0 0.0

bns.1.running_mean f4 [128]
000000 2c c0 76 bd 2d b4 98 be 83 54 09 be 6a b6 97 be
       -0.060241863 -0.29824963 -0.13411145 -0.29631358
000010 ce dc d6 bd 72 d1 ab 3d 88 b7 a7 3e a8 53 20 3e
       -0.10491334 0.08389558 0.3275721 0.15656912
000020 c2 3b 98 be b0 61 b7 bd de 3a a6 be 44 68 b6 be
       -0.29733092 -0.08954179 -0.32466787 -0.35626423
000030 ed b7 fc bd 6f 77 33 be 4e 46 3e 3d f5 67 79 3e
       -0.123397686 -0.17526029 0.046453767 0.24356063
000040 d2 51 03 3b ce 49 c2 3e 38 37 0f be cb 0c 6e 3b
       0.0020037782 0.37946934 -0.13985908 0.0036323543
000050 ea bb 4c bd d9 8f 4b 3d 4e 28 ee 3d 18 75 55 be
       -0.049983896 0.04969773 0.11628781 -0.20845449
000060 06 8e 36 bf 83 3c 83 bd 2a 54 80 3d 4a 01 1e be
       -0.7131046 -0.06408026 0.06266053 -0.15430179
000070 74 ee 94 bc c2 bf 97 be bd 5f 81 be 93 c5 aa bd
       -0.01818011 -0.29638487 -0.25268355 -0.083384655
000080 b1 23 58 3e f0 ad 6f 3e 8d 48 66 3e 0e d9 bb be
       0.21107365 0.23406196 0.22488613 -0.36689037
000090 ad 3f 24 be c0 3c 66 3e f8 3c ea 3e 7c 9a 76 3d
       -0.16039915 0.22484112 0.4574964 0.06020592
0000a0 03 97 e7 3d 8f 0f 5c 3e 55 3d 95 bd 07 3c a0 3e
       0.113081 0.2149031 -0.07287089 0.31295797
0000b0 ec 35 03 3e 95 c8 30 be 48 0e d6 bd c1 89 c3 be
       0.12813538 -0.17264016 -0.10451943 -0.38191035
0000c0 5b 44 98 3d c4 bd c8 bd f8 38 a6 bd b6 b8 ef 3e
       0.07434913 -0.0980182 -0.08116335 0.4682061
0000d0 ff c9 c3 bd 46 58 95 3c a4 ed 4c 3e d4 56 5f 3e
       -0.09560012 0.018230569 0.20012528 0.21810466
0000e0 c1 f9 c9 bd ab 5f a7 bd 47 5e 50 bd f3 da 07 3e
       -0.0986209 -0.08172544 -0.05087116 0.13267116
0000f0 c5 0d af 3d ab f6 2e bd e3 06 10 3e de 74 1c 3c
       0.08547548 -0.04271571 0.14065127 0.009549348
000100 25 65 18 be 61 4a eb 3e 58 bc 9e bc bb e4 37 3e
       -0.14882334 0.45955184 -0.019376919 0.17958347
000110 49 ab 6b 3e 2c e7 60 bd 63 9e d6 3d 15 ed f4 3e
       0.23014559 -0.054907963 0.104794286 0.4783713
000120 78 0b fd be cf fa 36 3e 19 02 0f bf 84 7f 83 bd
       -0.49422812 0.17869113 -0.55862576 -0.06420806
000130 6c cc 5d 3e 93 7e 7a 3e c4 5f 62 be 3f df 0a be
       0.21660012 0.24462347 -0.22106844 -0.13561724
000140 18 e4 d7 bd 3d 8f 58 3e 00 2d 40 be 3b 8c 5f 3e
       -0.10541552 0.21148391 -0.18767166 0.21830837
000150 22 3b 07 be 2a 76 b6 be 50 92 b0 3e d6 af 64 3e
       -0.13206151 -0.35637027 0.34486628 0.22332701
000160 ee 3a e9 3e f4 dd 7a 3d 41 02 da 3e 41 dc 4d 3e
       0.45552772 0.061246827 0.42579845 0.20103551
000170 f9 b5 f4 be e6 a6 d7 bd 01 87 01 3d ba 4a 07 3f
       -0.47795084 -0.1052988 0.03162289 0.528484
000180 24 2d 4a be 42 a0 53 be 69 1c 19 bf c1 d3 d9 3d
       -0.19743782 -0.20666602 -0.59808975 0.10636092
000190 35 d3 80 bd 38 98 27 be ab 0f 75 be 42 76 33 3e
       -0.062902845 -0.1636666 -0.23931758 0.1752558
0001a0 0e e0 cb be a4 fe f2 be 1e 0c da 3e 19 a1 68 be
       -0.39819378 -0.474599 0.4258737 -0.22717704
0001b0 75 7e 12 3e 43 aa fc be e5 ae b8 be c9 1a ea 3d
       0.14306052 -0.4934865 -0.36070934 0.1143089
0001c0 3d 55 a0 bd a6 7e d5 3e aa cc 50 3e 26 d6 47 be
       -0.07828758 0.41698188 0.20390573 -0.19515285
0001d0 f6 6e 82 bd 15 22 19 3f 64 e8 8d bc 67 36 17 3e
       -0.0636882 0.5981763 -0.017322727 0.14766847
0001e0 9d 28 c7 3e 08 d9 89 3d b0 d0 63 3e de 67 fd 3d
       0.38898173 0.067308486 0.22247577 0.12373327
0001f0 dc ff e7 3c 78 6a 3e bd 7d 8c 9c 3e a9 a1 4c be
       0.028320245 -0.046488255 0.30575934 -0.19983543

bns.1.running_var f4 [128]
000000 56 67 c8 3d 7e b2 ad 3d 08 fb 0b 3e 32 2d be 3d
       0.09785335 0.0848131 0.1366998 0.09285964
000010 a3 a4 44 3e 7c a9 c1 3d d8 71 ce 3d 3b 7a e3 3d
       0.19203429 0.09456155 0.10080308 0.11107298
000020 c4 fd 9c 3d 3f 19 f6 3d 79 a3 e1 3d 8c e1 06 3e
       0.076655895 0.12016534 0.11017508 0.13171977
000030 36 96 66 3e 93 d1 e4 3d 88 06 19 3e cd 32 1f 3e
       0.22518238 0.111727856 0.14943898 0.15546723
000040 fb 98 d3 3d 8e 67 2b 3e 7f 03 e3 3d f6 1e 02 3e
       0.10331913 0.16738722 0.11084651 0.12707123
000050 2c 6c 3b 3d 55 d6 09 3e a8 a1 a5 3d bc 26 81 3d
       0.045757458 0.13460667 0.08087474 0.06306216
000060 7f b9 ea 3d a2 8a da 3d 37 a1 d0 3d bf 99 af 3d
       0.11461162 0.10670973 0.10186999 0.085742466
000070 d7 16 ea 3d 14 f5 8a 3d 5d 38 bb 3d 25 71 1e 3d
       0.114301376 0.06785026 0.0914161 0.03868212
000080 1e 0d 24 3e a2 22 c5 3d 97 11 c2 3d 55 37 20 3e
       0.16020629 0.09625746 0.09476011 0.15646107
000090 97 22 d3 3d 9f fd 56 3e 08 2e bb 3d 2d 1a 4d 3e
       0.10309332 0.20995186 0.09139639 0.20029517
0000a0 65 02 ea 3d d0 13 6c 3d ed 5f e5 3d c6 9d 06 3e
       0.11426238 0.057636082 0.11199937 0.13146123
0000b0 86 9b a0 3d 3e e7 01 3e e6 a6 87 3d 42 d9 3c 3e
       0.07842164 0.12685868 0.0662363 0.18442252
0000c0 32 1e 08 3e 78 0e c2 3d 3c f1 ee 3d 7a ca 5b 3d
       0.13292769 0.09475416 0.116671056 0.053659894
0000d0 64 ee df 3d 3a 12 bc 3d 4c c3 04 3e ce d0 cd 3d
       0.10934141 0.09183164 0.12965125 0.10049592
0000e0 35 5c fd 3d 33 7d a3 3d df d6 e3 3d bf 18 9f 3d
       0.12371103 0.07982864 0.11124968 0.07768392
0000f0 18 43 6e 3d ae 4a ae 3d d8 3c 5a 3d b9 65 d8 3d
       0.058169454 0.08510338 0.05328068 0.10566277
000100 25 a6 bc 3d 17 67 cb 3d 99 f7 f9 3d f7 4e a4 3d
       0.09211377 0.09931772 0.12205429 0.08022874
000110 62 68 5c 3d 94 7f d8 3d df 80 0b 3e a8 35 f8 3d
       0.053810485 0.105712086 0.13623379 0.12119609
000120 50 dc 1e 3e 3d 8f f3 3d 71 f4 17 3e df bb 45 3e
       0.1551373 0.11892555 0.14839341 0.19309948
000130 2d ed 03 3e 63 1d b9 3d d3 b0 c4 3d 69 9a ed 3d
       0.12883444 0.09038808 0.09604039 0.11601717
000140 c9 56 c0 3d 6d a3 e2 3d 38 2a 9b 3d 17 8e 00 3e
       0.09391553 0.11066327 0.07576412 0.12554203
000150 2c 2d 48 3e b2 e3 c2 3d ac fe b9 3d 1a 51 31 3e
       0.19548482 0.09516086 0.09081778 0.17316094
000160 65 70 b3 3d a3 fe 86 3d f3 06 2f 3e 9b 4f f4 3d
       0.08761672 0.06591537 0.17092495 0.11929246
000170 14 df 02 3e 9f d4 ec 3d d4 1e 26 3e 81 64 1a 3e
       0.1278041 0.11563992 0.16222697 0.15077402
000180 36 c0 79 3d 0d f5 40 3e 9f 87 da 3d 5b 3b e0 3d
       0.060974322 0.1884348 0.10670399 0.10948821
000190 16 6e 2b 3e 38 48 bc 3d a2 1f a8 3d 1d f7 16 3e
       0.16741213 0.09193462 0.082091585 0.14742704
0001a0 e8 ed a6 3d ce 56 2a 3e cb 99 cc 3d cd f9 3b 3e
       0.08150846 0.16634676 0.09990271 0.1835701
0001b0 d7 bb 2b 3e ff 57 8f 3d 52 4b f9 3d 1c 14 ee 3d
       0.16770874 0.06999206 0.12172569 0.11624929
0001c0 6a d3 04 3e d7 86 db 3d 58 a1 b5 3d bf ea e1 3d
       0.12971273 0.10719078 0.088686645 0.110311024
0001d0 08 45 c7 3d 20 e4 d5 3d de 96 d3 3d c8 35 09 3e
       0.097299635 0.10443902 0.1033151 0.13399422
0001e0 d3 43 ba 3d f4 96 d6 3d 08 e4 39 3e 08 8a 9d 3d
       0.09094968 0.10478011 0.18153393 0.07692343
0001f0 a2 4b ee 3d a6 a5 93 3d 7d 88 b6 3d b7 3d fe 3d
       0.116355196 0.07209329 0.08912752 0.12414115
